stats/test/iter5999.pt (torch, 183486 bytes, 12 tensors)

log_std f4 [12]
000000 00 00 00 00 00 00 00 00 00 00 00 00 00 00 00 00
       0.0 0.0 0.0 0.0
000010 00 00 00 00 00 00 00 00 00 00 00 00 00 00 00 00
       0.0 0.0 0.0 0.0
000020 00 00 00 00 00 00 00 00 00 00 00 00 00 00 00 00
       0.0 0.0 0.0 0.0

p_fcs.0.weight f4 [128, 39]
000000 8c 0f e0 3b 04 f2 d8 3b be a8 8d bf 64 27 06 3e
       0.006837791 0.0066206474 -1.1067121 0.13100964
000010 c6 34 4e 3f cd ed 6e 3e f4 ef 0f bd 9f 66 40 bd
       0.80549276 0.23332901 -0.035140947 -0.046972867
000020 5a 96 ed be 7a 18 c7 3d 8a 02 70 3d 17 c4 ee 3c
       -0.46403772 0.097214654 0.05859617 0.029146237
000030 14 fa 00 bd d5 0d 99 3c a4 59 b6 3d 70 1a 63 3c
       -0.031488493 0.018683353 0.08903816 0.013861284
000040 05 d8 d7 bb 68 72 bc 3d 45 b6 fd 3e 56 00 5c 3e
       -0.006587031 0.09201509 0.49553123 0.21484503
000050 b2 a5 44 bc 32 80 30 3d 40 6b 75 3e ca fa 7d 3d
       -0.0120023955 0.043091007 0.23966694 0.06200675
000060 c7 09 07 3d e8 de 26 bc 1c 5a 02 bd d5 44 22 bd
       0.03296831 -0.010184981 -0.031824216 -0.039616425
000070 9d 36 38 3c 07 a6 e4 bc 73 4a 79 3c eb 41 0f 3d
       0.01124349 -0.0279112 0.015215504 0.034974974
000080 1d 37 29 3d a7 ce 1f bb f5 fc e6 bc 99 8d 6d be
       0.041312326 -0.002438465 -0.028196791 -0.23198546
000090 bb 72 a1 3c e3 e2 c9 3e 58 68 ae 3c f4 59 3a 3d
       0.019708028 0.39430913 0.02128999 0.045495942
0000a0 54 59 2a 3d 21 4e 48 bf 5c e8 bd bb 77 e1 26 be
       0.041589096 -0.78244215 -0.0057955217 -0.16296946
0000b0 8d 6a c6 be bf 47 ea 3d ae 26 f0 3c 99 0c d1 be
       -0.38753167 0.11439466 0.029315319 -0.40829924
0000c0 9b a8 68 3d 53 a6 61 bd 65 a7 92 bc 6e f3 16 bc
       0.05680142 -0.05509026 -0.017902086 -0.009213312
0000d0 50 56 df 3c c6 3a a0 be f9 4e 97 3d 35 b1 89 bc
       0.027262837 -0.3129484 0.0738811 -0.016808132
0000e0 40 9e 5c 3d 3a 15 6e 3e 41 9b 9e be 56 16 05 3c
       0.053861856 0.23250285 -0.30977824 0.008123001
0000f0 0a c6 87 be af 19 f8 bd ee 76 3c bd 74 61 c0 3c
       -0.2651828 -0.12114274 -0.046011858 0.02348397
000100 33 8a 8b 3b f1 fe 90 bc 94 ff 4f 3d 61 80 5d bb
       0.004258418 -0.01769969 0.050780848 -0.0033798444
000110 22 94 23 bc f7 98 aa 3c df 62 8e bc cd 37 67 3c
       -0.009984048 0.020824892 -0.01738113 0.014112425
000120 c4 cf e7 3c db dd e2 3a c1 ab b4 bd 1f ce cc bd
       0.028297313 0.001730855 -0.08821822 -0.10000252
000130 bb 46 78 3e dc a3 21 3d 59 42 23 bd da 2f 64 bd
       0.24245732 0.03946291 -0.039858196 -0.055709697
000140 4d 6c fd be bb 07 04 be 04 5f be 3d b8 ca 5c 3e
       -0.4949669 -0.12893574 0.092954665 0.21561706
000150 81 93 e6 bd 3f d6 9f 3d a9 d6 c6 3b 32 5a 1e be
       -0.11258603 0.07804536 0.00606807 -0.15464094
000160 d5 49 5d 3d 13 d7 d8 be 4a ea 96 bd d0 ee 91 3d
       0.05402549 -0.4235159 -0.07368906 0.07125628
000170 ed de 93 bd 2d e6 25 be 13 3a 01 3d 31 1a 2c be
       -0.07220254 -0.16201086 0.031549525 -0.16806866
000180 7d 31 de 3d 31 c2 0d bd d2 bc 0d be 89 2d 85 bd
       0.10849283 -0.034609023 -0.1384156 -0.06502826
000190 65 69 31 3e da e5 c6 3d ff 3e 9a 3c dd d3 10 bc
       0.17325361 0.097118095 0.018828867 -0.008839575
0001a0 89 f9 6c bd c6 b9 95 bd b6 4d 0e bd 45 69 f6 bd
       -0.057855163 -0.07310824 -0.03474208 -0.12031797
0001b0 cd 46 2d bd dd 4c 67 3d 95 f7 56 3d 70 8a 83 bd
       -0.04230385 0.056469787 0.052482206 -0.06422889
0001c0 b6 d8 bc bd 56 60 fe 3d 22 e9 21 3d ab 71 c3 bd
       -0.09221022 0.12420718 0.039528973 -0.09543165
0001d0 fc 38 e0 bd 6d b7 5c bb 39 43 ab 3b 08 58 ce 3e
       -0.10948369 -0.0033678666 0.0052265194 0.40301538
0001e0 4a 4c 00 bf 7f 73 78 3e 60 4d 55 bd bd 7a fe bd
       -0.5011641 0.24262808 -0.052075744 -0.12425754
0001f0 91 9c 2b bc b8 6d 86 3e 45 ec 06 3d e4 33 1f bd
       -0.01047434 0.26255584 0.032940168 -0.038867846
000200 6c f3 d7 be 11 fe 91 bb 9d 1a 23 bd 8d 4b 13 3d
       -0.42177904 -0.004455336 -0.039820302 0.035960723
000210 dd a2 47 bd 72 d5 80 bd 91 31 aa be 05 a7 ff bd
       -0.048739303 -0.062907115 -0.3324094 -0.12483028
000220 b7 e3 f1 be 08 81 8a 3d 70 02 65 3d a3 a4 92 3e
       -0.47244045 0.06762892 0.055910528 0.28641233
000230 d4 27 ae bc 9f fc a6 bc 38 fc b1 3b 19 74 17 3d
       -0.021259226 -0.020384131 0.005431678 0.036975954
000240 4f c6 89 3c 87 af a1 bb e6 42 3f bd 13 33 d8 bc
       0.016818194 -0.0049342546 -0.04669466 -0.026391542
000250 a3 9d ad 3b 88 89 08 ba 4b de 50 bb 1e d7 89 3c
       0.005298333 -0.0005208482 -0.0031870778 0.016826209
000260 b6 48 4e 3e 83 f0 b2 be 72 05 a5 3d b2 f7 be be
       0.20144925 -0.3494912 0.08057679 -0.37298352
000270 da 98 c1 bd 81 46 37 bd a5 45 f1 3e ff 10 27 be
       -0.09452982 -0.044744972 0.47123447 -0.16315077
000280 2a 83 4e 3f d1 f8 d6 bc 7e 4e eb bd 83 0f db bc
       0.8066889 -0.026241692 -0.114895806 -0.026740795
000290 ce 24 bc be 65 d3 fa 3c 91 b9 af 3c 01 a6 c7 3e
       -0.3674683 0.030618379 0.02145079 0.38993838
0002a0 88 de 87 bd 5c d5 08 3c 2c ce 2e bd be dd 9a 3c
       -0.06634241 0.00835165 -0.04267709 0.018904563
0002b0 9b 4f 22 3d d2 04 ea bd c9 cd 6b be e8 4d a1 be
       0.0396267 -0.11426701 -0.2302772 -0.3150475
0002c0 ce db a2 bc 6f 3d 15 3e 0b de 00 3f 72 eb 3e 3c
       -0.019880202 0.14574216 0.5033881 0.011652814
0002d0 a9 0e 6d 3d 31 29 c2 bc c8 79 6d bc 52 0e 13 bd
       0.05787531 -0.023701282 -0.014494367 -0.03590233
0002e0 f9 16 e6 3c 56 fe 99 3c 01 8e 28 3d 61 5b 78 bc
       0.028087126 0.018798035 0.04115105 -0.015158505
0002f0 8c a0 86 bc 68 b8 8d 3d 4b 9b b3 3c d2 51 18 be
       -0.016433977 0.06919938 0.021924635 -0.14874962
000300 ed de bc 3d bf da 93 3e df 2f 17 be d7 ee 7c 3c
       0.09222207 0.28877828 -0.14764355 0.015437803
000310 fd 2e c1 3c fd b3 4c bf 16 1e ec 3e a9 a8 2e bf
       0.023581976 -0.7996214 0.46116704 -0.68226105
000320 f0 b2 17 bd 11 01 fc 3d e3 23 41 3d 92 b4 21 3e
       -0.037035882 0.12304891 0.047153365 0.15791538
000330 38 24 17 3e 58 bf 93 3c a2 7f 36 3e af bf b5 3d
       0.1475991 0.018035576 0.17822126 0.08874451
000340 02 b3 c2 3c cb 7d 47 bd 2b 0a fc 3d f7 97 ce 3c
       0.023766998 -0.04870395 0.12306627 0.025218947
000350 e4 0b d8 3e 99 5d 8d 3e 1c f9 94 bd 51 38 3f 3d
       0.42196572 0.27610472 -0.07274076 0.046684567
000360 4a dc 38 3e 89 64 ff be 9e 7b 68 bc 0b c1 9d 3c
       0.18052784 -0.4988139 -0.014189629 0.01925709
000370 4f 69 50 ba 81 b8 bb ba 07 d6 e6 3c 4b a1 5c 3b
       -0.00079502625 -0.0014321954 0.028178228 0.0033665474
000380 35 a8 38 3d 4c 4d 48 bd ab e2 09 bc 7e 94 be bc
       0.04508229 -0.04890184 -0.008415858 -0.023264166
000390 d7 ed fb 3b 73 d6 47 bb 24 c8 2f be 09 32 89 3c
       0.007688265 -0.0030492812 -0.17166191 0.016747491
0003a0 62 86 c0 3d 2a 38 31 3d b3 d4 8b 3b 28 89 88 3c
       0.094006315 0.043266453 0.004267299 0.016666964
0003b0 95 4b 75 be ed 6b d1 bb 36 f9 a4 bd c3 37 46 3e
       -0.23954614 -0.0063910396 -0.08055346 0.19357209
0003c0 65 cf 86 bd eb 07 c4 3d a0 c1 c7 be 3d 18 85 3d
       -0.06582526 0.09571823 -0.39014912 0.06498764
0003d0 cd 19 19 3d 4b b6 1f 3e c7 b5 4f bd 7e c0 a2 3c
       0.03737812 0.15596883 -0.050710466 0.019867178
0003e0 91 e1 dd 3e 6c 6b 60 3d be a8 3c 3d 49 ed 47 3e
       0.43336156 0.054789945 0.046059363 0.19524111
0003f0 49 13 71 bd 20 43 10 3e cd ed f2 3d ec 21 83 bd
       -0.058856282 0.14088106 0.11861763 -0.064029545

p_fcs.0.bias f4 [128]
000000 5e b3 d2 3b 9d 80 82 3d 81 65 70 bd f9 ed dc 3b
       0.0064300736 0.06372187 -0.05869055 0.0067422357
000010 bd c2 82 bd 0e 87 1d 3c 66 1c 9a ba c6 4e 21 3b
       -0.063848 0.009614719 -0.0011757731 0.0024613603
000020 c0 e4 cc bc 4e b3 0e bd fd 93 43 bc 06 be 45 3d
       -0.02501142 -0.034838967 -0.011937139 0.048276924
000030 ab 50 97 bb 08 62 ee bc ac 8d 38 bc 2c 9d 91 bd
       -0.0046177707 -0.02909948 -0.011264246 -0.07110056
000040 2d bd 4a bd d4 42 2d 3d dd 2b 09 3d a5 9d 0e bd
       -0.04949682 0.04230006 0.033489097 -0.03481831
000050 1b ec d7 3c c4 f7 a2 bc cd 26 4a 3d 8f a6 80 b9
       0.026357701 -0.019893534 0.04935341 -0.00024538158
000060 f8 43 af bd b5 b5 92 bc 60 62 b5 bc 2e b0 58 bd
       -0.08557886 -0.01790891 -0.022141635 -0.052902393
000070 95 10 da 3b 48 9b 6d bc f7 01 c7 3c c1 87 13 bd
       0.0066548088 -0.014502354 0.02429293 -0.036018137
000080 2f 0b e8 bc 59 55 3a 3c 47 fa 53 3d df e9 44 bc
       -0.028325645 0.0113728875 0.051752355 -0.01201865
000090 12 11 c8 3b a7 8a 41 3d dc 98 cc 3c 10 5e 86 3d
       0.0061055506 0.04725137 0.024975233 0.0656091
0000a0 64 56 90 bc 17 18 d8 ba a6 d5 8e bc d5 d1 75 bc
       -0.01761932 -0.0016486672 -0.01743586 -0.015003641
0000b0 be 3a 35 bd 14 f0 8c bc 36 75 85 bc 49 fd 90 3b
       -0.044245474 -0.017204322 -0.016291242 0.004424725
0000c0 e3 2e 8a b9 37 ad d1 bc 1c c4 f0 ba fb 5b 9c bc
       -0.00026356344 -0.02559529 -0.0018368992 -0.019086828
0000d0 ee d2 0e bc 6d 55 95 bd f6 bf c1 bd 44 41 8c 3c
       -0.008717282 -0.07291684 -0.09460442 0.017120965
0000e0 25 f0 12 3d fa 2b bd 3c f4 7b d0 3c 9c 25 3e 3a
       0.03587355 0.023092259 0.02544973 0.0007253529
0000f0 66 4d 1e 3c db ea 65 bd 14 d8 35 3c 99 2d 0a 3d
       0.009662008 -0.05613218 0.01109888 0.03373489
000100 a0 c5 14 bd 2a ae b6 3c 1d 98 9a 3c 99 1b 8e bd
       -0.036321282 0.022299845 0.018871361 -0.069388576
000110 d7 97 57 3d 69 e9 b3 bc 4e 99 d3 bb bc c6 ed bc
       0.05263504 -0.021961885 -0.0064574843 -0.029025428
000120 c6 39 16 bc 92 e2 ce bc 3b 86 bb 3c bf 63 00 bd
       -0.009169048 -0.025254522 0.022891155 -0.031345125
000130 c8 b7 9d bc 87 b3 12 bd b0 ef 17 bd ef 50 98 3c
       -0.019252673 -0.035815742 -0.03709382 0.01859328
000140 06 f8 9a 3c 14 85 94 3c 0f 62 82 bd 47 84 60 3b
       0.018917095 0.018129863 -0.063663594 0.003425853
000150 19 b4 2d bd 4d 5f 4a 3b 9c 6a 90 3b ba 35 bb bc
       -0.042408083 0.0030879558 0.00440724 -0.022852767
000160 b0 d9 f7 3b 34 cd e6 3c b0 e2 41 3c 00 20 0a 3c
       0.007563792 0.02817402 0.011833832 0.008430481
000170 0c 18 38 bd 45 6d a6 bc 77 03 03 bc fa 88 3d bc
       -0.044944808 -0.020315776 -0.007996432 -0.011568302
000180 46 1b 2b 3b 33 33 4b bd 61 e1 dc 3c 86 13 d1 3c
       0.0026108786 -0.049609374 0.026962938 0.025522005
000190 f0 66 b4 bc 56 53 c5 3c 3c 27 6b bd 67 82 8c 3c
       -0.02202174 0.02408759 -0.057410464 0.017152024
0001a0 42 3e 8b bb 31 4d 00 3d 2e ba 9d 3c 3b 1d 2f bc
       -0.004249365 0.031323615 0.019253816 -0.010688121
0001b0 59 71 3c 3c 53 bc af 3c 55 e6 32 3d 88 22 36 bb
       0.011501634 0.021452105 0.043676693 -0.0027791578
0001c0 c1 f3 de 3c c7 50 ca 3c 6d e8 da 3c 29 f3 55 bc
       0.02721584 0.02469672 0.026722157 -0.013058462
0001d0 6f cb bb 3c 42 45 12 bd b9 a7 06 bd 32 5a e0 3c
       0.022924153 -0.03571058 -0.032874797 0.027386758
0001e0 99 8a 45 bd a4 4b 6d 3d 77 64 9c bd aa f4 ef bb
       -0.04822788 0.057933465 -0.0763635 -0.0073228674
0001f0 a9 b1 e8 3c 68 64 7d bd d1 2e 06 bd 8d c4 41 bd
       0.028405027 -0.061863333 -0.03275949 -0.047306586

p_fcs.1.weight f4 [128, 128]
000000 c6 3e 4b bc 4c 30 cd bb 34 60 88 bc c6 ae a0 bb
       -0.012405103 -0.006261861 -0.016647436 -0.004903647
000010 68 9d be bb a0 8a 9f bb 48 52 9e bc 2f eb 7c 3c
       -0.005817104 -0.0048688203 -0.019326344 0.0154369315
000020 0c 86 d7 3b 46 4e 1b bc 57 83 02 3b 4a 2e f9 bb
       0.006577259 -0.009479111 0.001991471 -0.007604395
000030 57 b8 c8 bb 51 42 96 bb fd 2a 19 3b 6e 21 54 bb
       -0.0061254906 -0.0045855423 0.002337157 -0.0032368558
000040 98 30 8f bb 75 13 0e 3c fb 2e fa ba 49 39 17 3b
       -0.0043698065 0.008671631 -0.0019087488 0.0023074916
000050 f8 1c 9c bc 32 fb 4e bb b5 d5 86 bb 91 d8 49 bb
       -0.019056782 -0.003158283 -0.0041148313 -0.003079925
000060 ee f0 22 3c c8 9e c1 bc d2 7a 2b 3a 64 8f 01 bb
       0.009945137 -0.023635283 0.0006541434 -0.0019769305
000070 3a a3 86 bc 78 ff 69 bc 99 65 9c ba aa 31 8f 3c
       -0.016435254 -0.0142821 -0.0011932134 0.017479736
000080 be 1d 72 bc fa d3 eb 3b d7 b6 4b 38 18 ec b1 3b
       -0.014777599 0.0071969004 4.8569254e-05 0.005429756
000090 f3 7b 3b bc dc 5d 6d ba 26 f9 11 3c b9 dd 1e bc
       -0.011443126 -0.00090548187 0.008909499 -0.0096964175
0000a0 8a 04 d5 ba d9 71 16 bc 8f 0a 4a 39 56 8b 06 3c
       -0.0016251963 -0.009182417 0.00019268155 0.008211931
0000b0 7e 19 27 bc 35 55 22 3b 2e 12 9b b9 36 3f a1 bc
       -0.010198949 0.0024770026 -0.0002957745 -0.019683462
0000c0 9f 58 de bb 32 00 a1 bc c1 80 76 bb b8 cf 6e ba
       -0.006785467 -0.019653413 -0.0037613364 -0.0009109932
0000d0 f2 34 b6 bc 70 07 26 bc 4c 65 7a bb aa 20 98 bb
       -0.022242043 -0.010133609 -0.003820735 -0.0046425657
0000e0 32 b6 57 bb f1 a1 bc bc 79 3f 0d bc 7b 3e 08 bc
       -0.0032914993 -0.023026438 -0.00862109 -0.008315678
0000f0 be 32 01 bc f3 4e ee 3b 9f 64 f5 3b 5e ee 22 bc
       -0.007885633 0.007272595 0.0074888016 -0.0099445265
000100 fd 67 0d bc cb e4 bd bb b3 c4 01 bd a0 df be bb
       -0.00863075 -0.0057950965 -0.031681728 -0.005824998
000110 95 16 94 bb 4c cd 2e bc 68 28 6a bc 8c 0a 65 3c
       -0.0045192936 -0.010669064 -0.01429186 0.013979565
000120 64 bb 98 bb 08 43 7d bb 1a 2b 31 bc c4 55 63 3b
       -0.0046610106 -0.003864469 -0.010813499 0.0034688571
000130 00 b7 70 b9 fd 76 8f bc 0d 5f 4d bc a3 62 3a bc
       -0.00022956356 -0.017512793 -0.012534869 -0.011376056
000140 13 5c 83 bc 5e 74 bb ba 35 41 85 3b 21 3c 13 bc
       -0.016035115 -0.0014301648 0.004066611 -0.008986504
000150 05 be 2c 3c 04 00 b8 bb 2a 2b 6f bb df 4b fa 3b
       0.010543351 -0.0056152362 -0.0036494234 0.007638439
000160 6f c4 b3 bb f7 0e bc bc 1e 15 52 bb 84 0d ae bb
       -0.005486063 -0.022956355 -0.0032056044 -0.00531167
000170 0f 97 e4 bb 41 fd 7e bb 48 0b 26 bb 3b a4 54 3b
       -0.0069760154 -0.0038908275 -0.0025336314 0.0032446522
000180 27 05 0e bc 8f a2 4b 3c 1b 7d 52 bc bc 8a 78 bc
       -0.008668221 0.012428894 -0.01284721 -0.015169796
000190 2d 62 2a bc c7 5d 70 bc 17 44 27 bc a4 3b 8c b9
       -0.0103993835 -0.014670796 -0.010209105 -0.00026747317
0001a0 98 fa 87 bb 70 da 2e bb 2b 1d a1 bb 9c ec 6a bc
       -0.004149746 -0.0026680492 -0.004916807 -0.014338639
0001b0 06 4d cf 3a a6 d6 83 bb 8f 18 18 bc 96 3b 80 bb
       0.0015815801 -0.004023391 -0.009283199 -0.003913353
0001c0 1a 20 7a bc 65 63 c9 bc 00 22 97 bc 0e 5a b6 bb
       -0.015266443 -0.024583528 -0.01844883 -0.0055649346
0001d0 49 42 79 bc 47 c5 c1 bc 92 e1 0b bc c4 68 54 bb
       -0.0152135575 -0.02365364 -0.008537667 -0.0032411078
0001e0 11 4c e2 bb 40 3f 96 bb 5f ce 39 bc 4e 66 63 bc
       -0.0069060405 -0.0045851767 -0.011340707 -0.013879372
0001f0 25 70 da bb 5c 40 3e bc 2f dc 30 3c 51 03 57 3b
       -0.0066662007 -0.011612024 0.010794683 0.0032808373
000200 9c d0 08 bd 7f f4 12 3d 76 d9 f5 bd 0a 8f 4d 3d
       -0.03340207 0.0358777 -0.12004368 0.05018524
000210 9d 0b 38 3d 82 94 2b 3c d5 37 db 3d 37 d6 17 bd
       0.04493295 0.010472419 0.107040085 -0.037069526
000220 64 d1 c1 bd a2 66 c6 3c f2 47 91 3d 3c 85 29 3d
       -0.09463766 0.024218861 0.070938006 0.041386828
000230 30 57 90 38 31 17 8a bc a9 a3 7e bd 4e 03 c3 bd
       6.882695e-05 -0.016856762 -0.062167797 -0.09522115
000240 de 6d 6b bd ba 30 84 bd c7 5d 2c 3d 34 5f 87 bd
       -0.057477824 -0.06454606 0.04208162 -0.066099554
000250 4f 23 7c bd 6b 00 7e be 2c aa ce bd cd d0 06 bb
       -0.06155711 -0.24804847 -0.100910515 -0.0020571232
000260 50 05 92 bd 04 d5 f6 bd a8 7f c2 ba 14 51 93 3c
       -0.071299195 -0.12052348 -0.001483907 0.017982997
000270 4d b5 fb bd 92 65 1c bc 95 1c 8b bd 7b e4 47 3d
       -0.1229044 -0.009545701 -0.06792561 0.04880188
000280 92 d3 d5 bc 96 24 2f 3b 0c 2e 80 3d c3 de 2f 3e
       -0.026101861 0.0026724688 0.06258783 0.1717482
000290 43 49 19 be 93 b6 3b 3d cf 9a b0 3d 42 de 57 3d
       -0.14969353 0.045828413 0.086232774 0.052702196
0002a0 9a 1a 28 3d 21 c9 53 3e 9e 8b ec bc 25 8f 84 bd
       0.041040994 0.20682193 -0.028875168 -0.06472615
0002b0 33 ca cc bc 01 bb 7c bd 9f ca b0 bd 92 2f 88 3b
       -0.02499876 -0.06170178 -0.08632397 0.0041560614
0002c0 e4 d9 2c 3d 8a 09 d8 3d 70 80 ea bd 52 7f 00 bc
       0.042199984 0.105486944 -0.11450279 -0.0078428555
0002d0 83 ba 02 bc 91 71 3b bb 5d 8b 01 3d da 31 09 bd
       -0.007979038 -0.0028601626 0.031627048 -0.033494808
0002e0 62 6c b5 3c 34 46 5e be da d1 42 bd 1a be 14 3d
       0.022146408 -0.21706468 -0.04756341 0.036314107
0002f0 ca 2c 13 bd b1 54 77 bc 5a e0 6f 3d 04 ce 6f 39
       -0.035931386 -0.015095876 0.058563568 0.00022869563
000300 7c da 0e 3e 75 ed e2 3c ce c2 c5 bd 7c d8 5b be
       0.13950533 0.027701119 -0.09656297 -0.21469301
000310 ce e8 3c bd fc 98 12 bd cb f8 16 3d a4 60 81 bc
       -0.046120457 -0.03579043 0.03685836 -0.015793152
000320 20 95 66 bd d6 ab 66 be dc f6 a9 3d d3 5f 42 3d
       -0.05629456 -0.22526488 0.08299038 0.047454666
000330 e9 19 12 bd 3f 01 d1 3d f3 2f 00 3e 8a 0d c2 3d
       -0.03566924 0.10205316 0.12518291 0.094752386
000340 3a b9 b7 3c 0b c3 e8 bd 23 f4 11 3e 98 5a 55 bd
       0.02242719 -0.113653265 0.14253287 -0.05208835
000350 b9 c9 ee 3b bf b4 ef 3c a4 c4 70 3d f0 fd db bd
       0.007287231 0.029260991 0.05878128 -0.10741794
000360 45 0e 33 bd d2 d7 ac bc b0 a7 c2 3c 07 12 3d be
       -0.04371478 -0.021099005 0.0237616 -0.18463908
000370 e1 5e c4 3d b8 42 9c 3d bd 84 00 3e 40 75 c9 bc
       0.09588409 0.07629913 0.12550636 -0.024592042
000380 48 2b 93 bd e7 69 4b be 4d 16 a0 3d 2f 15 db 3c
       -0.071859896 -0.19864617 0.078167535 0.0267435
000390 98 0a 17 be 89 8b 07 bd 36 e3 8c bc 3c 12 22 3d
       -0.14750135 -0.033092055 -0.017198186 0.03956817
0003a0 a1 cb d5 bc e7 79 c0 bd 99 70 50 3d 6d 59 5f bd
       -0.026098074 -0.09398251 0.05088863 -0.054528642
0003b0 11 48 92 3d cb 6c e8 bc 12 f1 08 bd 95 f8 94 3d
       0.07142652 -0.028372189 -0.033433028 0.07273976
0003c0 e7 92 e0 bd ac 34 40 bd 2f 81 99 3d 86 43 58 3d
       -0.109655194 -0.04692523 0.07495343 0.05279877
0003d0 ee 0f 22 bc 8a 02 4f 3d 20 3b ac 3d b8 29 a2 bd
       -0.009891493 0.05053953 0.08409715 -0.079181135
0003e0 cd 28 0b 3b 98 6f 77 bc bb 0f 06 3d 19 ba 2b 3d
       0.0021234036 -0.01510229 0.032729845 0.041925523
0003f0 a8 e9 ea bc b9 58 34 bd 87 06 e1 bd d4 e0 8c 3c
       -0.02867587 -0.044029925 -0.10987573 0.01719705

p_fcs.1.bias f4 [128]
000000 4b f0 2d bc 59 44 af 3d ed 90 88 3d f7 c7 2e 3d
       -0.010616372 0.08557958 0.066682674 0.04267117
000010 a2 bc 8c 3d 29 0d 85 bb a9 e2 cd 3b a5 be 9a 3d
       0.06871916 -0.0040604067 0.0062831235 0.07555894
000020 9d 25 3b 3d 0e 38 89 3d 9e 3c b0 3d 09 fe ec 3a
       0.045690168 0.06700145 0.08605312 0.001808108
000030 a9 7f 65 3d 2b 4d d7 3c 6f b3 54 ba 56 31 8a 3c
       0.05602995 0.026281914 -0.0008113896 0.016869228
000040 04 cc e1 3c ab df aa 3c 47 9f 25 3c 44 cf 91 3c
       0.027563103 0.020858606 0.010108775 0.017799027
000050 b2 a1 2c 3d d0 ea 8a bc a2 e2 06 bc d2 37 83 3d
       0.042146392 -0.01695767 -0.008232744 0.06407131
000060 f9 03 9d 3c 0f 96 d5 bc da b3 ae 3d df 61 39 3d
       0.019166933 -0.02607253 0.08530398 0.045259353
000070 92 f9 8d 3d fe 92 37 3d 58 0c ca 3c 07 63 80 3c
       0.069323674 0.044817917 0.02466409 0.01567222
000080 40 c1 0b bc 4d e6 6f 3d 11 a7 08 bb ec 2f e7 3c
       -0.008529961 0.05856924 -0.0020851532 0.028221093
000090 27 e4 ab 3d aa ee 05 bd 75 11 0e 3d 90 4c df 3c
       0.08393126 -0.03269831 0.034684617 0.027258188
0000a0 4e 8f 8f 3d 18 16 2c 3d 3d 56 96 3d 99 b9 31 bc
       0.07009755 0.042013258 0.073406674 -0.010847473
0000b0 67 ae f7 3c 73 d8 59 3b 96 34 30 3c d3 03 92 3d
       0.030234529 0.0033240586 0.010754725 0.07129636
0000c0 8d 7a 0b 3d 38 c6 45 3d 92 6f 5e 3d b5 5f 3f 3d
       0.03405242 0.04828474 0.05430562 0.046722133
0000d0 56 c8 7b 3d 21 b4 14 3d bf 44 78 3d 9c f0 97 3c
       0.061470352 0.036304597 0.060612436 0.018547349
0000e0 44 bc 55 bc b1 5b 07 bc c7 cb 15 bd d3 84 90 bc
       -0.013045374 -0.008261607 -0.03657129 -0.01764146
0000f0 17 f7 c9 3c c2 45 bc 3c 91 96 a6 3d 9f 57 da bc
       0.024653954 0.022982482 0.08134187 -0.02665311
000100 b9 7b 9d bc 83 b7 35 3d 60 21 6a bc 75 73 f2 bb
       -0.019224035 0.044364464 -0.014290184 -0.0073990175
000110 20 75 e1 3d 18 8a 49 b9 95 c7 41 3d f2 74 90 3d
       0.11008668 -0.00019220298 0.047309477 0.070535555
000120 68 ed a6 3d 59 32 9e 3b dc 5f a2 bc 92 e0 86 3d
       0.081507504 0.0048277793 -0.0198211 0.06585802
000130 1e b9 a9 3d e1 83 30 bc 4d 5b b5 b9 5c 31 7d 3d
       0.082872614 -0.01077363 -0.00034591035 0.06181465
000140 74 86 a0 ba d7 29 81 ba 29 cf 44 3d 32 d6 4f 3d
       -0.0012247101 -0.0009854388 0.048049126 0.050741382
000150 3a 5c 23 bc 6a 40 67 3d d9 e7 0e 3d bb 2f 11 3d
       -0.009970719 0.056457914 0.034889076 0.03544591
000160 ce ae 44 3d 46 23 96 3d ab 8d 52 3d 04 87 6f 3c
       0.04801827 0.073309466 0.051404636 0.014619593
000170 1a 15 39 bc 83 98 57 3d db 20 2f 3d 4d 2f 32 bc
       -0.011296535 0.05263568 0.042755943 -0.010875535
000180 40 71 bd 3c ae 35 2d 3d 5b 85 5f 3d 65 a0 84 3d
       0.02312529 0.04228752 0.054570537 0.06475905
000190 4d ac e9 3c 06 5d a2 3b 4a 16 38 3c cf db 15 bc
       0.028524542 0.004954937 0.011235783 -0.009146645
0001a0 66 a0 50 3c c6 98 4f 3d 2f 08 85 3c 51 72 2d 3d
       0.0127335545 0.050682805 0.016239254 0.04234535
0001b0 6f bd 4f 3d 90 d3 a5 3c ec f8 1d 3d 76 d7 97 3c
       0.050717767 0.020242482 0.03856747 0.018535357
0001c0 46 eb 53 3c 1d cf 0c 3c 58 9c 51 3d f7 d6 59 3d
       0.0129345115 0.0085943015 0.05117449 0.053183522
0001d0 26 c4 2b 3d cc 6a eb bc 5b 52 d8 3c 2f 50 ae 3d
       0.04193511 -0.028737448 0.026406458 0.085113876
0001e0 21 72 21 bd 61 a8 ad 3d 52 0b 93 bb e4 12 10 3d
       -0.039415482 0.08479381 -0.0044874335 0.035174266
0001f0 8e 74 a3 bc c7 39 75 3d f7 df 27 bc 7b b9 25 3d
       -0.019953039 0.059869554 -0.0102462685 0.04046009

v_fcs.0.weight f4 [128, 39]
000000 95 62 5d be e4 31 5f be 3a ac aa 3d 33 71 9a 3e
       -0.21619637 -0.21796376 0.08333631 0.3016449
000010 0f 76 4a 3e d6 11 68 be 20 c2 73 be 3d ff 81 3e
       0.19771598 -0.22663054 -0.23804522 0.25390044
000020 c3 44 bc bc dc f7 71 be e9 41 6f 3e 7b b4 98 be
       -0.022982007 -0.23629707 0.23364986 -0.29825196
000030 a2 60 64 be 20 a4 78 3e 88 19 2b 3e 4f e0 78 be
       -0.22302487 0.24281359 0.16708958 -0.24304317
000040 5e a2 75 3e 24 c0 80 3d 0c ee 6e be 16 95 4c 3e
       0.2398772 0.06286648 -0.23332995 0.19978747
000050 0c 54 ef 3c 33 f3 11 3e 6e 60 08 3e 86 f9 a1 bc
       0.029214881 0.1425293 0.13318035 -0.019772302
000060 3e e0 cb 3c 72 30 ce 3c e1 8f ce bc 69 dc 7b bb
       0.0248872 0.025169585 -0.025215091 -0.0038430935
000070 23 8f c8 bc e2 79 14 bd 21 b8 ce 3c f6 44 33 ba
       -0.024482315 -0.03624905 0.025234284 -0.0006838584
000080 fd 21 93 bc be 9b 95 bb 8b 16 55 bc 0c 33 5e 3d
       -0.017960543 -0.004565685 -0.013005863 0.0542479
000090 38 ed 3a be 23 de 68 3c b2 c6 4d bd d6 ef c2 bd
       -0.18254554 0.014213118 -0.05023832 -0.09518401
0000a0 d4 21 ca be 12 80 80 bf db 01 39 3d d0 03 05 bf
       -0.39478934 -1.0039084 0.045167785 -0.5195894
0000b0 a6 db ce bf b8 ac 19 bf 5a 4a 3d 3f b6 16 c9 bc
       -1.6160781 -0.6002917 0.73941576 -0.024546962
0000c0 9d 84 0b bf 23 49 17 3f ea 8c 11 bf 8d e5 13 bf
       -0.54499227 0.5909597 -0.5685564 -0.5777214
0000d0 e8 91 04 3f 6f 7b 6f 3f a7 32 b3 be 24 7a 42 3f
       0.51785135 0.9354772 -0.34999582 0.7596762
0000e0 43 ee 0e 3f c8 55 67 bd e3 a9 05 3e 0c 48 fe bd
       0.5583231 -0.05647829 0.13053088 -0.124160856
0000f0 da 48 99 3e da 3a 0d 3e fd 16 23 bd 45 62 27 3e
       0.29938394 0.13791981 -0.039816845 0.1634608
000100 e8 31 7b 3d 07 6a 40 bd f8 f2 aa 3d 45 9b 24 3d
       0.06132689 -0.046976116 0.08347124 0.04018714
000110 71 ce 9b bd 2f 62 1f 3e ff 60 a4 3d eb 2f 1b 3d
       -0.07607735 0.15564798 0.08026313 0.037887495
000120 0b dc 5d be 32 03 c5 bd 5d e2 88 be 01 7e 9b bf
       -0.21665971 -0.0961975 -0.267352 -1.2147828
000130 0a 7f ab be 6d 2c 9a be b3 2a b1 be 49 59 bf be
       -0.3349536 -0.3011202 -0.3460289 -0.37372807
000140 c1 e7 72 3e 85 1a a1 3e 55 e9 ce 3e 42 9c be be
       0.2372122 0.31465545 0.40412393 -0.3722859
000150 2b 2a b0 be cb 7d c6 3e 43 0a a1 3e 94 49 c0 be
       -0.34407172 0.38767847 0.31453142 -0.37556136
000160 bc 21 d0 3e 68 cb a1 be 8f 79 c3 be af 38 be 3e
       0.40650737 -0.316005 -0.3817868 0.3715262
000170 c2 c8 d8 3e a1 8b bd be 82 68 cd 3e af 69 fb 3c
       0.42340666 -0.3702059 0.40118796 0.030690042
000180 92 13 1d be 67 d3 71 3e 11 dd c3 bd 5f 95 d5 3c
       -0.15339497 0.236158 -0.095636494 0.026072202
000190 5d fe 85 3e 42 3f fd 3d cc 04 c6 bd a0 38 0b bd
       0.26170626 0.12365581 -0.09668884 -0.03398955
0001a0 16 2a 9f 3b ec 55 f4 37 3f 2b fd 3b fb 55 14 be
       0.004857312 2.9127077e-05 0.0077261026 -0.14485924
0001b0 d4 98 8f 3d f0 de c1 bb a2 d1 02 bd 62 6b f9 bc
       0.070115715 -0.005916469 -0.031938203 -0.030446712
0001c0 2e 3d 22 bd e8 7e 96 be a1 e8 f4 be 10 a4 72 be
       -0.039609127 -0.29393697 -0.47833732 -0.23695397
0001d0 cb 5f bf be be c4 97 be 98 61 ae be 6d 52 ed be
       -0.37377772 -0.2964229 -0.34058833 -0.46351948
0001e0 69 52 e8 3e 40 06 90 3f 14 01 3d bc 90 53 cf be
       0.45375374 1.1251907 -0.011535902 -0.4049344
0001f0 54 9a a4 3e 00 5e a0 3d 82 34 98 be 04 78 9a 3e
       0.32148993 0.07830429 -0.2972756 0.3016969
000200 08 56 d4 bd 37 51 97 be 06 50 8f 3e 82 9a 22 3e
       -0.10367972 -0.2955415 0.2799074 0.15879253
000210 be 04 b9 be 1f 69 bc 3e 16 7b 07 3d 1b b2 ab 3d
       -0.3613643 0.3679895 0.03307637 0.0838358
000220 8a 28 ea 3d 4f a9 3c be 57 8c 52 3e ee 42 0e 3e
       0.114335135 -0.18423961 0.20561348 0.13892719
000230 85 02 54 ba 13 f0 88 3c 4b 5c 54 bb f0 0c 86 bc
       -0.00080875336 0.016716039 -0.0032403644 -0.016363591
000240 25 5a b9 3c 10 69 6c 39 69 8a 26 bd 3e 2d e2 bd
       0.022625992 0.00022545853 -0.040659342 -0.110437855
000250 4f 3e 71 bd 5c 63 a2 bd ac 6f ce 3d a0 f5 2a 3d
       -0.058897313 -0.079291075 0.100798935 0.041738153
000260 3c 18 09 bf 3e c8 e9 be 8c f6 7c bd 76 b4 99 3e
       -0.53552604 -0.45660585 -0.061758563 0.30020493
000270 2c eb 6e be f0 90 8a be ee 54 05 bd 35 4e 58 3e
       -0.23331898 -0.27063704 -0.0325517 0.21123584
000280 15 a7 fc 3d c7 d3 79 be f3 0d 8d be e6 99 8e 3e
       0.12336556 -0.24397193 -0.27549705 0.2785179
000290 5b 44 04 3c d5 06 7f be 57 d8 87 3e 5c 9c 94 3d
       0.008072938 -0.2490495 0.26532242 0.07256386
0002a0 52 2a 83 be dc c2 90 3e 4c 70 20 3e 42 90 8c be
       -0.25618225 0.28273666 0.15667838 -0.2745381
0002b0 3b fa 88 3e 85 a1 08 3e 47 3f 1a 3d 5c da 2f 3e
       0.2675341 0.13342865 0.037658002 0.17173141
0002c0 00 55 ee bc b7 90 7b 3d 6d 99 10 3e 7e 86 a7 3c
       -0.029093266 0.061417308 0.14121027 0.020449873
0002d0 7e 4e 03 3d 6e a2 1f 3d 76 d2 6d 3b 5f ed 82 3c
       0.032057278 0.038973264 0.0036288775 0.015982328
0002e0 9e db 04 3d d1 36 90 bd 5b 57 e6 3b 26 cb 09 bd
       0.032436006 -0.070417054 0.0070294566 -0.033641003
0002f0 4e ba 18 3d 20 2c 8d bc 42 1f 74 bc ac d3 6b bd
       0.03728705 -0.017232955 -0.014900031 -0.057574913
000300 c7 32 c4 bd de 52 7e bd d0 0f 67 bc f4 80 80 be
       -0.095799975 -0.062090747 -0.014102891 -0.25098383
000310 4c db 01 bf 4e e0 07 40 76 3c 19 40 0f ce 48 40
       -0.50725245 2.1230655 2.3943152 3.1375768
000320 b8 16 39 3f 0e e9 01 be 52 d6 22 3f a7 0a 6a 3e
       0.7230029 -0.1268656 0.63608277 0.22855626
000330 36 dd 35 3e a5 40 49 3f 5d 43 ff 3f 3f ee 0b be
       0.17760167 0.78614265 1.9942433 -0.13665102
000340 00 d2 49 3f aa db ac bf 9e fd 8c bf 16 0e 10 3f
       0.7883606 -1.3504536 -1.1014898 0.56271493
000350 fb 79 d2 3e 0d f7 74 be 54 b5 97 3d cb 2c af 3e
       0.4110869 -0.23922367 0.074076325 0.34213862
000360 67 50 84 3e 05 64 dc bd 41 ba 4c 3d d4 51 d3 3c
       0.25842592 -0.10761265 0.049982313 0.025795855
000370 48 2b df 3c cc 0e 12 3e 44 d0 25 bc 97 bb 60 bd
       0.027242318 0.14263457 -0.010120455 -0.0548664
000380 cc 69 88 3d 99 33 1b bc f7 3d 2b ba 81 27 fd 3c
       0.06660804 -0.009472751 -0.0006532366 0.030902626
000390 ab f1 76 3b 9f bf 4a bb cd 0d 0c 3f fb 8f 5e bf
       0.0037680666 -0.003093697 0.5470856 -0.86938447
0003a0 e8 71 0b 3f 64 5f 2c 3f 24 2c 39 be 3f 59 4d be
       0.5447068 0.67333055 -0.18083245 -0.20053576
0003b0 30 f3 9e 3d a2 06 e9 3d f0 0b 5a 3d 97 55 a0 bd
       0.07761228 0.11378218 0.05323404 -0.07828825
0003c0 89 fd 38 be 7d 31 3f 3e ee b8 09 3d 14 41 4a be
       -0.18065466 0.18671222 0.03362363 -0.19751388
0003d0 89 c3 24 3e c1 b0 c8 bd 2e e8 37 be 0a 91 2b 3e
       0.16090216 -0.09799338 -0.17959663 0.16754547
0003e0 2b 27 28 3e 7c 53 50 be b8 9d 29 3e ca 27 90 3d
       0.16421191 -0.20344347 0.16564071 0.07038839
0003f0 3f 6d 1b bd 37 3c b1 3d b0 6d 01 3d da 49 f2 3d
       -0.037945982 0.08654063 0.031598747 0.11830492

v_fcs.0.bias f4 [128]
000000 ee a0 6f be 96 98 e0 be b3 f1 c1 be 0f 3e aa be
       -0.23401234 -0.43866414 -0.37879714 -0.33250472
000010 88 f1 91 be 84 25 09 bf d4 ef 37 be fc 4f 05 bf
       -0.28504586 -0.5357287 -0.17962581 -0.5207517
000020 62 8f 0e bf 5b 62 f1 be 3c 33 02 bf 88 72 03 bf
       -0.55687535 -0.47145352 -0.5085943 -0.51346636
000030 0e ff 05 bd d7 84 c6 be 56 d5 60 bd d6 67 1f be
       -0.032713942 -0.38773224 -0.054890953 -0.15566954
000040 ff 51 8a bf 6f bc 31 bf a1 fb bb be 45 0e 79 bf
       -1.0806273 -0.6942815 -0.36715415 -0.972874
000050 d9 f2 de be 28 33 28 3f b5 6b 52 be 90 32 a9 be
       -0.43544653 0.6570306 -0.205489 -0.3304639
000060 5a 7b 1c bf ad c0 2a bf d2 92 64 bf 13 93 46 bf
       -0.6112572 -0.6670025 -0.8928653 -0.7756817
000070 1e 0b b3 be dc 35 c7 be 1c 0c 95 be 5f eb 4d bf
       -0.3496942 -0.3890828 -0.291108 -0.8043727
000080 79 4b 16 bf e4 92 83 bf 54 fc d0 be e4 c6 4c bf
       -0.5870891 -1.0279202 -0.4081751 -0.79990983
000090 00 0d 4d bf 74 59 1e bf 27 a1 fa 3e b8 b0 0d bf
       -0.8009796 -0.61855245 0.48951074 -0.55347776
0000a0 74 b3 ba be 8c 55 0d bf 90 3f 4c be f1 cb 04 bf
       -0.36465037 -0.5520866 -0.19946122 -0.5187369
0000b0 11 63 ec be 78 82 1c bf 3c 3d fe be df b7 9d bf
       -0.46169332 -0.6113658 -0.49656093 -1.2321738
0000c0 60 05 42 be c4 e6 21 bf 52 57 d0 be 86 ec 7f bf
       -0.18947363 -0.63242745 -0.4069162 -0.9997028
0000d0 44 11 33 bf a3 79 a3 be bf 02 91 be cf 13 19 bf
       -0.6994822 -0.3192874 -0.28322408 -0.5979585
0000e0 43 30 17 bf 04 c2 b5 be 33 53 aa be 73 1d 5f be
       -0.59058017 -0.35499585 -0.332666 -0.21788578
0000f0 02 ff 2f bf 09 6e 84 be 29 43 24 be de 60 19 bf
       -0.68748486 -0.258652 -0.16041245 -0.5991343
000100 32 a6 3e bf 08 0f b8 be 87 2b e3 be 46 f3 37 bf
       -0.74472344 -0.35948968 -0.44369146 -0.7185558
000110 27 26 3d be b3 2c a6 be fd 12 bb be 66 24 08 bf
       -0.18471585 -0.32455978 -0.36537924 -0.5318054
000120 b0 ce 5b bf da 34 10 bf 0b 29 2c bf 43 68 1f bf
       -0.85862255 -0.56330645 -0.67250127 -0.62268466
000130 22 60 2d bf 60 48 09 bf 93 2c 78 bf 3c ac e5 be
       -0.6772481 -0.5362606 -0.96943015 -0.44857967
000140 75 85 34 be 8f 1e 63 be 74 ca 51 3d 20 be 3c bf
       -0.17629035 -0.22179626 0.051218465 -0.7372761
000150 18 c8 ec bd 62 8f 3a bf 1e 2f 48 bf 72 20 11 be
       -0.11561602 -0.72875035 -0.78196895 -0.14172533
000160 db 26 8d be a4 63 d3 be 75 bf bf be 95 bb 0b bf
       -0.27568707 -0.41286957 -0.37450758 -0.545831
000170 4a 64 68 bf bf 75 43 bf 95 14 96 be 49 41 d8 bc
       -0.9077803 -0.7635154 -0.29312578 -0.026398318
000180 03 23 6d be 16 b7 02 bf d8 ee 38 bf ad be 6c bf
       -0.23157887 -0.51060617 -0.72239447 -0.9247845
000190 ee 19 9f be 57 6d 9b bf 17 23 f1 be 89 fb 63 be
       -0.3107447 -1.2142743 -0.47097084 -0.22263922
0001a0 5b c6 01 bf 1a 2f 20 bf 47 c7 28 bf e4 2c 4f be
       -0.5069329 -0.6257187 -0.65929073 -0.20231968
0001b0 65 e4 54 bf 06 4f 5f bf 2d a9 d0 be ea 96 95 3e
       -0.83161 -0.87229955 -0.4075407 0.292167
0001c0 7d 20 13 bf 23 a3 84 be 28 0c 84 be 50 1a 22 be
       -0.5747145 -0.25905713 -0.25790524 -0.1583035
0001d0 2b 83 71 be 81 20 10 3d bb a8 ad be e1 c2 fd be
       -0.23585193 0.03518725 -0.33917794 -0.49562743
0001e0 65 46 1a bf 3f 8f 93 be c6 58 45 bf d1 a9 17 bf
       -0.60263664 -0.28820226 -0.7708858 -0.59243494
0001f0 c1 b4 f4 be a3 8d 31 bf d4 6f b1 be ed c0 28 bf
       -0.47794154 -0.69356745 -0.3465563 -0.6591938

v_fcs.1.weight f4 [128, 128]
000000 be c0 00 bd 1b 49 24 bd 52 e7 54 bd 9e 98 4f bd
       -0.031433813 -0.04010878 -0.051978417 -0.050682656
000010 16 c5 92 bd 01 78 6f bd 96 8e 6a bd 55 17 70 bd
       -0.071664974 -0.058464054 -0.057264887 -0.058616
000020 c5 66 87 bd 3e d8 3e bd d0 82 36 bd de e0 59 bd
       -0.066113986 -0.046592943 -0.044558346 -0.053192966
000030 77 9e 85 bd 6a 14 3f bd 72 4a 68 bd b6 cb 08 3c
       -0.065243654 -0.046650328 -0.05671162 0.00834935
000040 29 79 47 bd cc 15 38 bd f1 3b 44 bd 7a eb 40 bd
       -0.04869953 -0.044942662 -0.047908727 -0.047099568
000050 2c 29 4f bd 10 00 4f bd 7a 71 82 bd 0a b8 81 bd
       -0.050576374 -0.05053717 -0.063693 -0.06333931
000060 5d 91 48 bd 26 8a 73 bd ab f5 4a bd c6 00 8f bd
       -0.048966754 -0.05945792 -0.049550693 -0.069825694
000070 5f 7e 3c bd 29 b2 67 bd ff e1 13 bd 6c 22 07 bd
       -0.046018954 -0.05656639 -0.0361042 -0.03299181
000080 4a 04 23 bd 2b 3c 68 bd 30 ac 29 bd 01 4d 5e bd
       -0.039799012 -0.056698006 -0.041423976 -0.054272655
000090 6d f4 32 bd df 36 56 bd 0e 86 64 bd 8b ff 75 bd
       -0.043690134 -0.052298423 -0.055791907 -0.060058158
0000a0 53 c0 4a bd c6 95 52 bd f4 74 7d bd 8f db 21 bd
       -0.04949982 -0.051412366 -0.061879113 -0.039516028
0000b0 dd 37 43 3c 93 25 15 bd e6 06 41 bc 1f f2 35 bc
       0.011915174 -0.036412787 -0.01178143 -0.011105089
0000c0 68 0c 78 bd 84 7f 62 bd 30 c0 3e bd d8 dc 55 bd
       -0.060558707 -0.05529739 -0.046570003 -0.052212566
0000d0 5b 9b 82 bd a3 a4 89 bd b7 10 65 bd e8 9a 65 bd
       -0.06377288 -0.06720855 -0.055924144 -0.056055933
0000e0 a5 ca d1 bc dc 68 4a bd a7 bf 7c bd 22 ca 41 bd
       -0.025609324 -0.049416408 -0.06170621 -0.04731191
0000f0 23 7e 44 bd b3 d4 80 bd ae c3 a8 bc 7f d1 45 bd
       -0.047971856 -0.06290569 -0.02060112 -0.048295494
000100 af 2b 6b bd 1c c9 5b bd 57 66 83 bd 26 f1 15 bd
       -0.057414707 -0.05365859 -0.06416004 -0.03660693
000110 fe 84 68 bd 33 e8 64 bd 04 01 54 bd ad 43 37 bd
       -0.056767456 -0.055885505 -0.05175878 -0.044742275
000120 b5 b9 46 bd 0c 20 53 bd 02 1a 45 bd cf 49 3d bd
       -0.048516948 -0.051544234 -0.048120506 -0.046212967
000130 23 4e 35 bd 29 8c 73 bd 12 1a 4f bd 2c c7 be bc
       -0.04426397 -0.05945984 -0.050561972 -0.023288332
000140 e7 e3 23 bd 1d c4 81 bd 48 5a 6b bd d2 d7 8d bd
       -0.040012266 -0.06336234 -0.057459146 -0.0692593
000150 29 88 73 bd 1a 9d 28 bd 5c 77 20 bd b5 99 71 bd
       -0.059456024 -0.04116545 -0.03917633 -0.058984477
000160 5a da 70 bd 22 78 3f bd 8a 52 4d bd 40 ad 63 bd
       -0.058801986 -0.046745427 -0.050127544 -0.055585146
000170 05 0b 5f bd 0f ad 20 bc 0a fa 6a bd 0f 20 65 bd
       -0.05445387 -0.009806885 -0.057367362 -0.055938777
000180 24 d8 72 bd 83 e0 5b bd 1b 60 21 bd 8b 80 8d bd
       -0.05928816 -0.053680908 -0.039398294 -0.06909283
000190 b0 e0 6d bd 89 12 54 bd e5 e6 83 bd 1a cb a4 bc
       -0.058075607 -0.05177549 -0.06440524 -0.020116378
0001a0 ee 02 c9 bc ae e7 55 bd cb 16 45 bd 24 8f 4a bd
       -0.02453753 -0.0522229 -0.04811744 -0.049452916
0001b0 20 5e 5d bd f5 63 91 bd 83 ed 70 bd af 55 35 bd
       -0.054044843 -0.070991434 -0.05882026 -0.044271167
0001c0 1e 67 40 bd 37 d3 50 bd 09 76 54 bd 6d ea 8b bd
       -0.04697334 -0.05098268 -0.05187038 -0.068318225
0001d0 6f f8 38 bd d1 23 64 bd 4d 9a 85 bd 70 af 1c bc
       -0.0451588 -0.05569822 -0.06523571 -0.009563312
0001e0 17 0e 5b bd 75 d1 68 bd 91 66 70 3b 02 2f 22 bd
       -0.053480234 -0.05684038 0.0036682228 -0.03959561
0001f0 1d de 7e bd cd 13 2a bd 00 80 cd bc 14 79 5f bd
       -0.062223542 -0.04152279 -0.02508545 -0.05455883
000200 d2 37 4e bd 38 d7 9e bd 5b ec 64 bd 51 ad 82 bd
       -0.050346203 -0.077558935 -0.05588947 -0.06380714
000210 ce 8d 8f bd 2b 03 69 bd 09 4e 56 bd 5e 5e 7a bd
       -0.07009469 -0.056887787 -0.052320514 -0.06112515
000220 55 fd 5a bd 9b 1a 46 bd 4b e3 61 bd a1 0e 7e bd
       -0.053464253 -0.048365217 -0.055148404 -0.06202567
000230 57 69 5e bd 89 60 93 bd e3 b4 37 bd 2f ae 44 bd
       -0.05429968 -0.07196147 -0.04485024 -0.048017677
000240 00 bc 5e bd c6 91 7c bd ae 6e 4c bd 18 80 6a bd
       -0.05437851 -0.061662458 -0.04991024 -0.057251066
000250 a4 73 24 bd e9 8d 68 bd 71 cf 66 bd eb e5 88 bd
       -0.040149346 -0.05677596 -0.056350175 -0.06684478
000260 43 a3 4d bd a2 52 81 bd f6 6a 3c bd 25 4e 83 bd
       -0.050204527 -0.06314589 -0.046000443 -0.06411389
000270 cc 90 6c bd 1a d8 5d bd ed 4f 64 bd 8b a1 81 bd
       -0.057755277 -0.05416117 -0.055740286 -0.0632964
000280 68 28 75 bd 4a ff 73 bd 4f 3c 61 bd c8 c9 4e bd
       -0.059852988 -0.059569634 -0.054989155 -0.050485402
000290 25 b9 9b bd dc 4a 4e bd 95 f4 7b bd af 4f 6e bd
       -0.07603673 -0.05036436 -0.06151255 -0.05818146
0002a0 51 b2 61 bd 24 6f 48 bd 7b 55 7c bd a6 86 6c bd
       -0.055101696 -0.048934117 -0.061604958 -0.0577456
0002b0 f4 40 5e bd f9 e1 92 bd a2 45 80 bd fe 14 52 bd
       -0.054261163 -0.07172007 -0.062632814 -0.05128955
0002c0 ba a7 72 bd 21 76 51 bd c3 20 9c bd 98 0f 3e bd
       -0.059241988 -0.051138047 -0.07623436 -0.04640159
0002d0 35 df 72 bd 66 2c 39 bd 73 54 7f bd 87 9e 68 bd
       -0.059294898 -0.045208357 -0.062336396 -0.05679181
0002e0 66 42 69 bd 46 28 a7 bd 93 c6 9b bd 4d e4 59 bd
       -0.056948088 -0.081619784 -0.076062344 -0.05319624
0002f0 d1 dc 23 bd 5b 7a 64 bd 3d fe 5e bd 69 09 65 bd
       -0.04000551 -0.05578075 -0.05444168 -0.055917177
000300 29 2c 42 bd 6d 61 3d bd cb b5 4f bd 7a 8c 5f bd
       -0.047405396 -0.04623549 -0.05071048 -0.05457733
000310 63 fa 44 bd e8 f9 72 bd 95 b3 6d bd 42 4a 42 bd
       -0.04809035 -0.05932036 -0.05803259 -0.0474341
000320 81 f1 92 bd e0 ef 62 bd e2 38 66 bd ca 95 84 bd
       -0.071749695 -0.055404544 -0.05620659 -0.064738825
000330 69 e5 75 bd ea 80 3e bd 9b 4f 64 bd 3b f5 5b bd
       -0.060033236 -0.04650966 -0.05573998 -0.053700667
000340 d3 eb a3 bd c4 ec 63 bd ae 86 7d bd f1 5f 77 bd
       -0.08003964 -0.05564572 -0.06189602 -0.06039423
000350 6c 83 97 bd 82 df 7d bd 39 aa 81 bd 35 13 9c bd
       -0.073981136 -0.06198073 -0.063312955 -0.07620851
000360 4c 38 89 bd 68 1c 89 bd f0 a4 5f bd 4f 18 9a bd
       -0.06700191 -0.06694871 -0.054600656 -0.07524168
000370 1f 69 79 bd 72 31 51 bd e4 f3 7a bd 97 65 88 bd
       -0.060891267 -0.051072545 -0.06126775 -0.06660002
000380 a1 3d 2d bd 10 88 47 bd 5d f0 63 bd d4 3d 26 bd
       -0.042295102 -0.048713744 -0.05564915 -0.040586308
000390 62 ec 7c bd 66 8c 75 bd a6 c3 48 bd 5e 53 6e bd
       -0.06174887 -0.059948348 -0.04901471 -0.058184974
0003a0 f3 39 66 bd 5b 43 90 bd e5 3f 3a bd 67 81 72 bd
       -0.05620761 -0.07044097 -0.04547109 -0.05920544
0003b0 57 07 6b bd 30 e8 84 bd 7c 73 59 bd 8d a8 88 bd
       -0.057380047 -0.06489599 -0.05308865 -0.066727735
0003c0 5a 27 8e bd b7 ed 7e bd 7d 47 5d bd e4 01 8c bd
       -0.069410995 -0.06223842 -0.054023255 -0.06836298
0003d0 fe 12 42 bd b8 dd 85 bd 2d 7b 85 bd 6d dd 3c bd
       -0.047381394 -0.0653643 -0.065176345 -0.046109606
0003e0 c5 eb 6e bd d3 5d 81 bd 28 70 7f bd 6a 99 99 bd
       -0.058330316 -0.06316724 -0.06236282 -0.074999645
0003f0 86 78 8f bd 5d e1 7a bd d6 1f 82 bd d0 bb 53 bd
       -0.0700541 -0.06125008 -0.063537285 -0.051692784

v_fcs.1.bias f4 [128]
000000 25 de 88 bd 57 1a 71 bd c3 24 e8 bb 3c 11 bf 3e
       -0.06682996 -0.05886301 -0.0070844605 0.37317836
000010 c1 ae e6 be 89 8f 23 be 3d 8a 8c bd 23 11 5f bd
       -0.45055202 -0.15972723 -0.06862304 -0.054459702
000020 62 5b 89 bd ad 5c 18 3f 45 4d 40 bd 38 ea 4e bd
       -0.06706883 0.5951641 -0.04694869 -0.050516337
000030 9e 7f 54 bd 43 8e 79 bd 44 10 22 be 31 75 37 be
       -0.051879518 -0.060926687 -0.15826517 -0.17915799
000040 11 ba 89 bf a1 ca 8e bd 01 0b 96 bd ac 0b 61 bd
       -1.0759908 -0.06972242 -0.073263176 -0.05494277
000050 2b c2 50 bd b9 86 46 bd 4d 05 93 bd 01 8c 12 bf
       -0.050966423 -0.048468325 -0.071787454 -0.5724488
000060 4d 21 64 bd b9 28 7f bd 06 c9 48 bd 35 a3 68 bc
       -0.05569582 -0.062294696 -0.049019836 -0.014199068
000070 70 9e 84 bd 7a 55 60 bd c7 36 31 bd df 32 95 bd
       -0.06475532 -0.054769017 -0.04326513 -0.072850935
000080 d8 15 ef bb ff 57 df bc 80 b6 77 bd 4a b7 7c bd
       -0.007296305 -0.02726364 -0.06047678 -0.061698236
000090 ec 58 6e bd c3 d3 30 3f b4 a7 a3 bb ae 0e 67 bd
       -0.05819027 0.6907312 -0.004994357 -0.056410484
0000a0 d5 58 97 bd b2 e5 7d bd 56 05 60 bd 43 a5 7b bd
       -0.0738999 -0.061986633 -0.05469259 -0.061436903
0000b0 5f 3b 18 bd 17 ca 3a bd f3 ec 9c bd 2f 41 50 bd
       -0.037165996 -0.045602884 -0.07662382 -0.050843414
0000c0 ce a1 d5 bb d5 39 93 bd 97 78 97 bd a7 66 35 bf
       -0.0065195328 -0.07188765 -0.073960476 -0.7085976
0000d0 48 fd 93 ba 62 62 6a bd 62 55 85 bd 12 2e 80 bd
       -0.0011290694 -0.05722273 -0.06510426 -0.06258787
0000e0 ef 5e 4c bd f5 f9 f7 be aa 60 23 bc 1b c3 b5 bc
       -0.049895223 -0.4843289 -0.009971777 -0.02218776
0000f0 ec d1 89 bc 15 76 80 bd 1f e8 84 bd 87 8d 10 bd
       -0.016823731 -0.06272522 -0.06489586 -0.03529122
000100 55 cc 78 bd 80 e9 86 bd 9b d5 af bb f0 1e 6f bd
       -0.06074174 -0.06587505 -0.00536604 -0.058379114
000110 55 ad 00 bc 11 b6 6b bd 8c a6 5a 3f f0 9b 76 3f
       -0.007853826 -0.05754668 0.8541038 0.9633169
000120 12 e1 4f bf b0 99 8b bd 91 71 30 bd 44 c6 60 bd
       -0.81202805 -0.06816423 -0.043077055 -0.05487658
000130 65 d9 e9 3e 8f 46 5e bd b3 c1 f8 3c 6f df 60 3f
       0.4567367 -0.05426651 0.0303658 0.8784093
000140 4d 0f 61 bc f3 9a 4f bc 2f 94 68 bb 9c 0f 5d be
       -0.013736558 -0.01267122 -0.0035488715 -0.21587986
000150 ca 8d 8a bd ca 5f 6e bf 4f 80 5c bd 5d d7 9d be
       -0.06765325 -0.9311491 -0.053833302 -0.30828372
000160 73 d4 a3 bd 85 76 2e bd 29 5b c5 bd f9 2d 7a bd
       -0.07999506 -0.042593498 -0.09636528 -0.061079
000170 df cc a2 bc eb ea 8e 3f a8 e8 86 bd d4 7b 5d bc
       -0.01987308 1.1165441 -0.065873444 -0.013518292
000180 3a 5d 81 bd 2a 36 3c bf 48 96 55 bd 0b e6 61 bd
       -0.0631661 -0.7352015 -0.052145272 -0.055151027
000190 54 de 84 bd 4b 01 3e bd e8 1e cf bc 87 02 8b bd
       -0.06487718 -0.04638795 -0.025283292 -0.067875914
0001a0 9b 43 24 bd 86 75 67 bd 59 e6 34 bf 7f af 67 3f
       -0.040103536 -0.056508563 -0.7066398 0.9050216
0001b0 80 a2 4b bd 8e 1d 97 bd d9 87 88 bd 8a 5a 64 bd
       -0.04971552 -0.07378684 -0.06666536 -0.055750407
0001c0 82 45 7c bd 88 18 40 bd 27 bb 10 bc 06 86 72 bd
       -0.061589725 -0.046898395 -0.008833683 -0.059209846
0001d0 68 e3 6b bd 6d 6f f7 3e b7 6d 0a bb 87 05 4c bd
       -0.05758992 0.483272 -0.0021122524 -0.04980996
0001e0 6c 1d 67 bd dc 5b 9c bd 09 c1 91 bc 75 22 4c bd
       -0.056424543 -0.07634708 -0.017792242 -0.04983755
0001f0 04 e6 2e be 7b 34 65 be 64 22 09 3f 5d 9f 86 bd
       -0.17079931 -0.22383301 0.535681 -0.06573365

mu.weight f4 [12, 128]
000000 de f4 fc 3b 0a 95 91 bd 3a c2 ae bd 13 6d af 3d
       0.00771962 -0.07108505 -0.085331395 0.08565726
000010 7c aa a1 bd 86 08 e7 bc 55 72 2f bb 98 82 9e bd
       -0.078938454 -0.028202306 -0.0026771028 -0.077397525
000020 8e 88 89 bd d7 20 e6 3d 48 cd c2 3b c4 d4 7b 3b
       -0.06715499 0.112367325 0.0059448816 0.0038426379
000030 69 cc 5c bb 84 0b e6 3d ba 5a dd 3c 35 41 7d 3d
       -0.0033691174 0.11232665 0.0270208 0.061829764
000040 60 aa 32 bd 33 da 3e be 52 bb 6a be 84 d1 06 be
       -0.043619514 -0.18637924 -0.2292302 -0.13165861
000050 86 46 f0 ba 93 d8 bb ba ef 2f fb 3d 25 8a c1 3d
       -0.0018331564 -0.0014331512 0.12265002 0.09450177
000060 9e 56 9e 3d 72 6a 8d bd 3d f5 37 be 3a 21 cf 3d
       0.07731365 -0.069050685 -0.17964645 0.10113759
000070 b5 52 5f be 27 db cc bc 2c bc 3f 3e ca 21 6d 3d
       -0.21808894 -0.025006844 0.18724126 0.057893552
000080 48 83 49 3b e1 59 d3 bc 06 19 4b 3d 91 38 b4 bd
       0.0030748416 -0.025799694 0.04958441 -0.08799852
000090 40 4b 87 3d 72 21 db bd 52 01 c5 3d 48 3a a1 bd
       0.0660615 -0.106997386 0.096193925 -0.078724444
0000a0 06 83 12 3c 53 09 c2 3c 87 fb 0f 3d 2d 77 b8 bc
       0.008942371 0.023686087 0.035151985 -0.022517765
0000b0 00 b7 37 bd 2c 2f 64 3d b3 3b 37 be ff 2a 06 3e
       -0.044852257 0.05570905 -0.17893867 0.13102339
0000c0 16 d6 bb bd a4 30 d9 bd bc 94 ad bd 87 d4 7e 3c
       -0.09171693 -0.106049806 -0.084756345 0.0155536
0000d0 da 69 39 3e ce dc 46 3d ad 47 48 be 74 b8 18 3e
       0.18106785 0.04855042 -0.19558592 0.14914113
0000e0 05 b6 0e 3c 98 bb ef bb 1a 23 d1 3c eb 73 18 bb
       0.008710389 -0.007316064 0.025529433 -0.0023262452
0000f0 78 f2 0a 3d 3d 31 d6 bd 45 8a 89 3d 25 0d 7e 3c
       0.033922642 -0.1045861 0.06715826 0.015506064
000100 13 fd 47 3b 64 5b b5 3e c8 f8 0d bc 51 2b a0 3b
       0.0030515834 0.35421288 -0.008665271 0.004887976
000110 f1 5c 45 3c eb dd a3 3d 07 fb 54 3d bb 7e 86 bc
       0.012046085 0.08001312 0.05199721 -0.016417852
000120 86 69 d6 bd 85 74 94 be 30 bf cf 3a 1d 97 75 bd
       -0.10469346 -0.28995147 0.0015849825 -0.059958566
000130 0a b0 5f 3d d0 9a e4 bb 41 74 83 bd c8 ef d9 3d
       0.054611243 -0.006976463 -0.06418658 0.10641438
000140 cb cf 8d bd 0f e0 bd 3d 4b fd 26 be 02 91 cc 3d
       -0.06924399 0.092712514 -0.16307561 0.099885955
000150 08 c7 94 39 bc ef 58 3c ee 8b b6 bc a9 92 ad 3d
       0.0002837705 0.013240751 -0.02228352 0.08475239
000160 70 37 1e bd c5 20 1d 3e cc 3f 5f 3d e2 5e f7 bd
       -0.038627088 0.15344532 0.0545042 -0.12078644
000170 70 a1 f2 3b 07 00 f7 bd 4c f6 b9 3d be 22 1e ba
       0.0074044988 -0.12060552 0.090801805 -0.00060323987
000180 db 48 02 bd b2 6c a3 bd 89 5d a1 3a d5 2d 18 3e
       -0.03180776 -0.07979716 0.0012311201 0.14861234
000190 ed 7e ea 3d 1f 4a 1d 3e e0 d9 1e be 16 b1 9c b9
       0.114499904 0.15360306 -0.155128 -0.00029886578
0001a0 60 0a a7 bd b0 2c 3e 3a 84 53 f8 bc dd d2 3f 3e
       -0.08156276 0.0007254584 -0.03031326 0.18732782
0001b0 ab f5 bc 3d 4c 6d f1 3d 4d 63 16 3d d8 1b f6 3b
       0.09226545 0.11788425 0.036715794 0.0075106435
0001c0 eb 78 59 bc f0 c8 73 bc e5 f8 48 3d 43 aa df 3d
       -0.013273458 -0.01487945 0.04906549 0.10921147
0001d0 6d 6d c4 bd 22 01 78 3c 50 8e 2e be da a2 15 3d
       -0.09591184 0.015136989 -0.17046475 0.03653226
0001e0 91 b9 4a 3c 35 a8 6d 3d 2e 35 1a 3e 48 62 dc bc
       0.012373344 0.058021743 0.15059349 -0.026902333
0001f0 d7 bb 12 bb 61 5f e2 bb d5 4c 21 3b f4 7a 07 bd
       -0.0022389793 -0.0069083427 0.0024612446 -0.03307624
000200 e5 e5 4a 3b 88 0c a5 3d 95 a4 79 3d c2 21 47 3d
       0.0030959782 0.08059031 0.060947973 0.04861618
000210 b3 cb 11 3d 4f 4a d6 bb b1 46 66 3e 80 73 61 be
       0.035594653 -0.00653962 0.22487904 -0.22016716
000220 ab 7b 8a 3d f1 68 d6 bc 9e 6c 52 3d 50 03 2a bd
       0.06761869 -0.026173087 0.051373117 -0.041507065
000230 94 2a f4 3d ed df 41 3e 1f 5b cb 3c 58 d0 44 3d
       0.11922184 0.18933077 0.024823723 0.048050255
000240 92 d9 f1 3d f3 77 21 bd cb f5 ca 3d b5 2b 21 bb
       0.11809076 -0.039421033 0.099101625 -0.0024592702
000250 2b 6f bd bc 54 24 50 3c 4f e9 1a bd ad 57 29 3e
       -0.023124298 0.012703974 -0.037820157 0.16537352
000260 8c bc 59 bc cb 1f 00 3d af 99 1f 3e ef 30 6c bd
       -0.013289582 0.03128032 0.1558597 -0.057663854
000270 37 c7 21 3e 92 e7 c1 bc b9 9c e7 bd a0 5c a6 3d
       0.1579865 -0.023669992 -0.11309189 0.081231356
000280 86 5c f7 bb a5 36 a6 3d 79 04 f6 3d 64 c8 07 3c
       -0.0075488715 0.08115891 0.12012572 0.008287523
000290 08 04 b9 bd 8a dd 7c 3d 5d 6a 3e bd c8 e7 08 be
       -0.09033972 0.061734714 -0.046488155 -0.13369668
0002a0 09 97 31 3d e1 d4 43 3c 93 9d 1e 3e 1d 2d 80 bb
       0.04335693 0.01195261 0.15489797 -0.003911628
0002b0 b3 71 a4 bc e5 2b 02 be 42 a7 b3 bd c7 c9 1a 3e
       -0.020073747 -0.12712057 -0.08772136 0.15116034
0002c0 44 e6 ee bc 2f 57 ea bd 81 f7 6a 3e 80 0b 12 3e
       -0.029162534 -0.1144241 0.22945978 0.142622
0002d0 03 3a b6 3c c7 15 2f 3d 9f 54 54 be 5f 0a f5 bd
       0.022244459 0.042745378 -0.20735405 -0.11964869
0002e0 01 f8 00 3c 40 cd 90 bb e5 d8 82 bd 53 73 6d 3c
       0.007871629 -0.004418999 -0.063890256 0.0144928275
0002f0 27 f0 90 bd 2e b3 15 be 0e 9d 9c 3d 22 f7 16 bc
       -0.070770554 -0.14619133 0.07647143 -0.0092141945
000300 47 3e 4d 3b 10 03 04 3e cf 1e 3d bc 27 d1 be ba
       0.0031317638 0.12891793 -0.01154299 -0.0014558182
000310 20 9f 84 bd fb 74 76 bd e2 75 07 3e f6 21 33 ba
       -0.06475663 -0.060170155 0.13228562 -0.00068333687
000320 7b 62 6c 3d 29 94 33 be 4e a4 40 bb 2a 4b 78 be
       0.057711106 -0.17536987 -0.0029394808 -0.24247423
000330 27 70 12 3e 08 b2 e8 bb d8 85 47 3c ea 08 b6 bd
       0.14300595 -0.007101301 0.012177907 -0.08888419
000340 69 ec 7c bd 7e 7a 71 3d cb 9f b1 3d 37 f7 b7 3c
       -0.061748896 0.05895471 0.08673056 0.022456748
000350 73 de 56 3c 6f d3 10 3e 72 c3 78 bd 6d ee 9b 3c
       0.013114559 0.14143156 -0.060733266 0.019034589
000360 96 41 04 be 0c a0 29 bd c9 90 96 bd 36 d4 5c be
       -0.12915644 -0.0414124 -0.07351834 -0.21565327
000370 e9 87 61 bc f7 a5 c3 3d c0 e4 ac 3d 32 7d 41 bc
       -0.013765314 0.0955314 0.08442068 -0.011809634
000380 cd 90 dd bd 0b 71 12 be c5 bf 37 3d 89 7c 1c 3c
       -0.10818634 -0.14300935 0.04486062 0.009551176
000390 05 8b 08 bc da 04 89 bd 13 1c bc 3d 1c dc 0b ba
       -0.008333926 -0.066903785 0.09185042 -0.0005335228
0003a0 07 b7 49 bc 92 4f 1c 3e 0a 74 07 3e fa 9b e4 be
       -0.0123117035 0.15264729 0.13227859 -0.4465025
0003b0 0a e8 77 be dd cd 05 bd dc 57 1e bd e7 40 27 3e
       -0.2420961 -0.03266703 -0.038658008 0.16333352
0003c0 c9 f5 1f bd ce b5 07 3d 9b 92 71 be f5 91 08 3e
       -0.03905276 0.033132367 -0.23591082 0.13336928
0003d0 90 5b 5c 3d 69 3c fe bc ba 0a 25 3d 58 e5 a5 bd
       0.05379826 -0.031034665 0.040293433 -0.081003845
0003e0 b1 8a 5f be d6 95 cf bd 15 7f 40 be d8 fb 06 3d
       -0.2183025 -0.10136001 -0.18798478 0.03295502
0003f0 06 cd 2a 3b 75 e0 79 bd d4 08 7c bb 39 fc a5 3d
       0.0026062145 -0.061005075 -0.003845741 0.08104748
