stats/test/iter999.pt (torch, 183486 bytes, 12 tensors)

log_std f4 [12]
0	0x00000000	0.0
1	0x00000000	0.0
2	0x00000000	0.0
3	0x00000000	0.0
4	0x00000000	0.0
5	0x00000000	0.0
6	0x00000000	0.0
7	0x00000000	0.0
8	0x00000000	0.0
9	0x00000000	0.0
10	0x00000000	0.0
11	0x00000000	0.0

p_fcs.0.weight f4 [128, 39]
0	0x3c16f2dd	0.009213177
1	0x3ca7c876	0.02048133
2	0xbef8d63e	-0.48600954
3	0xbba5fe66	-0.005065727
4	0x3f0c779b	0.54870003
5	0xbd015f8a	-0.031585254
6	0xbbbf3121	-0.005834714
7	0xbcea1e9a	-0.028579045
8	0xbed62f5b	-0.41833004
9	0x3d9b6d7c	0.07589242
10	0x3c41e64e	0.011834694
11	0x3d8f4596	0.06995694
12	0x3ce1ad23	0.027548378
13	0x3c4ea117	0.012611649
14	0xbdfdb5a6	-0.12388162
15	0xbc1412a4	-0.009037647
16	0xbcf38cb8	-0.029730186
17	0xbd36af26	-0.04460063
18	0x3e966ecd	0.2938141
19	0x3e0e99e5	0.13925894
20	0x3aad34da	0.0013214604
21	0xbd406e99	-0.046980474
22	0x3e441ca6	0.19151554
23	0x3d16e399	0.036838148
24	0xbc8234d8	-0.015894338
25	0xbcc90785	-0.024539718
26	0xbd347402	-0.044055946
27	0xbadef791	-0.0017011036
28	0x3a186336	0.00058131234
29	0xbd669b7d	-0.05630063
30	0x3cc1fc7b	0.023679962
31	0x3d1f01b2	0.038819976
32	0x3d251be6	0.04030981
33	0xbd026e54	-0.0318435
34	0xbc96f4c2	-0.018427256
35	0xbe84ee19	-0.25962904
36	0x3c091bd2	0.008368449
37	0x3e3eab27	0.18619977
38	0x3d704b12	0.058665343
39	0x3d44fa14	0.048090056
40	0x3d0dc43b	0.034610968
41	0xbed618cb	-0.4181579
42	0xbe680ea2	-0.22661832
43	0xbd4afff8	-0.049560517
44	0xbe2d9bf3	-0.16954021
45	0x3d919809	0.071090765
46	0xbbead9ef	-0.007167093
47	0xbeace8ae	-0.3377127
48	0x3d13dc30	0.03609866
49	0xbd630f88	-0.055434734
50	0xbb7cbf34	-0.0038566114
51	0x3baf8db6	0.0053574694
52	0x3c6d3d83	0.014479998
53	0xbe97409e	-0.29541487
54	0x3d86f63e	0.06589936
55	0xbd59fba1	-0.053218488
56	0x3dc9da4e	0.098560914
57	0x3e69cbb3	0.22831611
58	0x3aaa6439	0.0012999839
59	0x3d428b8b	0.04749636
60	0xbd84f8ff	-0.06492805
61	0xbc766385	-0.015038376
62	0xbd80658b	-0.06269368
63	0x3d275b25	0.040858407
64	0x3b724a1b	0.003697044
65	0xbbf82b32	-0.0075735087
66	0x3d6fdc1a	0.058559515
67	0xbc363fc0	-0.011123598
68	0x3b3ab958	0.002849182
69	0x3d03bb60	0.032161117
70	0xbb3caddf	-0.0028790159
71	0xba32143c	-0.0006793176
72	0xbbc3bafc	-0.005973218
73	0xbcba0b0d	-0.022710348
74	0xbcf0bc55	-0.029386679
75	0xbd8fa204	-0.07013324
76	0x3e7e799f	0.24851082
77	0x3cd619bc	0.026135318
78	0xbc186d00	-0.009303331
79	0xbcb674cc	-0.02227249
80	0xbe9bd12b	-0.3043302
81	0xbd50b04f	-0.05094939
82	0x3e2a1eea	0.16613355
83	0x3e01507b	0.12628357
84	0xbdd2272a	-0.10261376
85	0x3d01e9c8	0.03171709
86	0x3d0cf359	0.034411762
87	0xbd8a1b2c	-0.06743464
88	0x3d299f40	0.04141164
89	0xbe5976be	-0.21236703
90	0xbd17acc2	-0.03702999
91	0x3d46ef61	0.048568133
92	0xbd9e7985	-0.07738022
93	0xbddc1a92	-0.107472554
94	0xbb911160	-0.00442712
95	0xbd67a865	-0.056557078
96	0x3e2024ee	0.15639088
97	0xbe0bdfb8	-0.1365956
98	0xbdd7a715	-0.10529915
99	0x3c8b9e94	0.01704339
100	0x3db79656	0.08964221
101	0x3cedeb29	0.029042797
102	0xbc1c5cd4	-0.009543616
103	0xbd33d1ae	-0.043901138
104	0xbd817ff4	-0.06323233
105	0xbdc98e2d	-0.09841571
106	0xbc5b9485	-0.013402109
107	0xbe03459e	-0.12819526
108	0xbd60b950	-0.054864228
109	0x3c8efe2e	0.017455187
110	0x3ab7a87f	0.0014012008
111	0xbdea8426	-0.114509866
112	0xbcf59e9b	-0.029982856
113	0x3e5f81c4	0.21826845
114	0x3c179a1c	0.009253051
115	0xbb651ac4	-0.003495858
116	0xbd2a2cec	-0.041546747
117	0x3c29cb85	0.010363464
118	0xbab1f39a	-0.0013576627
119	0x3eae1246	0.33998317
120	0xbde9a2f2	-0.114080325
121	0x3e4eb681	0.20186807
122	0xbdc40409	-0.09571082
123	0xbd9c3e0f	-0.07629024
124	0x3ba8f4e6	0.0051561473
125	0x3d088eb8	0.033339232
126	0xbbf2f71e	-0.0074147126
127	0xbc158e86	-0.0091282185
128	0xbe92a978	-0.2864492
129	0x3c4fd06a	0.012683967
130	0xbba55fc1	-0.005046815
131	0x3d18d2fb	0.03731058
132	0xbca2fd30	-0.01989612
133	0xbd758692	-0.05994279
134	0xbe733b9d	-0.2375321
135	0xbdcc1cd4	-0.09966436
136	0xbe845320	-0.2584467
137	0x3d1a8da3	0.03773273
138	0x3d66935d	0.05629288
139	0x3d97c297	0.07410162
140	0xbc834133	-0.0160223
141	0xbc176bd8	-0.009242021
142	0x3c480967	0.012209273
143	0x3c965516	0.018351119
144	0x3c95f733	0.01830635
145	0xbcab5dc4	-0.020918734
146	0xbcd0ef19	-0.025504636
147	0xbd2d14f0	-0.042256296
148	0x3c8155a3	0.015787905
149	0x3d595ce2	0.053067096
150	0x3d0161b8	0.031587332
151	0x3bc13981	0.0058967476
152	0x3e43afcc	0.1911003
153	0xbe8b006a	-0.27148753
154	0x3dd3f052	0.10348572
155	0xbe89560d	-0.26823464
156	0xbd843139	-0.06454701
157	0xbcd8c018	-0.026458785
158	0x3e8479fb	0.25874314
159	0xbd9d6b81	-0.0768652
160	0x3ecddfec	0.402099
161	0xbe455b5e	-0.19273135
162	0xbd653490	-0.05595833
163	0xbc6aed64	-0.014338825
164	0xbec42248	-0.38307405
165	0x3c1dd93a	0.00963431
166	0x3c8994fb	0.016794672
167	0x3ea011d9	0.31263617
168	0xbd7a91be	-0.061174147
169	0xbc0ebbb8	-0.008711748
170	0xbde348b6	-0.11097853
171	0xbcd071bd	-0.02544486
172	0x3cb360c4	0.021896727
173	0xbda8a755	-0.08235041
174	0xbe80cbc3	-0.25155458
175	0xbdc4cd6f	-0.09609496
176	0x3d318ad8	0.043345302
177	0x3d95132c	0.07279047
178	0x3e5e9f18	0.21740377
179	0x3b543187	0.0032378153
180	0xbcd2fe4a	-0.02575602
181	0xbcde8963	-0.02716512
182	0xbd594963	-0.053048503
183	0xbd82f149	-0.06393678
184	0xbcef49e8	-0.029210046
185	0x3d011a2b	0.031519096
186	0x3c8f436c	0.017488204
187	0x3caac172	0.020844195
188	0xbd92fe42	-0.07177402
189	0x3d825666	0.063641354
190	0xbc2a683a	-0.010400826
191	0xbe131e9a	-0.14367142
192	0x3e0ba38d	0.13636608
193	0x3e642ff9	0.22283925
194	0xbdb6edcf	-0.08932077
195	0x3cf937bb	0.030422082
196	0x3cf305e0	0.029665887
197	0xbedaf5d8	-0.4276569
198	0x3e2a8aac	0.16654462
199	0xbf1e87cb	-0.61925954
200	0x3c6de532	0.014519976
201	0x3d8be40f	0.06830608
202	0x3b052b43	0.0020319975
203	0x3d1e45cd	0.038640786
204	0x3dbcc402	0.09217073
205	0xbc8f21b3	-0.017472124
206	0xbdf8cfea	-0.121490315
207	0x3d0344f8	0.032048196
208	0x3d07b462	0.03313101
209	0xbeaf5676	-0.34245652
210	0x3d3f7fd6	0.046752773
211	0x3b5b1329	0.0033428168
212	0x3ebc29af	0.36750552
213	0x3e45096f	0.1924188
214	0x3c76b803	0.01505852
215	0x3d3dc325	0.046328682
216	0x3ddc6ddf	0.10763144
217	0xbe8de756	-0.27715558
218	0xbcfda396	-0.030961793
219	0xbcf144cd	-0.029451752
220	0xbc9b3459	-0.01894586
221	0x3c90a45c	0.017656498
222	0x3db5e1f4	0.08880988
223	0x3cec7cc4	0.028868087
224	0xbc83c8d3	-0.016086971
225	0xbc387456	-0.011258205
226	0xbbf9aeeb	-0.007619729
227	0xbd464a1b	-0.048410516
228	0x3c1da807	0.00962258
229	0xbbe3921e	-0.0069449088
230	0xbde32d7f	-0.11092662
231	0x3c97c59f	0.01852685
232	0x3d342b08	0.04398635
233	0xbca07fb3	-0.019592142
234	0xbbcc0d8f	-0.0062272022
235	0x3cab01ba	0.020874847
236	0xbe0cc7f6	-0.13748154
237	0x3e054844	0.13015848
238	0xbdb5ee1b	-0.08883306
239	0x3db47d67	0.08812981
240	0x3b76c1f4	0.0037652226
241	0x3d8d887c	0.06910798
242	0xbec6a63b	-0.387987
243	0x3cd02837	0.025409801
244	0x3c9ba45f	0.018999277
245	0x3dfd26dc	0.123609275
246	0xbb98577c	-0.004649101
247	0xbb3871b5	-0.0028143947
248	0xbce2a538	-0.027666673
249	0x3d046c18	0.03232965
250	0x3d2018c3	0.039086115
251	0x3e2d8b96	0.16947779
252	0xbd4b6fa3	-0.049667012
253	0x3d89e312	0.06732763
254	0x3dc6a54a	0.09699495
255	0xbb052326	-0.002031514

p_fcs.0.bias f4 [128]
0	0x3ca73e84	0.020415552
1	0x3d663904	0.056206718
2	0xbcd0c39a	-0.025483895
3	0xb9a88072	-0.00032139156
4	0xbd3b2c8f	-0.04569679
5	0x3c801489	0.015634792
6	0x3b48baa1	0.0030628818
7	0xbc9bf256	-0.019036453
8	0xbcc7c61d	-0.02438646
9	0x3c8e8bb4	0.0174006
10	0x3c6530f5	0.013988723
11	0x3d42955e	0.04750573
12	0x3c1aa922	0.0094397385
13	0xbb32622c	-0.002721916
14	0xbb524bde	-0.0032088677
15	0xbd49e311	-0.049288813
16	0xbc8e6ff1	-0.017387362
17	0x3cf83f27	0.03030355
18	0x3ba5ccf8	0.0050598346
19	0xbca17757	-0.019710226
20	0x3c1ed50a	0.009694347
21	0xbaaabf22	-0.0013026933
22	0x3d098c8d	0.033581305
23	0xb9cc7ae3	-0.0003900147
24	0xbd80e2d8	-0.06293267
25	0xbd2114ce	-0.03932648
26	0xbb0b9978	-0.0021301191
27	0xbd52968d	-0.051413108
28	0xbbb5d189	-0.00554866
29	0x3b2a9a1a	0.0026031793
30	0x3c095811	0.008382813
31	0xbc960508	-0.018312946
32	0xbb571156	-0.003281673
33	0x3c3e90d9	0.011631214
34	0x3cc680d1	0.024231346
35	0xbc584f4f	-0.013202502
36	0x3c8627a7	0.01637633
37	0x3c65e0ca	0.014030645
38	0x3c2255bd	0.009908137
39	0x3d6fd891	0.058556143
40	0xbaa7bf12	-0.0012798032
41	0xbb19846c	-0.0023424877
42	0x3c80f6b6	0.015742641
43	0xbc6ccf35	-0.014453699
44	0xbc80f8da	-0.015743662
45	0xbc317427	-0.0108309155
46	0xbd7e674f	-0.06211024
47	0xbb76bd0e	-0.0037649306
48	0x3c14aaa3	0.009073886
49	0xbab9544c	-0.0014139502
50	0xbba163eb	-0.004925241
51	0xbca702af	-0.020387022
52	0xb9eb12d6	-0.00044836727
53	0xbd16782c	-0.0367357
54	0xbc935a7e	-0.017987486
55	0xbc5e02ce	-0.013550473
56	0x3c43575e	0.011922685
57	0xbb8699b3	-0.004107678
58	0x3c600786	0.013673669
59	0xbc00baf3	-0.007857072
60	0xbb6ef73e	-0.0036463286
61	0xbc22c5c5	-0.009934847
62	0x3c071779	0.008245342
63	0x3d1172b4	0.03550978
64	0xbc9c9288	-0.01911284
65	0x3cdc978e	0.026927736
66	0xbb69daa3	-0.0035683296
67	0xbcf7d306	-0.030251991
68	0x3d3f19f9	0.04665563
69	0xbc968f2f	-0.018378822
70	0x3c39f4b9	0.01134985
71	0x3b429c1e	0.0029695104
72	0x3c53e72b	0.012933533
73	0xbc0981fe	-0.008392809
74	0xbc166847	-0.009180135
75	0x39b33903	0.00034184018
76	0xbc5312b2	-0.012882875
77	0xbc677c32	-0.014128732
78	0xb998211c	-0.00029016368
79	0xbb3fa88c	-0.002924475
80	0x3ba8e0d7	0.005153756
81	0xbc948ef2	-0.018134568
82	0xbd6aeb84	-0.05735351
83	0x3ccd151d	0.025034482
84	0xbcc53592	-0.024073396
85	0x3b3db089	0.0028944334
86	0xbc96f591	-0.018427642
87	0xbb99dca1	-0.0046954905
88	0xbc4fa0d5	-0.012672623
89	0x3c91fb11	0.017819913
90	0x3bb5c905	0.005547645
91	0xb9f84495	-0.00047353344
92	0xbc91a09e	-0.017776784
93	0xbccd71e9	-0.02507873
94	0xbcd7a8b9	-0.02632557
95	0xbcb1f2b4	-0.021722175
96	0xbcc08ae7	-0.023503734
97	0xbc8b218c	-0.01698377
98	0x3cbfcd92	0.023413453
99	0x3ccd7505	0.025080213
100	0xbcbedb7a	-0.023298014
101	0x3c804308	0.015656963
102	0xbbe7dd86	-0.007075968
103	0x3c637de6	0.013884997
104	0x3996a8f6	0.00028736115
105	0xbc93e206	-0.018052112
106	0x3cc99366	0.024606418
107	0xbafc6061	-0.0019254797
108	0x3c9b790b	0.018978616
109	0xbc20aaee	-0.009806378
110	0x3d914c60	0.070946455
111	0xbbdddcd8	-0.0067707114
112	0x3cbd141c	0.023080878
113	0x3c9c9355	0.019113222
114	0x3c499a01	0.012304784
115	0x3c4d258e	0.012521161
116	0x3d15ce00	0.03657341
117	0xbcaca845	-0.02107633
118	0xbc404eb7	-0.011737517
119	0xbbfad0b5	-0.0076542743
120	0xbcceccd2	-0.02524415
121	0x3d268903	0.04065801
122	0xbbdcd5b8	-0.0067393444
123	0xbb3b6e0e	-0.0028599533
124	0x3cda7788	0.026668325
125	0xbd04184c	-0.032249734
126	0xbc8d3f60	-0.017242134
127	0xbacaf3ea	-0.0015484069

p_fcs.1.weight f4 [128, 128]
0	0xbc4b3ec6	-0.012405103
1	0xbbcd304c	-0.006261861
2	0xbc886034	-0.016647436
3	0xbba0aec6	-0.004903647
4	0xbbbe9d68	-0.005817104
5	0xbb9f8aa0	-0.0048688203
6	0xbc9e5248	-0.019326344
7	0x3c7ceb2f	0.0154369315
8	0x3bd7860c	0.006577259
9	0xbc1b4e46	-0.009479111
10	0x3b028357	0.001991471
11	0xbbf92e4a	-0.007604395
12	0xbbc8b857	-0.0061254906
13	0xbb964251	-0.0045855423
14	0x3b192afd	0.002337157
15	0xbb54216e	-0.0032368558
16	0xbb8f3098	-0.0043698065
17	0x3c0e1375	0.008671631
18	0xbafa2efb	-0.0019087488
19	0x3b173949	0.0023074916
20	0xbc9c1cf8	-0.019056782
21	0xbb4efb32	-0.003158283
22	0xbb86d5b5	-0.0041148313
23	0xbb49d891	-0.003079925
24	0x3c22f0ee	0.009945137
25	0xbcc19ec8	-0.023635283
26	0x3a2b7ad2	0.0006541434
27	0xbb018f64	-0.0019769305
28	0xbc86a33a	-0.016435254
29	0xbc69ff78	-0.0142821
30	0xba9c6599	-0.0011932134
31	0x3c8f31aa	0.017479736
32	0xbc721dbe	-0.014777599
33	0x3bebd3fa	0.0071969004
34	0x384bb6d7	4.8569254e-05
35	0x3bb1ec18	0.005429756
36	0xbc3b7bf3	-0.011443126
37	0xba6d5ddc	-0.00090548187
38	0x3c11f926	0.008909499
39	0xbc1eddb9	-0.0096964175
40	0xbad5048a	-0.0016251963
41	0xbc1671d9	-0.009182417
42	0x394a0a8f	0.00019268155
43	0x3c068b56	0.008211931
44	0xbc27197e	-0.010198949
45	0x3b225535	0.0024770026
46	0xb99b122e	-0.0002957745
47	0xbca13f36	-0.019683462
48	0xbbde589f	-0.006785467
49	0xbca10032	-0.019653413
50	0xbb7680c1	-0.0037613364
51	0xba6ecfb8	-0.0009109932
52	0xbcb634f2	-0.022242043
53	0xbc260770	-0.010133609
54	0xbb7a654c	-0.003820735
55	0xbb9820aa	-0.0046425657
56	0xbb57b632	-0.0032914993
57	0xbcbca1f1	-0.023026438
58	0xbc0d3f79	-0.00862109
59	0xbc083e7b	-0.008315678
60	0xbc0132be	-0.007885633
61	0x3bee4ef3	0.007272595
62	0x3bf5649f	0.0074888016
63	0xbc22ee5e	-0.0099445265
64	0xbc0d67fd	-0.00863075
65	0xbbbde4cb	-0.0057950965
66	0xbd01c4b3	-0.031681728
67	0xbbbedfa0	-0.005824998
68	0xbb941695	-0.0045192936
69	0xbc2ecd4c	-0.010669064
70	0xbc6a2868	-0.01429186
71	0x3c650a8c	0.013979565
72	0xbb98bb64	-0.0046610106
73	0xbb7d4308	-0.003864469
74	0xbc312b1a	-0.010813499
75	0x3b6355c4	0.0034688571
76	0xb970b700	-0.00022956356
77	0xbc8f76fd	-0.017512793
78	0xbc4d5f0d	-0.012534869
79	0xbc3a62a3	-0.011376056
80	0xbc835c13	-0.016035115
81	0xbabb745e	-0.0014301648
82	0x3b854135	0.004066611
83	0xbc133c21	-0.008986504
84	0x3c2cbe05	0.010543351
85	0xbbb80004	-0.0056152362
86	0xbb6f2b2a	-0.0036494234
87	0x3bfa4bdf	0.007638439
88	0xbbb3c46f	-0.005486063
89	0xbcbc0ef7	-0.022956355
90	0xbb52151e	-0.0032056044
91	0xbbae0d84	-0.00531167
92	0xbbe4970f	-0.0069760154
93	0xbb7efd41	-0.0038908275
94	0xbb260b48	-0.0025336314
95	0x3b54a43b	0.0032446522
96	0xbc0e0527	-0.008668221
97	0x3c4ba28f	0.012428894
98	0xbc527d1b	-0.01284721
99	0xbc788abc	-0.015169796
100	0xbc2a622d	-0.0103993835
101	0xbc705dc7	-0.014670796
102	0xbc274417	-0.010209105
103	0xb98c3ba4	-0.00026747317
104	0xbb87fa98	-0.004149746
105	0xbb2eda70	-0.0026680492
106	0xbba11d2b	-0.004916807
107	0xbc6aec9c	-0.014338639
108	0x3acf4d06	0.0015815801
109	0xbb83d6a6	-0.004023391
110	0xbc18188f	-0.009283199
111	0xbb803b96	-0.003913353
112	0xbc7a201a	-0.015266443
113	0xbcc96365	-0.024583528
114	0xbc972200	-0.01844883
115	0xbbb65a0e	-0.0055649346
116	0xbc794249	-0.0152135575
117	0xbcc1c547	-0.02365364
118	0xbc0be192	-0.008537667
119	0xbb5468c4	-0.0032411078
120	0xbbe24c11	-0.0069060405
121	0xbb963f40	-0.0045851767
122	0xbc39ce5f	-0.011340707
123	0xbc63664e	-0.013879372
124	0xbbda7025	-0.0066662007
125	0xbc3e405c	-0.011612024
126	0x3c30dc2f	0.010794683
127	0x3b570351	0.0032808373
128	0xbcde8ebd	-0.027167672
129	0x3d82b2b4	0.06381741
130	0xbd7fd3bd	-0.06245779
131	0x3bae81a0	0.005325511
132	0xbd916e4c	-0.071011156
133	0x3c96238c	0.018327497
134	0x3d7b8984	0.061410442
135	0xbd9154e7	-0.07096272
136	0xbce76f8a	-0.028251428
137	0x3d2d6ffa	0.042343117
138	0x3d0b2987	0.03397515
139	0x3d0bdbd2	0.034145184
140	0xba70e81f	-0.0009189862
141	0x3d6ecf41	0.05830312
142	0xbd3632a2	-0.04448188
143	0xbe53c136	-0.20679173
144	0xbd28d014	-0.041214064
145	0xbcf01f23	-0.029311722
146	0x3b91c391	0.004448362
147	0xbd879ead	-0.06622062
148	0x3c0d3b91	0.008620159
149	0xbda28f37	-0.07937472
150	0xbdf44e7a	-0.11929031
151	0xbc36b691	-0.011151926
152	0xbd129ce7	-0.035794165
153	0xbe0b3a66	-0.13596496
154	0xbd146e8e	-0.036238246
155	0x3d74930d	0.05971055
156	0xbd99d04e	-0.07510434
157	0x3d4814eb	0.048848074
158	0xbde6783a	-0.112534
159	0x3d3455d5	0.04402717
160	0x3cbcaed8	0.02303259
161	0x3c9c3760	0.019069374
162	0x3d8c3cee	0.06847559
163	0x3dd5485e	0.104141936
164	0xbdb48060	-0.08813548
165	0x3d42261a	0.047399618
166	0xbc93710b	-0.017998239
167	0x3d8ea812	0.069656506
168	0xbcd5750d	-0.02605679
169	0x3e1887b5	0.14895518
170	0xbd0aeb39	-0.033915732
171	0xbcebfb9a	-0.028806496
172	0xbd62e759	-0.05539641
173	0xbcf1e28e	-0.029526975
174	0xbcc8a5f6	-0.024493199
175	0xbda9a85a	-0.08284064
176	0x3cb5bef9	0.02218579
177	0x3d89148a	0.06693371
178	0xbd413cd1	-0.04717714
179	0x3d3fe667	0.04685059
180	0xbe4d9109	-0.20074858
181	0xbc4c358e	-0.01246394
182	0xbdd404b8	-0.103524625
183	0xbbefd3fd	-0.007318972
184	0x3d7ada46	0.061243318
185	0xbe0c3a1b	-0.1369404
186	0xbd44c18e	-0.04803615
187	0x3ce70815	0.028202096
188	0xbd8fb522	-0.0701697
189	0xbdd98722	-0.10621478
190	0x3d42f747	0.047599103
191	0x3d382392	0.044955797
192	0xbcf711e3	-0.030159896
193	0x3d686728	0.056739002
194	0xbdb786c9	-0.08961255
195	0xbe153247	-0.1456996
196	0x3cba2fa4	0.022727795
197	0xbc92384b	-0.017849108
198	0x3d3f4535	0.04669686
199	0xbc85d45a	-0.016336609
200	0xbd1fd619	-0.03902254
201	0xbdaa5443	-0.08316853
202	0x3d59adac	0.053144142
203	0x3da089c2	0.07838775
204	0xbd328fb4	-0.043594077
205	0x3deb5518	0.1149084
206	0x3d9aa344	0.07550672
207	0x3d96ef75	0.073698916
208	0xbd97638b	-0.07392033
209	0xbd820c88	-0.063500464
210	0x3d897b4e	0.06712972
211	0xbc0ee428	-0.008721389
212	0x3d036900	0.032082558
213	0x3c03bc1b	0.008040453
214	0xbc408067	-0.0117493635
215	0xbc511a10	-0.012762561
216	0xbd039daa	-0.032132782
217	0x3dbf02b5	0.09326688
218	0x3d027f4c	0.03185968
219	0xbe31a18e	-0.17346784
220	0x3d648bef	0.055797514
221	0x3bc57f96	0.0060271723
222	0x3e07c843	0.13259988
223	0xbd6084da	-0.054814197
224	0xbc44aaf1	-0.012003646
225	0xbe5756cf	-0.21029209
226	0x3d6fdbf2	0.058559366
227	0xbc97c413	-0.018526113
228	0xbde3466e	-0.11097418
229	0xbd4925b9	-0.04910824
230	0xbe005bab	-0.12534969
231	0x3d374bd5	0.044750053
232	0xbda3cce5	-0.07998065
233	0xbd38d3e0	-0.045123935
234	0x3db6f6b3	0.08933773
235	0x3a89231a	0.0010462732
236	0x3d16bd6c	0.03680174
237	0xbdc7d1a9	-0.097567864
238	0x3ba93c3a	0.0051646503
239	0x3d358d59	0.044324253
240	0xbd17eb31	-0.03708953
241	0x3bcfd2c9	0.006342266
242	0x3d64d09a	0.055863
243	0x3cf21064	0.029548831
244	0x3d24298a	0.040078677
245	0x3d6fa890	0.058510363
246	0x3bb5347a	0.0055299373
247	0x3c598281	0.013275743
248	0x3c22199c	0.009893801
249	0xbcfd22c5	-0.030900368
250	0xbd246dd6	-0.04014381
251	0x3d4dbf2e	0.05023115
252	0xbda5f852	-0.08104004
253	0xbcfa89e8	-0.030583337
254	0xbdac851c	-0.08423826
255	0xbd2351c1	-0.03987289

p_fcs.1.bias f4 [128]
0	0xbc2df04b	-0.010616372
1	0x3db185a3	0.08668067
2	0x3d8200e5	0.06347827
3	0x3d2b7eba	0.041868903
4	0x3d7991e0	0.060930133
5	0x3a662007	0.0008778576
6	0xbb48e585	-0.0030654382
7	0x3da7c894	0.08192554
8	0x3d0d35dd	0.034475196
9	0x3d5fdfcd	0.054656792
10	0x3cff55e1	0.03116888
11	0x3c8fd146	0.017555844
12	0x3d4614e9	0.048359785
13	0x3d19520f	0.037431773
14	0xbc6ebcf6	-0.014571419
15	0x3d34c8c1	0.044136766
16	0x3c6a04d3	0.014283377
17	0x3d2e1106	0.042496704
18	0x3c12e360	0.008965343
19	0x3c65c6a1	0.014024408
20	0x3d10d7b5	0.035361964
21	0xbc6d127e	-0.014469741
22	0xbd448cd1	-0.047985855
23	0x3d69b94c	0.05706148
24	0x3cf29e55	0.029616514
25	0x3bbc0578	0.0057379566
26	0x3daf317c	0.0855436
27	0x3d6a8d84	0.057263866
28	0x3d8ca80f	0.06867992
29	0x3d032a36	0.032022677
30	0x3d40c836	0.047065936
31	0x3cd6ef05	0.02623702
32	0xbc0bc140	-0.008529961
33	0x3cb85b7f	0.022504566
34	0xbcad7c03	-0.021177297
35	0x3d1097dd	0.035301078
36	0x3d850b4f	0.064962976
37	0x3b5f7036	0.0034093983
38	0x3d308118	0.043091863
39	0x3cc4363d	0.023951644
40	0x3d4e0fcf	0.050308045
41	0x3d284d47	0.041089322
42	0x3d50e7b8	0.051002234
43	0x3d0162a9	0.03158823
44	0x3d18384d	0.037163068
45	0x3c68edb8	0.014216833
46	0x3d014bdf	0.031566497
47	0x3d5a7c77	0.053341355
48	0x3c5f681e	0.013635663
49	0x3d75813c	0.0599377
50	0x3d366fd5	0.044540245
51	0x3d4dbd90	0.05022961
52	0x3d5e01e6	0.05420103
53	0x3d03cd2d	0.032178093
54	0x3d9d2b9a	0.07674332
55	0x3cefd7e0	0.029277742
56	0xbc55bc44	-0.013045374
57	0xbc075bb1	-0.008261607
58	0xbd37b166	-0.044846915
59	0xbc9084d3	-0.01764146
60	0x3d48d707	0.04903319
61	0x3d1e39dd	0.0386294
62	0x3d88294b	0.06648501
63	0xbcda579f	-0.02665311
64	0xbc9d7bb9	-0.019224035
65	0x3d5da3ce	0.054111294
66	0xbc6a2160	-0.014290184
67	0xbbf27375	-0.0073990175
68	0x3db77ad0	0.089589715
69	0x3b6b7afe	0.0035931463
70	0x3d121d73	0.035672616
71	0x3d8e08f8	0.069353044
72	0x3d507717	0.050894823
73	0x3c9b1327	0.018930031
74	0xbca25fdc	-0.0198211
75	0x3d9434b8	0.07236618
76	0x3d56a4ae	0.052403145
77	0xbc3083e1	-0.01077363
78	0x3c9431f6	0.01809023
79	0x3d403655	0.046926815
80	0xbb0d5c4b	-0.0021569903
81	0xbba944ac	-0.005165657
82	0x3d34590f	0.044030245
83	0x3cdfab4d	0.027303362
84	0xbc235c3a	-0.009970719
85	0x3d751cb4	0.059841827
86	0x3d384fed	0.0449981
87	0x3d108c3e	0.035289995
88	0x3d258705	0.040411968
89	0x3d7782f5	0.060427625
90	0x3cda5dee	0.026656117
91	0x3d22f210	0.03978163
92	0xbc27c78f	-0.01024045
93	0x3d05e654	0.03269036
94	0x3d4e4987	0.05036309
95	0xbc322f4d	-0.010875535
96	0x3c40a526	0.011758124
97	0x3d6c3cae	0.057675056
98	0x3d785fb0	0.06063813
99	0x3d9c25bf	0.07624387
100	0x3d17d2ff	0.037066456
101	0x3d0d7046	0.0345309
102	0x3c0be405	0.008538251
103	0xbc15dbcf	-0.009146645
104	0x3c4d5fa1	0.012535007
105	0x3d077499	0.03307018
106	0x3cb5bc33	0.022184467
107	0x3cf7ba4d	0.030240202
108	0x3d60e671	0.054907266
109	0x3c07b8f5	0.008283843
110	0x3cec2b2d	0.028829182
111	0xbc8c9719	-0.017161893
112	0x3be5bc75	0.007010991
113	0xbc09fbdf	-0.008421867
114	0x3cf8ecd5	0.030386368
115	0x3d56bdf7	0.05242726
116	0x3d0054cf	0.03133088
117	0xbceb6acc	-0.028737448
118	0x3bc1da75	0.0059159347
119	0x3db75041	0.08950854
120	0xbac37519	-0.0014912217
121	0x3d8aeca9	0.067834206
122	0xbc730453	-0.014832574
123	0x3d5ab1ae	0.053392105
124	0xbc9f7057	-0.019462747
125	0x3d35b831	0.04436511
126	0xbc27dff7	-0.0102462685
127	0x3d02bfb6	0.03192111

v_fcs.0.weight f4 [128, 39]
0	0xbe57195b	-0.21005766
1	0xbe588286	-0.2114354
2	0x3d8cd986	0.06877427
3	0x3e998721	0.29985908
4	0x3e4bc929	0.19900955
5	0xbe42356e	-0.18965694
6	0xbe6bc710	-0.23025155
7	0x3e7d46d3	0.24734049
8	0xbcc1ab5b	-0.023641279
9	0xbe6a6a53	-0.22892122
10	0x3e6ad60c	0.22933215
11	0xbe92c848	-0.28668427
12	0xbe5da02f	-0.21643136
13	0x3e73752d	0.23775168
14	0x3e3dbb74	0.18528539
15	0xbe71825a	-0.23584881
16	0x3e718cbb	0.2358884
17	0x3d4a179f	0.049338933
18	0xbe76b3b3	-0.24091987
19	0x3e45c7ae	0.19314453
20	0x3ce91a8d	0.028455043
21	0x3e0d9e25	0.13829859
22	0x3e15e0ad	0.14636488
23	0xbc7118fb	-0.014715428
24	0x3cd115c0	0.025523067
25	0x3c8e5745	0.017375598
26	0xbca2b852	-0.019863281
27	0x3b3ecf4d	0.002911526
28	0xbcea6262	-0.028611366
29	0xbc354be3	-0.011065456
30	0x3d0721a3	0.032991063
31	0xbc1f76a7	-0.009732879
32	0xbc6e4a0c	-0.014544021
33	0xbc53fa53	-0.0129381
34	0x3be982af	0.0071261744
35	0x3d279137	0.040909972
36	0xbe3aed38	-0.18254554
37	0x3cc97e68	0.024596408
38	0xbd5b3200	-0.05351448
39	0xbd872467	-0.0659874
40	0xbeba72ac	-0.36415613
41	0xbf7d8706	-0.99034154
42	0x3d3be1c9	0.045869622
43	0xbf041c51	-0.5160571
44	0xbfd003e8	-1.6251192
45	0xbf12294b	-0.5709426
46	0x3f359d06	0.70942724
47	0xbceb83b0	-0.028749317
48	0xbf03f5ca	-0.5154692
49	0x3f0f5c79	0.5600048
50	0xbf14c0ea	-0.58106863
51	0xbf0c4728	-0.54796076
52	0x3ef96824	0.48712265
53	0x3f7336e8	0.95005655
54	0xbea40b04	-0.32039654
55	0x3f3ab5e9	0.7293382
56	0x3f137dc9	0.5761381
57	0xbd690d95	-0.05689772
58	0x3dd1399b	0.102160655
59	0xbdd5d37d	-0.10440729
60	0x3e9432b0	0.28944921
61	0x3e03b536	0.12862095
62	0xbd6b66c8	-0.057471067
63	0x3e3e6eeb	0.18597
64	0x3d334d9f	0.043775197
65	0xbd5e5fae	-0.054290466
66	0x3db914b5	0.09037153
67	0x3d93ecb4	0.07222882
68	0xbdbbda12	-0.09172453
69	0x3e268328	0.1626097
70	0x3de67ac5	0.11253885
71	0x3d28263f	0.0410521
72	0xbe5fbb4e	-0.21848795
73	0xbdd5a9f8	-0.104328096
74	0xbe7fcde6	-0.24980888
75	0xbf9b7e01	-1.2147828
76	0xbebcfb56	-0.36910504
77	0xbe8ecee3	-0.27892217
78	0xbe94dfe6	-0.2907707
79	0xbe9e62a7	-0.3093464
80	0x3e307189	0.1723081
81	0x3ebcfc67	0.36911318
82	0x3ece1aa1	0.4025469
83	0xbecfb58f	-0.40568206
84	0xbe87e896	-0.26544636
85	0x3ea5881b	0.32330403
86	0x3eb938be	0.36176103
87	0xbea0a47f	-0.313755
88	0x3eaa3b6a	0.33248454
89	0xbe8dd4be	-0.27701372
90	0xbe9d42b0	-0.3071494
91	0x3eaa4c3a	0.3326128
92	0x3ef48217	0.477555
93	0xbe930681	-0.287159
94	0x3ea08f40	0.3135929
95	0x3e3b7410	0.18305993
96	0xbe2ccd15	-0.16875108
97	0x3e5283d4	0.20558101
98	0xbd310986	-0.043221973
99	0x3e2fec83	0.17180066
100	0x3ebb1bd7	0.36544678
101	0x3bb455b1	0.0055033793
102	0x3b7a5dac	0.0038202805
103	0xbc62dc4d	-0.013846469
104	0x3c940029	0.018066483
105	0xbc8804aa	-0.016603786
106	0x3d76ef8b	0.06028704
107	0xbd520e8b	-0.0512834
108	0x3db1a283	0.08673575
109	0x3d56adb1	0.05241174
110	0xbd4b094f	-0.049569424
111	0xbd2e9f80	-0.04263258
112	0xbd079ce7	-0.033108618
113	0xbe22b1cc	-0.15888137
114	0xbee461b1	-0.44605783
115	0xbe244e7f	-0.16045569
116	0xbe5789da	-0.2104868
117	0xbe51b8e9	-0.20480694
118	0xbe78d2b8	-0.24299133
119	0xbf08733d	-0.5330084
120	0x3eec0f1f	0.46105286
121	0x3f977cae	1.1834924
122	0xbb2c8633	-0.0026325106
123	0xbe975088	-0.29553628
124	0x3e61e580	0.22060204
125	0x3dc3e7aa	0.09565671
126	0xbe3bb9bc	-0.18332571
127	0x3e7870ad	0.24261732
128	0x3d6dca77	0.058054414
129	0xbe4b8601	-0.19875337
130	0x3e50f74e	0.20406839
131	0x3e856171	0.26050904
132	0xbe86a14b	-0.26294932
133	0x3e84c802	0.25933844
134	0xbdc99f67	-0.09844857
135	0x3d740681	0.059576515
136	0x3cc499bf	0.023999093
137	0xbe3fe390	-0.18739152
138	0x3e109230	0.14118266
139	0x3d83b94f	0.06431829
140	0xbd6562f9	-0.05600259
141	0x3cf5b5e7	0.029993964
142	0xbba9575d	-0.005167885
143	0x3bd9a3fa	0.006641862
144	0x3ccd9f2f	0.025100319
145	0xbd2138be	-0.039360754
146	0xbc813b4a	-0.015775342
147	0xbd4cb26b	-0.04997484
148	0xbd54a175	-0.05191179
149	0xbd3efd77	-0.04662844
150	0x3e00176e	0.12508938
151	0xbcf2d727	-0.029643608
152	0xbf2ae401	-0.66754156
153	0xbeba510d	-0.36389962
154	0x3c3062b6	0.010765722
155	0x3ea6095f	0.32429025
156	0xbe6eeb2c	-0.23331898
157	0xbe8a90f0	-0.27063704
158	0xbd0554ee	-0.0325517
159	0x3e584e35	0.21123584
160	0x3dfca715	0.12336556
161	0xbe79d3c7	-0.24397193
162	0xbe8d0df3	-0.27549705
163	0x3e8e99e6	0.2785179
164	0x3c04445b	0.008072938
165	0xbe7f06d5	-0.2490495
166	0x3e87d857	0.26532242
167	0x3d949c5c	0.07256386
168	0xbe832a52	-0.25618225
169	0x3e90c2dc	0.28273666
170	0x3e20704c	0.15667838
171	0xbe8c9042	-0.2745381
172	0x3e88fa3b	0.2675341
173	0x3e08a185	0.13342865
174	0x3d1a3f47	0.037658002
175	0x3e2fda5c	0.17173141
176	0xbcee5500	-0.029093266
177	0x3d7b90b7	0.061417308
178	0x3e10996d	0.14121027
179	0x3ca7867e	0.020449873
180	0x3d034e7e	0.032057278
181	0x3d1fa26e	0.038973264
182	0x3b6dd276	0.0036288775
183	0x3c82ed5f	0.015982328
184	0x3d04db9e	0.032436006
185	0xbd9036d1	-0.070417054
186	0x3be6575b	0.0070294566
187	0xbd09cb26	-0.033641003
188	0x3d18ba4e	0.03728705
189	0xbc8d2c20	-0.017232955
190	0xbc741f42	-0.014900031
191	0xbd6bd3ac	-0.057574913
192	0xbdc432c7	-0.095799975
193	0xbd7e52de	-0.062090747
194	0xbc670fd0	-0.014102891
195	0xbe0773cc	-0.13227767
196	0xbec7380c	-0.38909948
197	0x400e7e6e	2.2264667
198	0x401ca052	2.4472852
199	0x40478e70	3.1180687
200	0x3f546b42	0.8297616
201	0xbc66c5bd	-0.01408523
202	0x3f07c2f7	0.5303187
203	0x3e550c18	0.20805395
204	0x3e92d5c8	0.28678727
205	0x3f2a2083	0.6645586
206	0x3ffc3d90	1.9706287
207	0xbd02b3b3	-0.031909656
208	0x3f2ba767	0.6705231
209	0xbfba5c6e	-1.4559457
210	0xbf7d48e0	-0.98939323
211	0x3ee4bec6	0.446768
212	0x3ef51f76	0.47875565
213	0xbeb6458f	-0.35599944
214	0x3b9322c4	0.0044902284
215	0x3ed889af	0.42292544
216	0x3eafca7d	0.34334174
217	0xbe0db023	-0.13836722
218	0xbce01986	-0.02735592
219	0x3d5e3641	0.05425096
220	0xbc0a3a02	-0.008436682
221	0x3e08ec20	0.13371325
222	0x3bcf5870	0.0063276812
223	0xbcbe462d	-0.023226822
224	0x3cabaa76	0.020955306
225	0x3d00b05a	0.031418182
226	0xbd06ff29	-0.032958183
227	0x3e064bd6	0.13114867
228	0x3c0e6336	0.008690646
229	0x3cdf86f3	0.027286028
230	0x3f2077da	0.6268288
231	0xbf476731	-0.7789183
232	0x3f25c6c3	0.6475641
233	0x3f4dc1ac	0.80373645
234	0xbe33445e	-0.17506549
235	0xbe475ffd	-0.1947021
236	0x3da7ade0	0.08187461
237	0x3df025d6	0.11725967
238	0x3d5b5576	0.0535483
239	0xbdaac2d3	-0.08337941
240	0xbe33232a	-0.17493883
241	0x3e393421	0.18086292
242	0x3ceafff1	0.028686495
243	0xbe446b9a	-0.19181672
244	0x3e1eca35	0.15506823
245	0xbdd3ae3e	-0.103359684
246	0xbe31fb6d	-0.17381068
247	0x3e259308	0.16169369
248	0x3e22923f	0.15876101
249	0xbe4a680b	-0.19766252
250	0x3e23a2da	0.15980092
251	0x3d9bf8e5	0.07615832
252	0xbd309bf8	-0.043117493
253	0x3da55ed0	0.08074725
254	0x3cd2df15	0.02574114
255	0x3dfdd58c	0.123942465

v_fcs.0.bias f4 [128]
0	0xbe68f16c	-0.22748345
1	0xbed0e96c	-0.40803087
2	0xbea122b3	-0.31471786
3	0xbe703ea2	-0.23461393
4	0xbe91f188	-0.28504586
5	0xbed684d0	-0.41898203
6	0xbe31f68f	-0.17379211
7	0xbedb859a	-0.42875367
8	0xbefed514	-0.4977194
9	0xbeebe3ce	-0.4607224
10	0xbe912457	-0.28348038
11	0xbed9ff34	-0.42577517
12	0x3e04925e	0.1294646
13	0xbec1a7a2	-0.37823206
14	0xbdf19f66	-0.11797981
15	0x3e15760d	0.14595814
16	0xbf059b22	-0.5218984
17	0xbf097137	-0.5368838
18	0xbeb5afb3	-0.3548561
19	0xbca52ba3	-0.02016241
20	0xbdc39843	-0.09550526
21	0x3f459f68	0.7719636
22	0xbe49f771	-0.19723298
23	0x3d49635b	0.04916702
24	0xbf1778a8	-0.5916848
25	0xbeabd832	-0.3356338
26	0xbf5d3c5b	-0.8642022
27	0xbece0db8	-0.40244842
28	0xbed25a66	-0.41084594
29	0xbeba0915	-0.36335054
30	0xbe91f219	-0.28505018
31	0xbe42002e	-0.18945381
32	0xbf0e4dc9	-0.5558744
33	0xbf56e68e	-0.8394555
34	0xbecaa80e	-0.3958134
35	0xbf499a46	-0.7875103
36	0xbf403c16	-0.75091684
37	0xbea5c412	-0.32376152
38	0x3e6b6c91	0.22990634
39	0x3e52c673	0.20583515
40	0xbeb82b4e	-0.3597054
41	0x3e37aa44	0.17936045
42	0xbe3dec8b	-0.18547265
43	0xbed5cc98	-0.41757655
44	0xbee6edf2	-0.45103413
45	0xbea888c2	-0.32916838
46	0xbea3f4bc	-0.32022655
47	0xbe812842	-0.25226027
48	0xbe35fa7d	-0.17771335
49	0xbf485e63	-0.7826902
50	0xbecafeca	-0.39647514
51	0xbf65fa61	-0.8983517
52	0xbed5243c	-0.41629207
53	0xbea10d62	-0.31455523
54	0xbdbbc908	-0.09169203
55	0xbe4e1d99	-0.20128478
56	0xbe6df85c	-0.23239273
57	0xbea8fcee	-0.3300547
58	0xbea7bf1a	-0.32762986
59	0xbe5d2ea5	-0.21599825
60	0xbea5be1e	-0.3237161
61	0xbe821c25	-0.25412098
62	0xbe244329	-0.16041245
63	0x3d2f5c91	0.042812888
64	0xbf38dd66	-0.7221283
65	0xbeb32c2b	-0.34994635
66	0xbe6973a7	-0.22798024
67	0xbf2d7264	-0.6775267
68	0xbe35f37b	-0.17768662
69	0xbea62cb3	-0.32455978
70	0x3eae12f6	0.3399884
71	0x3d011131	0.031510536
72	0xbf0cde7e	-0.55026996
73	0xbe97b341	-0.29628947
74	0xbe28101b	-0.16412394
75	0xbe805827	-0.25067255
76	0x3e9a7ea7	0.30174753
77	0x3cd7dc70	0.02635023
78	0xbead0a9d	-0.3379716
79	0x3d41b074	0.04728742
80	0xbe3416b0	-0.1758678
81	0xbe631e8f	-0.22179626
82	0x3f0805f1	0.53134066
83	0xbf364715	-0.7120221
84	0x3e090c3b	0.13383572
85	0xbeddf9f1	-0.43354753
86	0xbece8902	-0.40338904
87	0xbe0b3233	-0.13593368
88	0x3ea7f7a7	0.3280613
89	0xbecd0f2b	-0.40050635
90	0xbeb73ac0	-0.3578701
91	0xbe948fa5	-0.29015842
92	0xbf129aa8	-0.57267237
93	0xbdb8307a	-0.08993621
94	0xbe94db0d	-0.29073372
95	0xbdcc74ff	-0.09983253
96	0xbe6d2303	-0.23157887
97	0xbe1c0628	-0.15236723
98	0xbf371218	-0.71511984
99	0xbe7e7e4b	-0.24852864
100	0xbe983048	-0.29724336
101	0xbf47e70b	-0.7808692
102	0xbe7692cb	-0.24079435
103	0xbe63fb89	-0.22263922
104	0xbe940390	-0.28908968
105	0xbed9a243	-0.42506608
106	0xbea4c887	-0.3218424
107	0xbe4f2ce4	-0.20231968
108	0xbef1f372	-0.47256047
109	0xbe50c932	-0.2038925
110	0xbec8f1c9	-0.39246967
111	0x3e155f29	0.14587082
112	0xbf0e181a	-0.55505526
113	0xbe773b53	-0.24143724
114	0xbd9dcdb8	-0.07705253
115	0xbe341d6c	-0.17589349
116	0xbe6aaa8d	-0.22916622
117	0xbe550d9a	-0.2080597
118	0xbeac07b0	-0.33599615
119	0xbe4bdef2	-0.19909266
120	0xbecf005f	-0.4042997
121	0xbe8dc806	-0.27691668
122	0xbf0590ca	-0.52174056
123	0xbedc3aaa	-0.43013507
124	0x3e8f1512	0.27945763
125	0xbe9b715c	-0.30359924
126	0xbeb16fd4	-0.3465563
127	0xbd307b95	-0.043086607

v_fcs.1.weight f4 [128, 128]
0	0xbd00c0be	-0.031433813
1	0xbd24491b	-0.04010878
2	0xbd54e752	-0.051978417
3	0xbd4f989e	-0.050682656
4	0xbd92c516	-0.071664974
5	0xbd6f7801	-0.058464054
6	0xbd6a8e96	-0.057264887
7	0xbd701755	-0.058616
8	0xbd8766c5	-0.066113986
9	0xbd3ed83e	-0.046592943
10	0xbd3682d0	-0.044558346
11	0xbd59e0de	-0.053192966
12	0xbd859e77	-0.065243654
13	0xbd3f146a	-0.046650328
14	0xbd684a72	-0.05671162
15	0x3c08cbb6	0.00834935
16	0xbd477929	-0.04869953
17	0xbd3815cc	-0.044942662
18	0xbd443bf1	-0.047908727
19	0xbd40eb7a	-0.047099568
20	0xbd4f292c	-0.050576374
21	0xbd4f0010	-0.05053717
22	0xbd82717a	-0.063693
23	0xbd81b80a	-0.06333931
24	0xbd48915d	-0.048966754
25	0xbd738a26	-0.05945792
26	0xbd4af5ab	-0.049550693
27	0xbd8f00c6	-0.069825694
28	0xbd3c7e5f	-0.046018954
29	0xbd67b229	-0.05656639
30	0xbd13e1ff	-0.0361042
31	0xbd07226c	-0.03299181
32	0xbd23044a	-0.039799012
33	0xbd683c2b	-0.056698006
34	0xbd29ac30	-0.041423976
35	0xbd5e4d01	-0.054272655
36	0xbd32f46d	-0.043690134
37	0xbd5636df	-0.052298423
38	0xbd64860e	-0.055791907
39	0xbd75ff8b	-0.060058158
40	0xbd4ac053	-0.04949982
41	0xbd5295c6	-0.051412366
42	0xbd7d74f4	-0.061879113
43	0xbd21db8f	-0.039516028
44	0x3c4337dd	0.011915174
45	0xbd152593	-0.036412787
46	0xbc4106e6	-0.01178143
47	0xbc35f21f	-0.011105089
48	0xbd780c68	-0.060558707
49	0xbd627f84	-0.05529739
50	0xbd3ec030	-0.046570003
51	0xbd55dcd8	-0.052212566
52	0xbd829b5b	-0.06377288
53	0xbd89a4a3	-0.06720855
54	0xbd6510b7	-0.055924144
55	0xbd659ae8	-0.056055933
56	0xbcd1caa5	-0.025609324
57	0xbd4a68dc	-0.049416408
58	0xbd7cbfa7	-0.06170621
59	0xbd41ca22	-0.04731191
60	0xbd447e23	-0.047971856
61	0xbd80d4b3	-0.06290569
62	0xbca8c3ae	-0.02060112
63	0xbd45d17f	-0.048295494
64	0xbd6b2baf	-0.057414707
65	0xbd5bc91c	-0.05365859
66	0xbd836657	-0.06416004
67	0xbd15f126	-0.03660693
68	0xbd6884fe	-0.056767456
69	0xbd64e833	-0.055885505
70	0xbd540104	-0.05175878
71	0xbd3743ad	-0.044742275
72	0xbd46b9b5	-0.048516948
73	0xbd53200c	-0.051544234
74	0xbd451a02	-0.048120506
75	0xbd3d49cf	-0.046212967
76	0xbd354e23	-0.04426397
77	0xbd738c29	-0.05945984
78	0xbd4f1a12	-0.050561972
79	0xbcbec72c	-0.023288332
80	0xbd23e3e7	-0.040012266
81	0xbd81c41d	-0.06336234
82	0xbd6b5a48	-0.057459146
83	0xbd8dd7d2	-0.0692593
84	0xbd738829	-0.059456024
85	0xbd289d1a	-0.04116545
86	0xbd20775c	-0.03917633
87	0xbd7199b5	-0.058984477
88	0xbd70da5a	-0.058801986
89	0xbd3f7822	-0.046745427
90	0xbd4d528a	-0.050127544
91	0xbd63ad40	-0.055585146
92	0xbd5f0b05	-0.05445387
93	0xbc20ad0f	-0.009806885
94	0xbd6afa0a	-0.057367362
95	0xbd65200f	-0.055938777
96	0xbd72d824	-0.05928816
97	0xbd5be083	-0.053680908
98	0xbd21601b	-0.039398294
99	0xbd8d808b	-0.06909283
100	0xbd6de0b0	-0.058075607
101	0xbd541289	-0.05177549
102	0xbd83e6e5	-0.06440524
103	0xbca4cb1a	-0.020116378
104	0xbcc902ee	-0.02453753
105	0xbd55e7ae	-0.0522229
106	0xbd4516cb	-0.04811744
107	0xbd4a8f24	-0.049452916
108	0xbd5d5e20	-0.054044843
109	0xbd9163f5	-0.070991434
110	0xbd70ed83	-0.05882026
111	0xbd3555af	-0.044271167
112	0xbd40671e	-0.04697334
113	0xbd50d337	-0.05098268
114	0xbd547609	-0.05187038
115	0xbd8bea6d	-0.068318225
116	0xbd38f86f	-0.0451588
117	0xbd6423d1	-0.05569822
118	0xbd859a4d	-0.06523571
119	0xbc1caf70	-0.009563312
120	0xbd5b0e17	-0.053480234
121	0xbd68d175	-0.05684038
122	0x3b706691	0.0036682228
123	0xbd222f02	-0.03959561
124	0xbd7ede1d	-0.062223542
125	0xbd2a13cd	-0.04152279
126	0xbccd8000	-0.02508545
127	0xbd5f7914	-0.05455883
128	0xbd4e37d2	-0.050346203
129	0xbd9ed738	-0.077558935
130	0xbd64ec5b	-0.05588947
131	0xbd82ad51	-0.06380714
132	0xbd8f8dce	-0.07009469
133	0xbd69032b	-0.056887787
134	0xbd564e09	-0.052320514
135	0xbd7a5e5e	-0.06112515
136	0xbd5afd55	-0.053464253
137	0xbd461a9b	-0.048365217
138	0xbd61e34b	-0.055148404
139	0xbd7e0ea1	-0.06202567
140	0xbd5e6957	-0.05429968
141	0xbd936089	-0.07196147
142	0xbd37b4e3	-0.04485024
143	0xbd44ae2f	-0.048017677
144	0xbd5ebc00	-0.05437851
145	0xbd7c91c6	-0.061662458
146	0xbd4c6eae	-0.04991024
147	0xbd6a8018	-0.057251066
148	0xbd2473a4	-0.040149346
149	0xbd688de9	-0.05677596
150	0xbd66cf71	-0.056350175
151	0xbd88e5eb	-0.06684478
152	0xbd4da343	-0.050204527
153	0xbd8152a2	-0.06314589
154	0xbd3c6af6	-0.046000443
155	0xbd834e25	-0.06411389
156	0xbd6c90cc	-0.057755277
157	0xbd5dd81a	-0.05416117
158	0xbd644fed	-0.055740286
159	0xbd81a18b	-0.0632964
160	0xbd752868	-0.059852988
161	0xbd73ff4a	-0.059569634
162	0xbd613c4f	-0.054989155
163	0xbd4ec9c8	-0.050485402
164	0xbd9bb925	-0.07603673
165	0xbd4e4adc	-0.05036436
166	0xbd7bf495	-0.06151255
167	0xbd6e4faf	-0.05818146
168	0xbd61b251	-0.055101696
169	0xbd486f24	-0.048934117
170	0xbd7c557b	-0.061604958
171	0xbd6c86a6	-0.0577456
172	0xbd5e40f4	-0.054261163
173	0xbd92e1f9	-0.07172007
174	0xbd8045a2	-0.062632814
175	0xbd5214fe	-0.05128955
176	0xbd72a7ba	-0.059241988
177	0xbd517621	-0.051138047
178	0xbd9c20c3	-0.07623436
179	0xbd3e0f98	-0.04640159
180	0xbd72df35	-0.059294898
181	0xbd392c66	-0.045208357
182	0xbd7f5473	-0.062336396
183	0xbd689e87	-0.05679181
184	0xbd694266	-0.056948088
185	0xbda72846	-0.081619784
186	0xbd9bc693	-0.076062344
187	0xbd59e44d	-0.05319624
188	0xbd23dcd1	-0.04000551
189	0xbd647a5b	-0.05578075
190	0xbd5efe3d	-0.05444168
191	0xbd650969	-0.055917177
192	0xbd422c29	-0.047405396
193	0xbd3d616d	-0.04623549
194	0xbd4fb5cb	-0.05071048
195	0xbd5f8c7a	-0.05457733
196	0xbd44fa63	-0.04809035
197	0xbd72f9e8	-0.05932036
198	0xbd6db395	-0.05803259
199	0xbd424a42	-0.0474341
200	0xbd92f181	-0.071749695
201	0xbd62efe0	-0.055404544
202	0xbd6638e2	-0.05620659
203	0xbd8495ca	-0.064738825
204	0xbd75e569	-0.060033236
205	0xbd3e80ea	-0.04650966
206	0xbd644f9b	-0.05573998
207	0xbd5bf53b	-0.053700667
208	0xbda3ebd3	-0.08003964
209	0xbd63ecc4	-0.05564572
210	0xbd7d86ae	-0.06189602
211	0xbd775ff1	-0.06039423
212	0xbd97836c	-0.073981136
213	0xbd7ddf82	-0.06198073
214	0xbd81aa39	-0.063312955
215	0xbd9c1335	-0.07620851
216	0xbd89384c	-0.06700191
217	0xbd891c68	-0.06694871
218	0xbd5fa4f0	-0.054600656
219	0xbd9a184f	-0.07524168
220	0xbd79691f	-0.060891267
221	0xbd513172	-0.051072545
222	0xbd7af3e4	-0.06126775
223	0xbd886597	-0.06660002
224	0xbd2d3da1	-0.042295102
225	0xbd478810	-0.048713744
226	0xbd63f05d	-0.05564915
227	0xbd263dd4	-0.040586308
228	0xbd7cec62	-0.06174887
229	0xbd758c66	-0.059948348
230	0xbd48c3a6	-0.04901471
231	0xbd6e535e	-0.058184974
232	0xbd6639f3	-0.05620761
233	0xbd90435b	-0.07044097
234	0xbd3a3fe5	-0.04547109
235	0xbd728167	-0.05920544
236	0xbd6b0757	-0.057380047
237	0xbd84e830	-0.06489599
238	0xbd59737c	-0.05308865
239	0xbd88a88d	-0.066727735
240	0xbd8e275a	-0.069410995
241	0xbd7eedb7	-0.06223842
242	0xbd5d477d	-0.054023255
243	0xbd8c01e4	-0.06836298
244	0xbd4212fe	-0.047381394
245	0xbd85ddb8	-0.0653643
246	0xbd857b2d	-0.065176345
247	0xbd3cdd6d	-0.046109606
248	0xbd6eebc5	-0.058330316
249	0xbd815dd3	-0.06316724
250	0xbd7f7028	-0.06236282
251	0xbd99996a	-0.074999645
252	0xbd8f7886	-0.0700541
253	0xbd7ae15d	-0.06125008
254	0xbd821fd6	-0.063537285
255	0xbd53bbd0	-0.051692784

v_fcs.1.bias f4 [128]
0	0xbd88de25	-0.06682996
1	0xbd711a57	-0.05886301
2	0xbbe824c3	-0.0070844605
3	0xbdb6acf2	-0.089197055
4	0x3d8a59aa	0.06755383
5	0xbe238f89	-0.15972723
6	0xbd8c8a3d	-0.06862304
7	0xbd5f1123	-0.054459702
8	0xbd895b62	-0.06706883
9	0x3f425609	0.7591253
10	0xbd404d45	-0.04694869
11	0xbd4eea38	-0.050516337
12	0xbd547f9e	-0.051879518
13	0xbd9d5db0	-0.07683885
14	0x3d910d41	0.07082606
15	0xbf02dbb4	-0.5111649
16	0x3e29426c	0.16529244
17	0xbd8ecaa1	-0.06972242
18	0xbd960b01	-0.073263176
19	0xbd610bac	-0.05494277
20	0xbd50c22b	-0.050966423
21	0xbd4686b9	-0.048468325
22	0xbd93054d	-0.071787454
23	0xbe9adf91	-0.30248693
24	0xbd64214d	-0.05569582
25	0xbd7f28b9	-0.062294696
26	0xbd48c906	-0.049019836
27	0xbc68a335	-0.014199068
28	0xbd849e70	-0.06475532
29	0xbd60557a	-0.054769017
30	0xbd3136c7	-0.04326513
31	0xbda877bb	-0.08225962
32	0xbbef15d8	-0.007296305
33	0xbcdf57ff	-0.02726364
34	0xbd77b680	-0.06047678
35	0xbd7cb74a	-0.061698236
36	0xbd6e58ec	-0.05819027
37	0x3f61fd62	0.88277256
38	0xbba3a7b4	-0.004994357
39	0xbd670eae	-0.056410484
40	0xbd9758d5	-0.0738999
41	0xbd7de5b2	-0.061986633
42	0xbd600556	-0.05469259
43	0xbd5bbbbd	-0.053645838
44	0xbd183b5f	-0.037165996
45	0xbd3aca17	-0.045602884
46	0xbd9cecf3	-0.07662382
47	0xbd50412f	-0.050843414
48	0xbbd5a1ce	-0.0065195328
49	0xbd9339d5	-0.07188765
50	0xbd977897	-0.073960476
51	0xbead0189	-0.33790234
52	0xba93fd48	-0.0011290694
53	0xbd6a6262	-0.05722273
54	0xbd6ef5a4	-0.05833973
55	0xbd802e12	-0.06258787
56	0xbd4c5eef	-0.049895223
57	0x3ec02521	0.37528327
58	0xbc2360aa	-0.009971777
59	0xbcb5c31b	-0.02218776
60	0xbc89d1ec	-0.016823731
61	0xbd807615	-0.06272522
62	0xbd84e81f	-0.06489586
63	0xbd108d87	-0.03529122
64	0xbd78cc55	-0.06074174
65	0xbd86e980	-0.06587505
66	0xbbafd59b	-0.00536604
67	0xbd6f1ef0	-0.058379114
68	0xbc00ad55	-0.007853826
69	0xbd6bb611	-0.05754668
70	0x3f5c6221	0.8608723
71	0x3f5e37a8	0.86803675
72	0xbeceee14	-0.40416014
73	0xbd8b99b0	-0.06816423
74	0xbd307191	-0.043077055
75	0xbd60c644	-0.05487658
76	0xbee728e1	-0.45148376
77	0xbd5e468f	-0.05426651
78	0xbc4e72e9	-0.012600639
79	0x3f569136	0.83815324
80	0xbc610f4d	-0.013736558
81	0xbc4f9af3	-0.01267122
82	0xbb68942f	-0.0035488715
83	0xbe00f1ab	-0.12592189
84	0xbd8a8dca	-0.06765325
85	0xbf5a34e0	-0.8523693
86	0xbd5c804f	-0.053833302
87	0xbe32ffc9	-0.17480387
88	0xbda3d473	-0.07999506
89	0xbd2e7685	-0.042593498
90	0xbdc55b29	-0.09636528
91	0xbd7a2df9	-0.061079
92	0xbca2ccdf	-0.01987308
93	0x3f93cea3	1.1547436
94	0xbd86e8a8	-0.065873444
95	0xbc5d7bd4	-0.013518292
96	0xbd815d3a	-0.0631661
97	0xbf05cefe	-0.5226897
98	0xbd559648	-0.052145272
99	0xbd61e60b	-0.055151027
100	0xbd84de54	-0.06487718
101	0xbd3e014b	-0.04638795
102	0xbccf1ee8	-0.025283292
103	0xbd8b0287	-0.067875914
104	0xbd24439b	-0.040103536
105	0xbd677586	-0.056508563
106	0xbf05ae66	-0.52219236
107	0x3f6e7dfd	0.9316099
108	0xbd4ba280	-0.04971552
109	0xbd971d8e	-0.07378684
110	0xbd8887d9	-0.06666536
111	0xbd645a8a	-0.055750407
112	0xbd7c4582	-0.061589725
113	0xbd401888	-0.046898395
114	0xbc10bb27	-0.008833683
115	0xbd728606	-0.059209846
116	0xbd6be368	-0.05758992
117	0x3f0ee902	0.5582429
118	0xbb0a6db7	-0.0021122524
119	0xbd4c0587	-0.04980996
120	0xbd671d6c	-0.056424543
121	0xbd9c5bdc	-0.07634708
122	0xbc91c109	-0.017792242
123	0xbd4c2275	-0.04983755
124	0xbd9b6e7d	-0.07589433
125	0x3f1c3eb9	0.6103321
126	0x3e5c2a86	0.21500596
127	0xbd869f5d	-0.06573365

mu.weight f4 [12, 128]
0	0x3bfcf4de	0.00771962
1	0xbd88255c	-0.06647751
2	0xbd9565ac	-0.07294783
3	0x3d4d85e4	0.050176516
4	0xbdad0f37	-0.084501676
5	0xbd172cea	-0.036908068
6	0xbaf2e6e4	-0.0018531946
7	0xbcf116c4	-0.0294298
8	0xbd8b9e93	-0.06817355
9	0x3ddd6790	0.108107686
10	0xbcaa049d	-0.020754153
11	0xbc902e13	-0.017600095
12	0xbcdcea18	-0.026967093
13	0x3c0140a1	0.007888944
14	0x3a6d60d6	0.0009055262
15	0x3da5b8dd	0.080919005
16	0xbd83a086	-0.06427102
17	0xbe267155	-0.1625417
18	0xbe33b4ae	-0.17549393
19	0xbe0ec811	-0.13943507
20	0xbd3e81fc	-0.04651068
21	0xbb268211	-0.0025407115
22	0x3ddc7c85	0.10765938
23	0x3c9a2739	0.018817531
24	0x3ce1e6cd	0.027575875
25	0x3ceb3be4	0.028715082
26	0xbe09f826	-0.13473567
27	0x3d91918b	0.07107838
28	0xbe448c32	-0.19194105
29	0x3ca3c73d	0.019992465
30	0x3e3df3b9	0.18550004
31	0x3da3847e	0.07984255
32	0x3b498348	0.0030748416
33	0x3d745416	0.059650503
34	0xbd82f02e	-0.06393467
35	0xbe3eacac	-0.18620557
36	0x3d81d345	0.063391246
37	0xbe04e624	-0.12978417
38	0x3d99082e	0.07472263
39	0xbda0cecb	-0.07851943
40	0x3c9f61cd	0.019455815
41	0x3cb114f7	0.021616442
42	0xbd16d5d5	-0.03682502
43	0xbd1fea2b	-0.03904168
44	0xbd21c25d	-0.039492
45	0x3cdf0c2b	0.027227482
46	0xbda6f5cd	-0.081523515
47	0x3da38af3	0.07985487
48	0xbd562baf	-0.052287754
49	0xbd3baf36	-0.04582139
50	0xbb420835	-0.0029606943
51	0x3c47bc07	0.012190825
52	0x3d63e785	0.055640716
53	0x3d3dde06	0.046354316
54	0xbdae078e	-0.08497535
55	0x3decb724	0.11558369
56	0x3c0eb605	0.008710389
57	0xbbefbb98	-0.007316064
58	0x3d0b3ae4	0.03399171
59	0xbb1873eb	-0.0023262452
60	0x3b478792	0.0030445796
61	0xbdbd0dcc	-0.09231147
62	0x3dce021d	0.10058997
63	0x3c7e0d25	0.015506064
64	0x3b47fd13	0.0030515834
65	0x3e48c7b9	0.19607438
66	0xbc0df8c8	-0.008665271
67	0x3ba02b51	0.004887976
68	0x3dcb528e	0.099278554
69	0x3db76bab	0.08956083
70	0x3c146eaa	0.0090595875
71	0xbcac26ad	-0.021014536
72	0xbd46572c	-0.048422977
73	0xbe5bbef4	-0.21459562
74	0x3acfbf30	0.0015849825
75	0xbb2e3060	-0.0026579127
76	0x3ceafc17	0.028684659
77	0xbbe49ad0	-0.006976463
78	0xbd8385ac	-0.0642198
79	0x3e23f200	0.16010284
80	0xbada485b	-0.0016653644
81	0x3e058bee	0.1304166
82	0xbe18be1f	-0.14916275
83	0x3daa79af	0.083239906
84	0x3994c708	0.0002837705
85	0x3d1763d8	0.036960453
86	0x3c967fad	0.018371427
87	0xbda80b0f	-0.08205234
88	0xbcb62a0f	-0.022236852
89	0x3e2e4b53	0.17020921
90	0x3c979d0b	0.018507501
91	0xbd21bbea	-0.03948585
92	0x3c0764c0	0.008263767
93	0xbd9b1cc9	-0.0757385
94	0xbc6e0f52	-0.01453002
95	0xba1e22be	-0.00060323987
96	0x3bc04090	0.0058670714
97	0xbd34bba0	-0.044124246
98	0xb8e8a67e	-0.00011093634
99	0x3e1a3734	0.15060121
100	0x3e2345a0	0.15944529
101	0x3dde3dd3	0.10851636
102	0xbdbbc26f	-0.09167945
103	0xb99cb116	-0.00029886578
104	0x3bbda766	0.0057877777
105	0xbd67903c	-0.056534037
106	0xbd433dd7	-0.047666397
107	0x3df9a9b5	0.12190572
108	0x3d832f4d	0.06405506
109	0x3dfc1c8d	0.12310133
110	0x3d205fef	0.03915399
111	0x3c1b66c8	0.009484954
112	0x3da1af7f	0.07894801
113	0xbcf9c75a	-0.030490566
114	0x3d118034	0.035522655
115	0x3d452856	0.04813417
116	0xbd7360f7	-0.059418645
117	0x3c780122	0.015136989
118	0xbe08585f	-0.13314961
119	0x3d86beb9	0.06579346
120	0xbccf68b7	-0.025318487
121	0x3dc22c96	0.0948116
122	0x3dd723d5	0.10504881
123	0xbc810f2a	-0.015754301
124	0xbae7bcd2	-0.0017680174
125	0x3b6f40ee	0.0036507207
126	0x3b214cd5	0.0024612446
127	0xbd56b74e	-0.052420907
128	0x3b4ae5e5	0.0030959782
129	0x3d09f6e4	0.03368272
130	0x3cf795cb	0.030222794
131	0x3bf8fa0e	0.007598168
132	0x3d5258ca	0.051354207
133	0xbd1e8674	-0.038702443
134	0x3e1c86b9	0.15285768
135	0xbe1d569b	-0.15365069
136	0x3c09ca1d	0.008410004
137	0x3ae8b2a3	0.0017753433
138	0x3d13b8ea	0.03606502
139	0xbd9de13e	-0.07708977
140	0x3e048795	0.12942345
141	0x3dfece9a	0.1244175
142	0xbb6ae6aa	-0.0035843053
143	0xbd9c0365	-0.07617835
144	0x3d7e9895	0.062157232
145	0xbd8ff50c	-0.07029161
146	0x3d5f8529	0.05457035
147	0xbcdfdca8	-0.027326897
148	0x3d87c846	0.06629996
149	0x3c46db7a	0.012137288
150	0xbd00cc3d	-0.031444777
151	0x3e0a2105	0.13489158
152	0xbd92dbde	-0.071708426
153	0x3d4b4ecc	0.049635693
154	0x3c7affe0	0.015319794
155	0x3da099eb	0.078418575
156	0x3da29940	0.07939386
157	0xbd0dc5ed	-0.034612585
158	0xbd7f198c	-0.062280223
159	0x3c69cb6e	0.014269693
160	0xbbf75c86	-0.0075488715
161	0x3d89e7ec	0.06733689
162	0x3dc340bb	0.09533831
163	0x3d3d5fe3	0.046234023
164	0xbd830e03	-0.06399157
165	0x3d9cb919	0.07652492
166	0x3cd812e8	0.026376203
167	0xbd8dff93	-0.069335125
168	0x3d09a39c	0.033603296
169	0x3d67fafc	0.05663584
170	0x3e253c7b	0.16136353
171	0xbccb1da7	-0.024794413
172	0xbd75a4cd	-0.05997162
173	0xbd8f121e	-0.069858775
174	0xbcfb0b99	-0.030645179
175	0x3d87a6ae	0.066235885
176	0xbb24d85f	-0.0025153381
177	0xbd960ad0	-0.07326281
178	0x3e17c31a	0.14820519
179	0x3dcf26fc	0.101148576
180	0x3c08b6c3	0.008344355
181	0x3d9655b8	0.07340568
182	0xbe185bc2	-0.14878753
183	0xbdd9468a	-0.106091574
184	0x3c00f801	0.007871629
185	0xbb90cd40	-0.004418999
186	0xbcebe55c	-0.02879589
187	0x3c6d7353	0.0144928275
188	0xbd8614d9	-0.06546945
189	0xbdde93cd	-0.108680345
190	0x3e06e4a4	0.13173157
191	0xbc16f722	-0.0092141945
192	0x3b4d3e47	0.0031317638
193	0x3db1d533	0.08683243
194	0xbc3d1ecf	-0.01154299
195	0xbabed127	-0.0014558182
196	0xbdfb7a76	-0.12279217
197	0xbd97b585	-0.07407669
198	0x3da7e2b0	0.08197534
199	0x3b8584c9	0.004074667
200	0x3d8a421d	0.06750891
201	0xbe153c97	-0.14573894
202	0xbb40a44e	-0.0029394808
203	0xbe0498da	-0.12948933
204	0x3d9e2bed	0.07723222
205	0xbbe8b208	-0.007101301
206	0xbc434c25	-0.01192001
207	0xbdb8674d	-0.09004078
208	0xbd36691b	-0.04453383
209	0x3d97acd5	0.07406012
210	0x3c3b49e4	0.011431191
211	0x3d16a58e	0.03677898
212	0x3c56de73	0.013114559
213	0x3d617513	0.05504329
214	0xbd55e7b6	-0.05222293
215	0xbd1be25a	-0.038057663
216	0xbdec4e18	-0.11538333
217	0xbd671ad3	-0.056422066
218	0xbd0a201c	-0.033722028
219	0xbe1c5b2a	-0.15269151
220	0xbc5e595a	-0.013571108
221	0x3e0161bc	0.12634939
222	0x3d267c99	0.04064617
223	0xbc417d32	-0.011809634
224	0xbd974b61	-0.07387424
225	0xbdc8c03b	-0.0980229
226	0xbc8f6975	-0.01750634
227	0x3c32fda9	0.010924735
228	0xbd895757	-0.06706112
229	0xbc8de424	-0.0173207
230	0x3d7e58d8	0.062096447
231	0xba0bdc1c	-0.0005335228
232	0xbc3c7ae8	-0.0115039125
233	0x3e0d8379	0.13819684
234	0x3df46634	0.11933556
235	0xbe4a5bd4	-0.19761592
236	0xbe4b2527	-0.19838391
237	0x3d200500	0.03906727
238	0xbcf5a7cc	-0.029987238
239	0x3db46343	0.08807995
240	0xbc8c61a3	-0.0171364
241	0x3cc65f9c	0.024215512
242	0xbe3c3c1a	-0.18382302
243	0x3cf74678	0.03018497
244	0x3d02869d	0.03186666
245	0xbcfe3c69	-0.031034665
246	0x3cbcaaa5	0.023030588
247	0xbde48f87	-0.11160188
248	0xbe4ebf30	-0.2019012
249	0xbe56f138	-0.20990455
250	0xbe1ecbe9	-0.15507473
251	0xbcdc2e97	-0.026877685
252	0x3b4adc0b	0.003095391
253	0x3c325e29	0.010886707
254	0xbb7c08d4	-0.003845741
255	0x3da5c043	0.08093312

mu.bias f4 [12]
0	0xbb98f6db	-0.0046680993
1	0xbd04b9e8	-0.032403857
2	0x3d8bd773	0.06828203
3	0x3c966d9e	0.018362816
4	0xbc31a3ed	-0.010842306
5	0x3c44dd52	0.0120156575
6	0xbcdf03a6	-0.02722342
7	0x3cb3b252	0.021935616
8	0x3c72a1d6	0.0148090925
9	0xbcc8606c	-0.02446004
10	0x3bfaeed4	0.007657865
11	0x3d3eeabb	0.046610575
