stats/test/iter2999.pt (torch, 183486 bytes, 12 tensors)

log_std f4 [12]
0	0x00000000	0.0
1	0x00000000	0.0
2	0x00000000	0.0
3	0x00000000	0.0
4	0x00000000	0.0
5	0x00000000	0.0
6	0x00000000	0.0
7	0x00000000	0.0
8	0x00000000	0.0
9	0x00000000	0.0
10	0x00000000	0.0
11	0x00000000	0.0

p_fcs.0.weight f4 [128, 39]
0	0x3b8f7c84	0.004378857
1	0x3c22bd22	0.009932788
2	0xbf411f55	-0.75438434
3	0x3d27d3c9	0.04097346
4	0x3f3d217a	0.73879206
5	0x3dad67c2	0.08467056
6	0xbcada390	-0.021196157
7	0xbd13688f	-0.035988387
8	0xbeddb6e2	-0.4330359
9	0x3daf0076	0.0854501
10	0x3d2c75e9	0.042104635
11	0xbce5418a	-0.027985353
12	0xbb30ba18	-0.002696639
13	0x3c99faa8	0.01879628
14	0xbd097326	-0.03355708
15	0xbc74ce5b	-0.014941777
16	0xbc442f83	-0.011974218
17	0x3d8a8513	0.06763663
18	0x3ecaca8e	0.39607662
19	0x3e24c3ff	0.16090392
20	0xbc55c604	-0.013047699
21	0xbc79b3b7	-0.015240601
22	0x3e82018c	0.25391805
23	0x3d82c8f0	0.06385982
24	0x3c88bf04	0.016692646
25	0xbccda6f5	-0.025104025
26	0xbd347dc1	-0.04406524
27	0x3cb61f8d	0.022231841
28	0xbbebb7b1	-0.0071935286
29	0xbd43dbe3	-0.047817122
30	0xbc9f8fc8	-0.01947774
31	0x3d06419e	0.03277742
32	0xbb56267e	-0.0032676752
33	0xbcbf75e5	-0.023371646
34	0x3b9c2a4c	0.0047657844
35	0xbe52ae5f	-0.2057433
36	0x3c373e1d	0.011184243
37	0x3ea1620d	0.3152012
38	0x3d8d8941	0.06910945
39	0x3d30cb64	0.04316272
40	0x3d135de8	0.035978228
41	0xbf257eee	-0.64646804
42	0xbd19d655	-0.03755792
43	0xbdff4232	-0.12463798
44	0xbe90e2d3	-0.28298053
45	0x3dc35a1d	0.09538672
46	0x3c5cf7d8	0.013486825
47	0xbeaff640	-0.3436756
48	0x3d4a3885	0.049370307
49	0xbd47882a	-0.04871384
50	0x3ae8061b	0.0017702015
51	0x3b2105fd	0.002457022
52	0x3cc4d1ba	0.024025787
53	0xbea08c8c	-0.3135723
54	0x3da90482	0.08252813
55	0xbcdd17f1	-0.026988955
56	0x3ddd8743	0.10816815
57	0x3e87f2ea	0.26552516
58	0xbe2c2b9b	-0.16813509
59	0x3ca39b76	0.01997159
60	0xbe3ce79f	-0.18447731
61	0xbdc9a5bf	-0.09846067
62	0xbcc6a40f	-0.024248151
63	0x3cfc0bd9	0.030767368
64	0x3c438ceb	0.011935453
65	0xbb9ff9f2	-0.0048820907
66	0x3d56e267	0.052462008
67	0xbb165d12	-0.0022943658
68	0x3c6f3b30	0.014601514
69	0x3d08857c	0.033330426
70	0xbc70214f	-0.014656379
71	0xbc684c0c	-0.014178287
72	0x3a3ca502	0.0007196219
73	0xbb1994ea	-0.0023434707
74	0xbd61774b	-0.055045407
75	0xbd99d168	-0.07510644
76	0x3e88aa1f	0.26692292
77	0x3d867c14	0.06566635
78	0xbce8df37	-0.02842675
79	0xbd35b044	-0.044357553
80	0xbebe148f	-0.3712506
81	0xbd3eb505	-0.046559352
82	0x3e332e90	0.17498231
83	0x3dd2ea9a	0.10298653
84	0xbdf26a49	-0.118366785
85	0x3d43744b	0.047718327
86	0x3c26b435	0.010174801
87	0xbdea015e	-0.11426042
88	0x3d4fc3b7	0.050723758
89	0xbe9cf790	-0.30657625
90	0xbd86b7de	-0.06578039
91	0x3d23bbae	0.039973907
92	0xbe07f384	-0.13276488
93	0xbe1c130a	-0.15241638
94	0x3c811835	0.015758613
95	0xbe00cc12	-0.12577847
96	0x3e2e8f76	0.17046914
97	0xbd3ffcd7	-0.046871986
98	0xbdea5be0	-0.11443305
99	0x399182eb	0.00027754097
100	0x3d92ea95	0.07173649
101	0x3d723e3a	0.059141375
102	0xbd0257fb	-0.031822186
103	0xbd3118c0	-0.043236494
104	0xbd38cfe0	-0.04512012
105	0xbdc5c852	-0.09657349
106	0x3b82016e	0.0039674556
107	0xbdb9bb06	-0.09068875
108	0xbd496d2c	-0.04917638
109	0x3d23626f	0.039888795
110	0xbb27df1b	-0.002561516
111	0xbdb7ca5a	-0.089741424
112	0xbc27c9f6	-0.010241022
113	0x3e20236c	0.15638512
114	0x3d4c14f5	0.049824674
115	0xbc95fec2	-0.018309955
116	0xbd84c7d5	-0.064834274
117	0x3bd92d08	0.0066276826
118	0x3b270a0a	0.0025488161
119	0x3eb6d26d	0.35707417
120	0xbecbb933	-0.39789733
121	0x3e4af06d	0.19818278
122	0xbd448f9e	-0.047988527
123	0xbdb50a88	-0.08839899
124	0x3ab8ee07	0.0014109024
125	0x3df4be00	0.11950302
126	0x3becbb39	0.007224467
127	0xbc866b91	-0.016408714
128	0xbeb01cef	-0.34397075
129	0x3bde192e	0.006777904
130	0xbcb1faea	-0.02172609
131	0x3d62eaee	0.055399828
132	0xbcd3f965	-0.025875757
133	0xbd8331e5	-0.06406001
134	0xbe92cb1b	-0.28670582
135	0xbdcb99f8	-0.099414766
136	0xbeb9a7e2	-0.36260897
137	0x3d58ae62	0.05290068
138	0x3cf7956c	0.030222617
139	0x3e1c8d9e	0.15288398
140	0x3c264c82	0.010150077
141	0x3c72621b	0.014793898
142	0x3c84da21	0.016217293
143	0x3cf7efe0	0.030265749
144	0x3cf5b831	0.029995056
145	0xba5afcdc	-0.0008353719
146	0xbd3d16e4	-0.04616441
147	0xbbe431d3	-0.0069639473
148	0x3c7218be	0.014776407
149	0x3cc3678d	0.023853088
150	0x3cf96aed	0.030446494
151	0x3c2a0441	0.010376991
152	0x3e4daab4	0.2008465
153	0xbe96cf68	-0.29455113
154	0x3dbf2dbb	0.09334894
155	0xbe9bdbd3	-0.3044115
156	0xbdb3acde	-0.08773206
157	0xbd2e291b	-0.04251967
158	0x3ef75f32	0.48314816
159	0xbe459546	-0.19295225
160	0x3f3f82f7	0.7480921
161	0xbddca859	-0.10774297
162	0xbdc0f6b2	-0.094220534
163	0xbc76029e	-0.015015272
164	0xbed2aab2	-0.41145855
165	0x3c8a7f79	0.016906487
166	0x3cd1edf9	0.02562617
167	0x3ea0681b	0.31329426
168	0xbd7f98db	-0.062401634
169	0x3af1e824	0.0018456024
170	0xbdbbb35c	-0.091650695
171	0xbc5111d5	-0.012760599
172	0x3d1d59a1	0.038415555
173	0xbd800535	-0.06250993
174	0xbe961bc6	-0.29318064
175	0xbe787550	-0.24263501
176	0xbd3250b6	-0.043534003
177	0x3d371de2	0.044706233
178	0x3ebf8497	0.37405846
179	0x3d048ca6	0.032360695
180	0x3c79cdc3	0.015246811
181	0xbc09e5cd	-0.008416605
182	0xbd4628be	-0.0483787
183	0x3c0550d9	0.008136951
184	0xbcb0ec2c	-0.02159699
185	0x3d49787f	0.04918718
186	0x3c630e24	0.013858352
187	0x3d09f393	0.033679556
188	0xbd37374e	-0.044730477
189	0x3dbab8a1	0.091172464
190	0x3aa20f99	0.0012364268
191	0xbe004b1b	-0.1252865
192	0x3e0c579b	0.13705294
193	0x3e81f4f9	0.25382212
194	0xbdd8b69d	-0.10581706
195	0x3cc34250	0.023835331
196	0x3cdc6086	0.026901495
197	0xbf23c8bb	-0.63978165
198	0x3ed612da	0.41811258
199	0xbf41b246	-0.7566265
200	0xbce73ae7	-0.028226329
201	0x3db2d5ac	0.08732161
202	0x3cceb262	0.025231544
203	0x3d709b78	0.058742017
204	0x3e019739	0.12655343
205	0xbae5617f	-0.001750037
206	0x3cf71e16	0.030165713
207	0x3d3c2a6b	0.04593889
208	0x3d278375	0.04089685
209	0xbe246178	-0.16052806
210	0x3da04a31	0.07826651
211	0x3c542e72	0.012950527
212	0x3edbf196	0.42957753
213	0x3e977bb9	0.2958658
214	0xbcd09280	-0.025460482
215	0x3d1ed1ee	0.038774423
216	0x3e1c464b	0.1526119
217	0xbedc7319	-0.43056563
218	0xbc5e6b33	-0.013575363
219	0xbaaf97f7	-0.001339673
220	0xbc92768d	-0.017878795
221	0x3c71de47	0.014762468
222	0x3d327023	0.043563973
223	0x3caf05ea	0.021365125
224	0xbc726528	-0.014794625
225	0xbd06a1f8	-0.03286931
226	0xbc8222ea	-0.015885789
227	0xbd01bf0a	-0.03167633
228	0x3cf61e9a	0.030043889
229	0xbc5acc2d	-0.013354343
230	0xbdf1f986	-0.11815171
231	0x3c8cc77e	0.017184969
232	0x3d92ba49	0.07164437
233	0x3d76d12a	0.06025807
234	0x3bf6c8a7	0.007531244
235	0x3cc57213	0.024102246
236	0xbeb62c4f	-0.3558068
237	0x3da8a93f	0.08235406
238	0xbe186b4c	-0.1488468
239	0x3ea2c076	0.3178746
240	0xbd025b99	-0.031825636
241	0x3d8d0e13	0.0688745
242	0xbea94237	-0.3305833
243	0x3cd6960d	0.026194597
244	0x3ccdcb12	0.025121246
245	0x3e5181e2	0.20459703
246	0xbd179b4d	-0.03701334
247	0x3aa8e2a4	0.0012884927
248	0x3e9ea0d8	0.3098209
249	0x3d4cb3ba	0.049976088
250	0x3d3ad286	0.045610927
251	0x3e2dd731	0.1697662
252	0xbd2f20e1	-0.042755965
253	0x3dc49305	0.09598354
254	0x3dbd5d6e	0.09246336
255	0x3cae71b8	0.02129446

p_fcs.0.bias f4 [128]
0	0x3c20c924	0.009813581
1	0x3d6d24bf	0.057896372
2	0xbd42064f	-0.047369298
3	0x3b6fdbf6	0.0036599613
4	0xbd7cae70	-0.061689794
5	0x3c53a59a	0.0129179
6	0x3bd30e2d	0.006440899
7	0x3c258cdb	0.010104383
8	0xbcd58dcc	-0.02606859
9	0xbc55c9fa	-0.013048643
10	0xbb520bc8	-0.003205048
11	0x3d430de1	0.047620658
12	0x3c52594a	0.012838671
13	0xbba9fcbb	-0.0051875985
14	0xbc516459	-0.012780272
15	0xbd1bc99e	-0.038034074
16	0xbd1e7bf6	-0.038692437
17	0x3d4d913a	0.050187327
18	0x3cc8ff0a	0.024535675
19	0xbcde1f53	-0.027114546
20	0x3d047864	0.032341376
21	0x3ba187e8	0.0049295314
22	0x3d4223ca	0.047397412
23	0xbb278a2f	-0.0025564542
24	0xbd967d59	-0.07348127
25	0xbb53e27f	-0.0032331047
26	0xbc0647d8	-0.00819584
27	0xbcc1a3b8	-0.023637637
28	0x3c18de31	0.009330318
29	0xbc066c61	-0.0082045505
30	0x3c5635c9	0.013074347
31	0xbc19a2b0	-0.009377167
32	0xbc2088db	-0.009798254
33	0x3c3c9225	0.011509453
34	0x3d097491	0.033558432
35	0xbc02695c	-0.00795969
36	0xbadf9d22	-0.0017060379
37	0x3d02e903	0.0319605
38	0xbaca766b	-0.0015446668
39	0x3d83c77c	0.06434533
40	0xbc806873	-0.015674805
41	0xbc7a3841	-0.015272201
42	0xbc29f1c1	-0.01037258
43	0xbc8ed194	-0.017433919
44	0xbcaef605	-0.021357546
45	0xbcb508d2	-0.022098932
46	0xbd448602	-0.047979362
47	0xbb9e8419	-0.0048375246
48	0x3c02fddd	0.007995096
49	0xbbee6604	-0.007275345
50	0xbc6dffca	-0.014526317
51	0xbb26fe38	-0.0025481116
52	0xbbb78830	-0.0056009516
53	0xbd6c79ea	-0.057733454
54	0xbd9499a5	-0.07255868
55	0x3ac09325	0.001469229
56	0xb96fcfe9	-0.00022870269
57	0x3ca56b38	0.020192727
58	0x3cec3eff	0.028838633
59	0x3c9d1f6a	0.019180018
60	0x3c01ca63	0.007921788
61	0xbb481e51	-0.0030535648
62	0x3c32a60f	0.010903849
63	0x3d37cee3	0.044875037
64	0xbccc95f9	-0.024973856
65	0x3cbc58f5	0.022991637
66	0xbbc454c7	-0.0059915516
67	0xbd41a2ce	-0.047274403
68	0x3d2e8ee3	0.042616736
69	0xbc9e0a42	-0.019292
70	0xb9caba9e	-0.00038667483
71	0xb98204c9	-0.00024799097
72	0x3c3b0540	0.011414826
73	0xbc8fe356	-0.017564457
74	0x3bc9ff66	0.006164479
75	0xbc09ff87	-0.008422739
76	0xbcc30e57	-0.023810549
77	0xbc7e6baf	-0.015528603
78	0xbca2a17d	-0.019852394
79	0x3c1e1fe3	0.009651157
80	0x3b92f035	0.0044842013
81	0xbb847fa9	-0.0040435386
82	0xbd91e0da	-0.07122965
83	0x3cf7b973	0.030239796
84	0xbcec3bdc	-0.028837137
85	0x3c9ca57a	0.019121874
86	0x3bcbb77a	0.0062169405
87	0xbbde2f00	-0.006780505
88	0x3b48c0a0	0.0030632392
89	0x3d162f41	0.03666616
90	0x3c87f222	0.01659495
91	0x3c021dc2	0.007941665
92	0xbcf7e721	-0.030261578
93	0xbcd469c2	-0.025929336
94	0xbc6a917c	-0.014316913
95	0xbcfa2bb4	-0.030538417
96	0x3bfef091	0.0077801426
97	0xbcfdbfcf	-0.03097525
98	0x3d0541b0	0.032533348
99	0x3be77238	0.0070631765
100	0xbcb8e3f7	-0.02256964
101	0x3cc075bb	0.023493638
102	0xbc261ea9	-0.010139146
103	0x3ce02633	0.027361965
104	0x3aec6613	0.0018035792
105	0x3c93abbe	0.018026229
106	0x3cbda2e4	0.023148961
107	0xbce574e4	-0.02800984
108	0x3cc09353	0.02350775
109	0x3ccb0da5	0.02478678
110	0x3d543f3c	0.051818117
111	0xba1e57e0	-0.0006040316
112	0x3c96d314	0.018411197
113	0x3c8b84ba	0.017031062
114	0x3c62e29e	0.013847975
115	0xbc8bb95c	-0.01705616
116	0x3cd422f7	0.025895579
117	0xbc9a4cd3	-0.01883546
118	0xbca293a6	-0.019845795
119	0x3d2e85b6	0.042607985
120	0xbca9f44f	-0.020746378
121	0x3d4c7b92	0.049922533
122	0xbd20cd7e	-0.039258473
123	0xbb641dc2	-0.0034807776
124	0x3d342327	0.043978836
125	0xbd3e808f	-0.04650932
126	0xbcafbc25	-0.021452019
127	0xbb6648ff	-0.0035138724

p_fcs.1.weight f4 [128, 128]
0	0xbc4b3ec6	-0.012405103
1	0xbbcd304c	-0.006261861
2	0xbc886034	-0.016647436
3	0xbba0aec6	-0.004903647
4	0xbbbe9d68	-0.005817104
5	0xbb9f8aa0	-0.0048688203
6	0xbc9e5248	-0.019326344
7	0x3c7ceb2f	0.0154369315
8	0x3bd7860c	0.006577259
9	0xbc1b4e46	-0.009479111
10	0x3b028357	0.001991471
11	0xbbf92e4a	-0.007604395
12	0xbbc8b857	-0.0061254906
13	0xbb964251	-0.0045855423
14	0x3b192afd	0.002337157
15	0xbb54216e	-0.0032368558
16	0xbb8f3098	-0.0043698065
17	0x3c0e1375	0.008671631
18	0xbafa2efb	-0.0019087488
19	0x3b173949	0.0023074916
20	0xbc9c1cf8	-0.019056782
21	0xbb4efb32	-0.003158283
22	0xbb86d5b5	-0.0041148313
23	0xbb49d891	-0.003079925
24	0x3c22f0ee	0.009945137
25	0xbcc19ec8	-0.023635283
26	0x3a2b7ad2	0.0006541434
27	0xbb018f64	-0.0019769305
28	0xbc86a33a	-0.016435254
29	0xbc69ff78	-0.0142821
30	0xba9c6599	-0.0011932134
31	0x3c8f31aa	0.017479736
32	0xbc721dbe	-0.014777599
33	0x3bebd3fa	0.0071969004
34	0x384bb6d7	4.8569254e-05
35	0x3bb1ec18	0.005429756
36	0xbc3b7bf3	-0.011443126
37	0xba6d5ddc	-0.00090548187
38	0x3c11f926	0.008909499
39	0xbc1eddb9	-0.0096964175
40	0xbad5048a	-0.0016251963
41	0xbc1671d9	-0.009182417
42	0x394a0a8f	0.00019268155
43	0x3c068b56	0.008211931
44	0xbc27197e	-0.010198949
45	0x3b225535	0.0024770026
46	0xb99b122e	-0.0002957745
47	0xbca13f36	-0.019683462
48	0xbbde589f	-0.006785467
49	0xbca10032	-0.019653413
50	0xbb7680c1	-0.0037613364
51	0xba6ecfb8	-0.0009109932
52	0xbcb634f2	-0.022242043
53	0xbc260770	-0.010133609
54	0xbb7a654c	-0.003820735
55	0xbb9820aa	-0.0046425657
56	0xbb57b632	-0.0032914993
57	0xbcbca1f1	-0.023026438
58	0xbc0d3f79	-0.00862109
59	0xbc083e7b	-0.008315678
60	0xbc0132be	-0.007885633
61	0x3bee4ef3	0.007272595
62	0x3bf5649f	0.0074888016
63	0xbc22ee5e	-0.0099445265
64	0xbc0d67fd	-0.00863075
65	0xbbbde4cb	-0.0057950965
66	0xbd01c4b3	-0.031681728
67	0xbbbedfa0	-0.005824998
68	0xbb941695	-0.0045192936
69	0xbc2ecd4c	-0.010669064
70	0xbc6a2868	-0.01429186
71	0x3c650a8c	0.013979565
72	0xbb98bb64	-0.0046610106
73	0xbb7d4308	-0.003864469
74	0xbc312b1a	-0.010813499
75	0x3b6355c4	0.0034688571
76	0xb970b700	-0.00022956356
77	0xbc8f76fd	-0.017512793
78	0xbc4d5f0d	-0.012534869
79	0xbc3a62a3	-0.011376056
80	0xbc835c13	-0.016035115
81	0xbabb745e	-0.0014301648
82	0x3b854135	0.004066611
83	0xbc133c21	-0.008986504
84	0x3c2cbe05	0.010543351
85	0xbbb80004	-0.0056152362
86	0xbb6f2b2a	-0.0036494234
87	0x3bfa4bdf	0.007638439
88	0xbbb3c46f	-0.005486063
89	0xbcbc0ef7	-0.022956355
90	0xbb52151e	-0.0032056044
91	0xbbae0d84	-0.00531167
92	0xbbe4970f	-0.0069760154
93	0xbb7efd41	-0.0038908275
94	0xbb260b48	-0.0025336314
95	0x3b54a43b	0.0032446522
96	0xbc0e0527	-0.008668221
97	0x3c4ba28f	0.012428894
98	0xbc527d1b	-0.01284721
99	0xbc788abc	-0.015169796
100	0xbc2a622d	-0.0103993835
101	0xbc705dc7	-0.014670796
102	0xbc274417	-0.010209105
103	0xb98c3ba4	-0.00026747317
104	0xbb87fa98	-0.004149746
105	0xbb2eda70	-0.0026680492
106	0xbba11d2b	-0.004916807
107	0xbc6aec9c	-0.014338639
108	0x3acf4d06	0.0015815801
109	0xbb83d6a6	-0.004023391
110	0xbc18188f	-0.009283199
111	0xbb803b96	-0.003913353
112	0xbc7a201a	-0.015266443
113	0xbcc96365	-0.024583528
114	0xbc972200	-0.01844883
115	0xbbb65a0e	-0.0055649346
116	0xbc794249	-0.0152135575
117	0xbcc1c547	-0.02365364
118	0xbc0be192	-0.008537667
119	0xbb5468c4	-0.0032411078
120	0xbbe24c11	-0.0069060405
121	0xbb963f40	-0.0045851767
122	0xbc39ce5f	-0.011340707
123	0xbc63664e	-0.013879372
124	0xbbda7025	-0.0066662007
125	0xbc3e405c	-0.011612024
126	0x3c30dc2f	0.010794683
127	0x3b570351	0.0032808373
128	0xbd1204da	-0.035649158
129	0x3d6e36ca	0.05815772
130	0xbd69c25d	-0.057070125
131	0xbcfc476c	-0.030795775
132	0xbd119325	-0.03554072
133	0x3c168347	0.009186572
134	0x3da5b1fb	0.08090588
135	0xbdee5868	-0.11637956
136	0xbce9b3e8	-0.028528169
137	0x3c0e7ea6	0.0086971875
138	0x3d0b589b	0.034020048
139	0x3cfbe44c	0.030748509
140	0xbced192a	-0.028942663
141	0x3bbfce57	0.005853455
142	0xbda136c4	-0.07871774
143	0xbdfdf7e4	-0.12400797
144	0xbd7aed09	-0.06126121
145	0xbdccaf6e	-0.09994398
146	0x3b54ef66	0.0032491325
147	0xbc91bf5c	-0.017791443
148	0xbcd3f043	-0.025871402
149	0xbe0d1c16	-0.13780245
150	0xbe02756e	-0.12740108
151	0x3b3a5eb8	0.0028437804
152	0xbd48e157	-0.049043026
153	0xbd85862b	-0.06519731
154	0xbd09d352	-0.033648796
155	0x3d833e26	0.06408338
156	0xbd9a30d1	-0.07528842
157	0x3ba3f4f8	0.005003568
158	0xbd8669cc	-0.06563148
159	0x3d3255a1	0.043538693
160	0x3c9bc46e	0.019014563
161	0x3ccc9eae	0.024978008
162	0x3daba1d5	0.083804764
163	0x3e08ecd4	0.13371593
164	0xbda40ddc	-0.08010456
165	0x3d8aa088	0.067689
166	0x3be50feb	0.006990423
167	0x3d43b288	0.047777683
168	0xbcb150a8	-0.021644905
169	0x3e210ff9	0.1572875
170	0xbc839032	-0.016059969
171	0xbd053b2e	-0.03252714
172	0xbd5a15d1	-0.053243462
173	0xbd5b46b2	-0.053534217
174	0xbcf08b66	-0.029363345
175	0x3c8465ed	0.016161883
176	0x3ca4c560	0.020113647
177	0x3d801966	0.06254844
178	0xbdeae7b8	-0.11469978
179	0x3adb1f3b	0.0016717681
180	0xbe0b8de3	-0.13628344
181	0x3da98ca7	0.082787804
182	0xbdfa2f4a	-0.12216051
183	0xbd58e707	-0.0529547
184	0x3c533f37	0.01289349
185	0xbe6ace0e	-0.22930166
186	0xbc659c55	-0.014014323
187	0x3cca83f4	0.024721123
188	0xbc9cfa87	-0.01916243
189	0xbd83f871	-0.06443871
190	0x3d4af645	0.049551267
191	0x3d0ca24f	0.034334477
192	0x3ce6a777	0.028156025
193	0x3d429565	0.047505755
194	0xbda85c49	-0.08220727
195	0xbe799f41	-0.24377157
196	0xbce7bfcb	-0.028289696
197	0xbd479f59	-0.04873595
198	0x3d8acde7	0.06777554
199	0xbd793d92	-0.060849734
200	0xbd131d41	-0.03591657
201	0xbe2c8ebc	-0.16851324
202	0x3d9102f5	0.07080642
203	0x3d6843c0	0.056705236
204	0xbd301b83	-0.042994987
205	0x3dd7d451	0.10538543
206	0x3db24cad	0.08706031
207	0x3db6fb73	0.08934679
208	0xbd1e1816	-0.03859719
209	0xbdddc36e	-0.10828291
210	0x3dd75a60	0.105152845
211	0xbc4c71ca	-0.012478301
212	0xba85c1b8	-0.0010204827
213	0x3c1d7edd	0.009612766
214	0xbc4cefa6	-0.0125083085
215	0xbd24bea4	-0.04022087
216	0xbc167bec	-0.009184819
217	0x3d48e5cc	0.049047276
218	0x3c18a0a9	0.009315648
219	0xbe520fc1	-0.20513822
220	0x3cb8b47d	0.022547001
221	0x3d0fad7a	0.03507755
222	0x3de9770b	0.11399659
223	0xbc27d28a	-0.0102430675
224	0xbd707275	-0.058702905
225	0xbe79cc45	-0.24394329
226	0x3db9214a	0.090395525
227	0xbae66835	-0.0017578664
228	0xbdb2c086	-0.08728127
229	0xbd65c601	-0.056097034
230	0xbd915ef3	-0.07098188
231	0x3d901161	0.07034565
232	0xbda8b761	-0.08238102
233	0xbce38038	-0.0277711
234	0x3d81c638	0.06336635
235	0x3c5854d4	0.013203818
236	0x3cbebbcf	0.023282913
237	0xbd8dcaf4	-0.06923476
238	0xbcff881c	-0.031192832
239	0x3c9b4c74	0.018957354
240	0xbd820cbe	-0.06350087
241	0xbd37b866	-0.04485359
242	0x3d40d20d	0.04707532
243	0xbcddba72	-0.027066443
244	0x3cdf7b07	0.027280344
245	0x3d63c440	0.05560708
246	0x3d6ca5d8	0.05777535
247	0xbb135dd0	-0.0022486337
248	0x3cb7fa3d	0.02245819
249	0xbd531ff4	-0.051544145
250	0xbd6a2eab	-0.057173412
251	0x3c885f1e	0.016646918
252	0xbd8f9892	-0.07011522
253	0xbd4670d0	-0.04844743
254	0xbdf63c56	-0.12023227
255	0xbd90be83	-0.07067587

p_fcs.1.bias f4 [128]
0	0xbc2df04b	-0.010616372
1	0x3db69c9a	0.08916588
2	0x3d8a5ccd	0.067559816
3	0x3d303865	0.043022532
4	0x3d9d1d53	0.07671609
5	0x3bcf1c84	0.006320538
6	0x3b6c97e0	0.0036101267
7	0x3d96017a	0.073245004
8	0x3d56c439	0.052433226
9	0x3d7143eb	0.058902662
10	0x3d5313a1	0.05153239
11	0xbbebd2ce	-0.0071967607
12	0x3d463947	0.048394468
13	0x3d2624f7	0.040562596
14	0xbc793833	-0.015211153
15	0x3cc8b7bb	0.024501672
16	0x3cb0c114	0.021576442
17	0x3caf9fa9	0.021438437
18	0x3c7f22fe	0.015572308
19	0x3c3b326d	0.011425597
20	0x3ce1a720	0.027545512
21	0xbc8aead0	-0.01695767
22	0xbcc80302	-0.024415497
23	0x3d35d10c	0.044388816
24	0x3ca0a6df	0.01961082
25	0xbc183ba0	-0.009291559
26	0x3da9026f	0.08252417
27	0x3d4505ad	0.048101116
28	0x3d836950	0.06416571
29	0x3d300c06	0.042980216
30	0x3cbba71d	0.022906834
31	0x3cac716d	0.02105018
32	0xbc0bc140	-0.008529961
33	0x3d2ed8da	0.042687275
34	0xbca65e42	-0.020308618
35	0x3c25394a	0.01008446
36	0x3d8441a7	0.06457835
37	0xbcc5b0dc	-0.024132185
38	0x3d247f57	0.040160503
39	0x3ccda7a2	0.025104348
40	0x3d818bfd	0.06325529
41	0x3d2be77e	0.041968815
42	0x3d801f05	0.062559165
43	0xbb8111fa	-0.0039389106
44	0x3d11cbca	0.03559474
45	0x3cbfa545	0.023394236
46	0x3cb0fdfc	0.021605484
47	0x3d85df7c	0.06536767
48	0x3d3e76f2	0.046500154
49	0x3d34b978	0.04412219
50	0x3d88a383	0.066718124
51	0x3d5d9e14	0.054105833
52	0x3d8a1ef8	0.06744188
53	0x3cb3b085	0.021934757
54	0x3d8ac5dd	0.06776021
55	0x3d27dd73	0.040982675
56	0xbc55bc44	-0.013045374
57	0xbc075bb1	-0.008261607
58	0xbd2e2b91	-0.042522017
59	0xbc9084d3	-0.01764146
60	0x3d3b6527	0.045750763
61	0x3cbf50a6	0.023353886
62	0x3da3a47a	0.07990356
63	0xbcda579f	-0.02665311
64	0xbc9d7bb9	-0.019224035
65	0x3d692db8	0.056928366
66	0xbc6a2160	-0.014290184
67	0xbbf27375	-0.0073990175
68	0x3dc969c3	0.098346256
69	0x3b809a60	0.003924653
70	0x3d20398c	0.03911738
71	0x3d83de11	0.0643884
72	0x3d9aac39	0.0755238
73	0x3c40aa5c	0.011759367
74	0xbca25fdc	-0.0198211
75	0x3d66fbf7	0.056392636
76	0x3d96952a	0.073526695
77	0xbc3083e1	-0.01077363
78	0x3ce71935	0.028210262
79	0x3d4d2033	0.050079536
80	0x3bc66586	0.006054583
81	0xbbcbe6fe	-0.006222605
82	0x3d2e25f2	0.042516656
83	0x3cf3a0a4	0.029739685
84	0xbc235c3a	-0.009970719
85	0x3d81646a	0.063179806
86	0x3d5d9a3b	0.054102164
87	0x3cc947a8	0.024570301
88	0x3d07b83a	0.033134677
89	0x3d925431	0.071449645
90	0x3d39d1bf	0.045366045
91	0x3cb58ce3	0.022161907
92	0xbc30474e	-0.010759188
93	0x3d496800	0.049171448
94	0x3d7a490f	0.06110483
95	0xbc322f4d	-0.010875535
96	0x3d15c84c	0.03656797
97	0x3d38223e	0.04495453
98	0x3d81129e	0.06302379
99	0x3d73b71b	0.059500795
100	0x3d2d67ef	0.042335447
101	0x3d141236	0.03615018
102	0x385dac72	5.285111e-05
103	0xbc15dbcf	-0.009146645
104	0x3ca02ff1	0.01955411
105	0x3cded5fe	0.027201649
106	0x3c08a0f3	0.0083391545
107	0x3ce3a997	0.027790828
108	0x3d48e502	0.049046524
109	0x3cfff3dc	0.03124421
110	0x3d17552c	0.03694646
111	0xbcc7f2b1	-0.024407716
112	0xbab5b0df	-0.0013861916
113	0x3baebdf4	0.005332703
114	0x3cf4204b	0.029800555
115	0x3d34863b	0.044073325
116	0x3d175d6a	0.03695432
117	0xbceb6acc	-0.028737448
118	0x3cf98207	0.03045751
119	0x3dc56dab	0.09640058
120	0xbc9875b3	-0.01861081
121	0x3dad41ec	0.08459839
122	0x3bebc805	0.007195475
123	0x3d2d2196	0.04226836
124	0xbc9f7057	-0.019462747
125	0x3d3858d4	0.045006588
126	0xbc27dff7	-0.0102462685
127	0x3cd8bd8e	0.026457574

v_fcs.0.weight f4 [128, 39]
0	0xbe57195b	-0.21005766
1	0xbe588286	-0.2114354
2	0x3d8cd986	0.06877427
3	0x3e998721	0.29985908
4	0x3e4bc929	0.19900955
5	0xbe42356e	-0.18965694
6	0xbe6bc710	-0.23025155
7	0x3e7d46d3	0.24734049
8	0xbcc1ab5b	-0.023641279
9	0xbe6a6a53	-0.22892122
10	0x3e6ad60c	0.22933215
11	0xbe92c848	-0.28668427
12	0xbe5da02f	-0.21643136
13	0x3e73752d	0.23775168
14	0x3e3dbb74	0.18528539
15	0xbe71825a	-0.23584881
16	0x3e718cbb	0.2358884
17	0x3d4a179f	0.049338933
18	0xbe76b3b3	-0.24091987
19	0x3e45c7ae	0.19314453
20	0x3ce91a8d	0.028455043
21	0x3e0d9e25	0.13829859
22	0x3e15e0ad	0.14636488
23	0xbc7118fb	-0.014715428
24	0x3cd115c0	0.025523067
25	0x3c8e5745	0.017375598
26	0xbca2b852	-0.019863281
27	0x3b3ecf4d	0.002911526
28	0xbcea6262	-0.028611366
29	0xbc354be3	-0.011065456
30	0x3d0721a3	0.032991063
31	0xbc1f76a7	-0.009732879
32	0xbc6e4a0c	-0.014544021
33	0xbc53fa53	-0.0129381
34	0x3be982af	0.0071261744
35	0x3d279137	0.040909972
36	0xbe3aed38	-0.18254554
37	0x3cc97e68	0.024596408
38	0xbd5b3200	-0.05351448
39	0xbda08368	-0.07837564
40	0xbec0d0c2	-0.3765927
41	0xbf7ffed7	-0.9999823
42	0x3d32657e	0.04355382
43	0xbf04b3ab	-0.5183665
44	0xbfcedd45	-1.6161276
45	0xbf1550ce	-0.58326423
46	0x3f38cae9	0.72184616
47	0xbd178b08	-0.036997825
48	0xbf070c5b	-0.5275323
49	0x3f128f5e	0.5725001
50	0xbf11578f	-0.5677423
51	0xbf0f77e2	-0.560423
52	0x3effd279	0.49965265
53	0x3f6ff046	0.93726003
54	0xbeaa799b	-0.33295903
55	0x3f3de1e3	0.741728
56	0x3f118b95	0.5685361
57	0xbd44bd9f	-0.0480324
58	0x3dea5287	0.11441522
59	0xbddafb17	-0.10692423
60	0x3e900b9d	0.2813386
61	0x3e0a3e52	0.13500336
62	0xbd48d2af	-0.04902905
63	0x3e31c2fb	0.17359535
64	0x3d542be9	0.05179969
65	0xbd569ca8	-0.052395493
66	0x3dbc3f36	0.09191744
67	0x3d752841	0.059852842
68	0xbdc37511	-0.09543813
69	0x3e2abd45	0.16673763
70	0x3dcd1dc1	0.10015441
71	0x3d05c713	0.032660555
72	0xbe687696	-0.22701487
73	0xbdb7b186	-0.08969407
74	0xbe83d684	-0.257496
75	0xbf9b7e01	-1.2147828
76	0xbeb36c8d	-0.35043755
77	0xbe95044e	-0.29104847
78	0xbeb0c413	-0.34524593
79	0xbebef428	-0.3729565
80	0x3e6419e5	0.22275503
81	0x3ea8bb77	0.32955524
82	0x3ecf55a5	0.4049503
83	0xbebd9fb6	-0.37035912
84	0xbeafcb16	-0.3433463
85	0x3ec615f0	0.38688612
86	0x3ea1913f	0.31556126
87	0xbebfe280	-0.37477493
88	0x3ecfe450	0.40603876
89	0xbe9a87f1	-0.3018184
90	0xbebc5f0a	-0.3679126
91	0x3ebdd0c5	0.3707334
92	0x3ed8b8cb	0.42328486
93	0xbebd1847	-0.36932585
94	0x3ecd06d5	0.40044275
95	0x3d3cb22d	0.04606836
96	0xbe1b8c3c	-0.15190214
97	0x3e62bfc9	0.22143473
98	0xbde39054	-0.11111513
99	0x3d29ee48	0.04148701
100	0x3e866167	0.26246187
101	0x3dfed34a	0.12442644
102	0xbdc774f8	-0.09739107
103	0xbc97a779	-0.018512474
104	0x3ca6bc1f	0.020353375
105	0xbc7c936a	-0.015416006
106	0x3cbdfbbd	0.023191327
107	0xbe15213e	-0.14563462
108	0x3d5fe521	0.054661874
109	0x3c1c1035	0.009525348
110	0xbd060d2c	-0.032727405
111	0xbc756e19	-0.014979863
112	0xbd61bbd2	-0.05511076
113	0xbe8ec074	-0.27881205
114	0xbef0c6a0	-0.4702654
115	0xbe7383c1	-0.23780729
116	0xbebfc14f	-0.3745217
117	0xbe851458	-0.25992084
118	0xbe9b7797	-0.30364677
119	0xbeed5acc	-0.46358335
120	0x3eedbeb8	0.4643457
121	0x3f8d9cb3	1.1063446
122	0xbd150c0a	-0.036388434
123	0xbebb44d9	-0.36575964
124	0x3e90f6d9	0.2831333
125	0x3dc3e26f	0.09564673
126	0xbe859604	-0.26091015
127	0x3e87783f	0.26458928
128	0xbd8244f1	-0.06360806
129	0xbe848ec0	-0.2589016
130	0x3e7bfe43	0.24608712
131	0x3e23e868	0.16006625
132	0xbea52efc	-0.3226241
133	0x3ea8fa23	0.3300334
134	0x3d024f14	0.031813696
135	0x3da22b7f	0.079184525
136	0x3dec7f17	0.11547678
137	0xbe4e1ec8	-0.2012893
138	0x3e5884bd	0.21144386
139	0x3dcfb84a	0.10142572
140	0xbc180456	-0.0092783775
141	0x3bad27cf	0.0052842866
142	0x3bf4f224	0.0074751545
143	0x3ab94d11	0.0014137347
144	0x3af24ef0	0.001848666
145	0xbcc94e6d	-0.02457353
146	0xbd21fd35	-0.039548118
147	0xbe04f8a2	-0.12985471
148	0xbd858dad	-0.06521163
149	0xbdd72876	-0.10505764
150	0x3e050f7e	0.12994191
151	0x3d36a557	0.044591274
152	0xbf09f369	-0.5388704
153	0xbeda5cb5	-0.42648855
154	0xbd81da48	-0.06340462
155	0x3e9a8c88	0.30185342
156	0xbe6eeb2c	-0.23331898
157	0xbe8a90f0	-0.27063704
158	0xbd0554ee	-0.0325517
159	0x3e584e35	0.21123584
160	0x3dfca715	0.12336556
161	0xbe79d3c7	-0.24397193
162	0xbe8d0df3	-0.27549705
163	0x3e8e99e6	0.2785179
164	0x3c04445b	0.008072938
165	0xbe7f06d5	-0.2490495
166	0x3e87d857	0.26532242
167	0x3d949c5c	0.07256386
168	0xbe832a52	-0.25618225
169	0x3e90c2dc	0.28273666
170	0x3e20704c	0.15667838
171	0xbe8c9042	-0.2745381
172	0x3e88fa3b	0.2675341
173	0x3e08a185	0.13342865
174	0x3d1a3f47	0.037658002
175	0x3e2fda5c	0.17173141
176	0xbcee5500	-0.029093266
177	0x3d7b90b7	0.061417308
178	0x3e10996d	0.14121027
179	0x3ca7867e	0.020449873
180	0x3d034e7e	0.032057278
181	0x3d1fa26e	0.038973264
182	0x3b6dd276	0.0036288775
183	0x3c82ed5f	0.015982328
184	0x3d04db9e	0.032436006
185	0xbd9036d1	-0.070417054
186	0x3be6575b	0.0070294566
187	0xbd09cb26	-0.033641003
188	0x3d18ba4e	0.03728705
189	0xbc8d2c20	-0.017232955
190	0xbc741f42	-0.014900031
191	0xbd6bd3ac	-0.057574913
192	0xbdc432c7	-0.095799975
193	0xbd7e52de	-0.062090747
194	0xbc670fd0	-0.014102891
195	0xbe7b6feb	-0.24554412
196	0xbf0076bf	-0.5018119
197	0x4008396d	2.128505
198	0x4018e35a	2.3888764
199	0x40492724	3.143014
200	0x3f37b35f	0.71758074
201	0xbdf8ae2c	-0.12142596
202	0x3f2171d0	0.6306429
203	0x3e6f8697	0.23391186
204	0x3e3b6f68	0.18304217
205	0x3f47dc18	0.7807021
206	0x3ffff58a	1.9996808
207	0xbe065f28	-0.13122237
208	0x3f486d74	0.7829201
209	0xbfac298e	-1.3450181
210	0xbf8c4b5d	-1.0960499
211	0x3f0ea98a	0.55727446
212	0x3ecfb0eb	0.40564665
213	0xbe7a893b	-0.24466412
214	0x3d8c9146	0.06863646
215	0x3eb1f5dc	0.34757888
216	0x3e818742	0.25298506
217	0xbde780bb	-0.1130385
218	0x3d63037b	0.05542324
219	0x3ca6bf48	0.020354882
220	0x3d05deee	0.032683305
221	0x3e17a120	0.14807558
222	0xbb995772	-0.0046796137
223	0xbd7704e4	-0.0603074
224	0x3d938e49	0.07204873
225	0xbc745511	-0.01491286
226	0x3b9ce0e2	0.0047875503
227	0x3d14dd09	0.036343608
228	0xbadb3ade	-0.0016725918
229	0x3b19d4ef	0.0023472866
230	0x3f0d7245	0.55252486
231	0xbf5d2b6e	-0.86394393
232	0x3f0cd670	0.55014706
233	0x3f2dc3eb	0.6787707
234	0xbe33445e	-0.17506549
235	0xbe475ffd	-0.1947021
236	0x3da7ade0	0.08187461
237	0x3df025d6	0.11725967
238	0x3d5b5576	0.0535483
239	0xbdaac2d3	-0.08337941
240	0xbe33232a	-0.17493883
241	0x3e393421	0.18086292
242	0x3ceafff1	0.028686495
243	0xbe446b9a	-0.19181672
244	0x3e1eca35	0.15506823
245	0xbdd3ae3e	-0.103359684
246	0xbe31fb6d	-0.17381068
247	0x3e259308	0.16169369
248	0x3e22923f	0.15876101
249	0xbe4a680b	-0.19766252
250	0x3e23a2da	0.15980092
251	0x3d9bf8e5	0.07615832
252	0xbd309bf8	-0.043117493
253	0x3da55ed0	0.08074725
254	0x3cd2df15	0.02574114
255	0x3dfdd58c	0.123942465

v_fcs.0.bias f4 [128]
0	0xbe68f16c	-0.22748345
1	0xbed74784	-0.4204675
2	0xbec18c34	-0.3780228
3	0xbe9753a5	-0.29556003
4	0xbe91f188	-0.28504586
5	0xbf07c0f7	-0.53028816
6	0xbe31f68f	-0.17379211
7	0xbf005069	-0.50122696
8	0xbf0ccc4e	-0.54999244
9	0xbeebe3ce	-0.4607224
10	0xbf02333c	-0.5085943
11	0xbee7536a	-0.45180827
12	0x3ce3679b	0.027759364
13	0xbec4a293	-0.38405284
14	0xbd648b16	-0.055796705
15	0xbdc4d716	-0.09611337
16	0xbf7a5044	-0.97778726
17	0xbf21263e	-0.6294898
18	0xbeb77b04	-0.3583604
19	0xbec59ce3	-0.38596258
20	0xbe22611f	-0.15857361
21	0x3f44b224	0.7683432
22	0xbe4f88b1	-0.20266987
23	0xbe4c6dfe	-0.19963834
24	0xbf1ae8f3	-0.605117
25	0xbeeb5ae7	-0.4596779
26	0xbf619ce4	-0.8813002
27	0xbf2df2e9	-0.67948776
28	0xbee4aaef	-0.44661662
29	0xbec62cfb	-0.38706192
30	0xbe94808a	-0.29004318
31	0xbf40890d	-0.7520912
32	0xbf139db9	-0.5766254
33	0xbf253f6f	-0.64549917
34	0xbecaa80e	-0.3958134
35	0xbf4afeb0	-0.7929487
36	0xbf48c88c	-0.7843101
37	0xbf095283	-0.5364153
38	0x3e8d949b	0.2765244
39	0xbe1ee4c0	-0.15516949
40	0xbeb82b4e	-0.3597054
41	0xbdf98e29	-0.12185318
42	0xbe4521ed	-0.19251223
43	0xbede52a3	-0.43422422
44	0xbee99fbc	-0.4562968
45	0xbf0b6ab7	-0.5445971
46	0xbef7e5c3	-0.48417482
47	0xbf663967	-0.8993134
48	0xbe4179d8	-0.18894136
49	0xbf30d7dd	-0.6907938
50	0xbecc2579	-0.3987234
51	0xbf773cb4	-0.96577
52	0xbf033346	-0.5125011
53	0xbe5ce5f0	-0.21572089
54	0xbe855abf	-0.26045796
55	0xbe0f5f34	-0.14001161
56	0xbeb0e155	-0.34546915
57	0xbeaa62d7	-0.33278534
58	0xbea7bf1a	-0.32762986
59	0xbe5d2ea5	-0.21599825
60	0xbf20fb63	-0.62883586
61	0xbe821c25	-0.25412098
62	0xbe244329	-0.16041245
63	0xbebe6864	-0.3718902
64	0xbf3ea632	-0.74472344
65	0xbeb6fad2	-0.35738236
66	0xbeb039c8	-0.34419084
67	0xbf359310	-0.70927525
68	0xbe3d2627	-0.18471585
69	0xbea62cb3	-0.32455978
70	0x3c861583	0.01636768
71	0xbdeecc63	-0.116600774
72	0xbf4a1ee2	-0.78953373
73	0xbecd952e	-0.40152878
74	0xbf17ef3d	-0.59349424
75	0xbf082554	-0.5318196
76	0x3e059df3	0.13048534
77	0xbf05300e	-0.5202645
78	0xbf06e873	-0.5269844
79	0xbe9043cf	-0.28176734
80	0xbe37385d	-0.17892595
81	0xbe631e8f	-0.22179626
82	0x3f0bfa59	0.54678875
83	0xbf39a19e	-0.72512233
84	0xbbc9e096	-0.006160806
85	0xbf0ffb05	-0.562424
86	0xbf17cc7a	-0.5929638
87	0xbe112072	-0.14172533
88	0x3ddd77a7	0.108138375
89	0xbed363a4	-0.41286957
90	0xbec0c200	-0.3764801
91	0xbed33d1c	-0.4125756
92	0xbf200712	-0.6251079
93	0xbf08034f	-0.5313005
94	0xbe94db0d	-0.29073372
95	0xbe83534f	-0.25649497
96	0xbe6d2303	-0.23157887
97	0xbe93555b	-0.2877606
98	0xbf3920a6	-0.7231544
99	0xbf4d4d02	-0.8019563
100	0xbe9bb3df	-0.30410668
101	0xbf416d29	-0.7555719
102	0xbeb36879	-0.35040644
103	0xbe63fb89	-0.22263922
104	0xbe8cfc35	-0.2753617
105	0xbf1d2972	-0.61391366
106	0xbed3d1bd	-0.41370955
107	0xbe4f2ce4	-0.20231968
108	0xbf31e32b	-0.69487256
109	0xbf5a3233	-0.8523285
110	0xbece21c9	-0.4026015
111	0x3ea5bf62	0.32372576
112	0xbf101134	-0.5627625
113	0xbe773b53	-0.24143724
114	0xbe45e21e	-0.19324538
115	0xbe0d1191	-0.13776232
116	0xbe71832b	-0.23585193
117	0xbe84bcbc	-0.25925243
118	0xbeab8181	-0.3349724
119	0xbeb87dec	-0.3603357
120	0xbeb1f30f	-0.34755751
121	0xbe908e70	-0.2823367
122	0xbf026ea1	-0.50950056
123	0xbf182e6b	-0.5944583
124	0xbd7bf480	-0.06151247
125	0xbed6af38	-0.41930556
126	0xbeb16fd4	-0.3465563
127	0xbe3f8529	-0.1870314

v_fcs.1.weight f4 [128, 128]
0	0xbd00c0be	-0.031433813
1	0xbd24491b	-0.04010878
2	0xbd54e752	-0.051978417
3	0xbd4f989e	-0.050682656
4	0xbd92c516	-0.071664974
5	0xbd6f7801	-0.058464054
6	0xbd6a8e96	-0.057264887
7	0xbd701755	-0.058616
8	0xbd8766c5	-0.066113986
9	0xbd3ed83e	-0.046592943
10	0xbd3682d0	-0.044558346
11	0xbd59e0de	-0.053192966
12	0xbd859e77	-0.065243654
13	0xbd3f146a	-0.046650328
14	0xbd684a72	-0.05671162
15	0x3c08cbb6	0.00834935
16	0xbd477929	-0.04869953
17	0xbd3815cc	-0.044942662
18	0xbd443bf1	-0.047908727
19	0xbd40eb7a	-0.047099568
20	0xbd4f292c	-0.050576374
21	0xbd4f0010	-0.05053717
22	0xbd82717a	-0.063693
23	0xbd81b80a	-0.06333931
24	0xbd48915d	-0.048966754
25	0xbd738a26	-0.05945792
26	0xbd4af5ab	-0.049550693
27	0xbd8f00c6	-0.069825694
28	0xbd3c7e5f	-0.046018954
29	0xbd67b229	-0.05656639
30	0xbd13e1ff	-0.0361042
31	0xbd07226c	-0.03299181
32	0xbd23044a	-0.039799012
33	0xbd683c2b	-0.056698006
34	0xbd29ac30	-0.041423976
35	0xbd5e4d01	-0.054272655
36	0xbd32f46d	-0.043690134
37	0xbd5636df	-0.052298423
38	0xbd64860e	-0.055791907
39	0xbd75ff8b	-0.060058158
40	0xbd4ac053	-0.04949982
41	0xbd5295c6	-0.051412366
42	0xbd7d74f4	-0.061879113
43	0xbd21db8f	-0.039516028
44	0x3c4337dd	0.011915174
45	0xbd152593	-0.036412787
46	0xbc4106e6	-0.01178143
47	0xbc35f21f	-0.011105089
48	0xbd780c68	-0.060558707
49	0xbd627f84	-0.05529739
50	0xbd3ec030	-0.046570003
51	0xbd55dcd8	-0.052212566
52	0xbd829b5b	-0.06377288
53	0xbd89a4a3	-0.06720855
54	0xbd6510b7	-0.055924144
55	0xbd659ae8	-0.056055933
56	0xbcd1caa5	-0.025609324
57	0xbd4a68dc	-0.049416408
58	0xbd7cbfa7	-0.06170621
59	0xbd41ca22	-0.04731191
60	0xbd447e23	-0.047971856
61	0xbd80d4b3	-0.06290569
62	0xbca8c3ae	-0.02060112
63	0xbd45d17f	-0.048295494
64	0xbd6b2baf	-0.057414707
65	0xbd5bc91c	-0.05365859
66	0xbd836657	-0.06416004
67	0xbd15f126	-0.03660693
68	0xbd6884fe	-0.056767456
69	0xbd64e833	-0.055885505
70	0xbd540104	-0.05175878
71	0xbd3743ad	-0.044742275
72	0xbd46b9b5	-0.048516948
73	0xbd53200c	-0.051544234
74	0xbd451a02	-0.048120506
75	0xbd3d49cf	-0.046212967
76	0xbd354e23	-0.04426397
77	0xbd738c29	-0.05945984
78	0xbd4f1a12	-0.050561972
79	0xbcbec72c	-0.023288332
80	0xbd23e3e7	-0.040012266
81	0xbd81c41d	-0.06336234
82	0xbd6b5a48	-0.057459146
83	0xbd8dd7d2	-0.0692593
84	0xbd738829	-0.059456024
85	0xbd289d1a	-0.04116545
86	0xbd20775c	-0.03917633
87	0xbd7199b5	-0.058984477
88	0xbd70da5a	-0.058801986
89	0xbd3f7822	-0.046745427
90	0xbd4d528a	-0.050127544
91	0xbd63ad40	-0.055585146
92	0xbd5f0b05	-0.05445387
93	0xbc20ad0f	-0.009806885
94	0xbd6afa0a	-0.057367362
95	0xbd65200f	-0.055938777
96	0xbd72d824	-0.05928816
97	0xbd5be083	-0.053680908
98	0xbd21601b	-0.039398294
99	0xbd8d808b	-0.06909283
100	0xbd6de0b0	-0.058075607
101	0xbd541289	-0.05177549
102	0xbd83e6e5	-0.06440524
103	0xbca4cb1a	-0.020116378
104	0xbcc902ee	-0.02453753
105	0xbd55e7ae	-0.0522229
106	0xbd4516cb	-0.04811744
107	0xbd4a8f24	-0.049452916
108	0xbd5d5e20	-0.054044843
109	0xbd9163f5	-0.070991434
110	0xbd70ed83	-0.05882026
111	0xbd3555af	-0.044271167
112	0xbd40671e	-0.04697334
113	0xbd50d337	-0.05098268
114	0xbd547609	-0.05187038
115	0xbd8bea6d	-0.068318225
116	0xbd38f86f	-0.0451588
117	0xbd6423d1	-0.05569822
118	0xbd859a4d	-0.06523571
119	0xbc1caf70	-0.009563312
120	0xbd5b0e17	-0.053480234
121	0xbd68d175	-0.05684038
122	0x3b706691	0.0036682228
123	0xbd222f02	-0.03959561
124	0xbd7ede1d	-0.062223542
125	0xbd2a13cd	-0.04152279
126	0xbccd8000	-0.02508545
127	0xbd5f7914	-0.05455883
128	0xbd4e37d2	-0.050346203
129	0xbd9ed738	-0.077558935
130	0xbd64ec5b	-0.05588947
131	0xbd82ad51	-0.06380714
132	0xbd8f8dce	-0.07009469
133	0xbd69032b	-0.056887787
134	0xbd564e09	-0.052320514
135	0xbd7a5e5e	-0.06112515
136	0xbd5afd55	-0.053464253
137	0xbd461a9b	-0.048365217
138	0xbd61e34b	-0.055148404
139	0xbd7e0ea1	-0.06202567
140	0xbd5e6957	-0.05429968
141	0xbd936089	-0.07196147
142	0xbd37b4e3	-0.04485024
143	0xbd44ae2f	-0.048017677
144	0xbd5ebc00	-0.05437851
145	0xbd7c91c6	-0.061662458
146	0xbd4c6eae	-0.04991024
147	0xbd6a8018	-0.057251066
148	0xbd2473a4	-0.040149346
149	0xbd688de9	-0.05677596
150	0xbd66cf71	-0.056350175
151	0xbd88e5eb	-0.06684478
152	0xbd4da343	-0.050204527
153	0xbd8152a2	-0.06314589
154	0xbd3c6af6	-0.046000443
155	0xbd834e25	-0.06411389
156	0xbd6c90cc	-0.057755277
157	0xbd5dd81a	-0.05416117
158	0xbd644fed	-0.055740286
159	0xbd81a18b	-0.0632964
160	0xbd752868	-0.059852988
161	0xbd73ff4a	-0.059569634
162	0xbd613c4f	-0.054989155
163	0xbd4ec9c8	-0.050485402
164	0xbd9bb925	-0.07603673
165	0xbd4e4adc	-0.05036436
166	0xbd7bf495	-0.06151255
167	0xbd6e4faf	-0.05818146
168	0xbd61b251	-0.055101696
169	0xbd486f24	-0.048934117
170	0xbd7c557b	-0.061604958
171	0xbd6c86a6	-0.0577456
172	0xbd5e40f4	-0.054261163
173	0xbd92e1f9	-0.07172007
174	0xbd8045a2	-0.062632814
175	0xbd5214fe	-0.05128955
176	0xbd72a7ba	-0.059241988
177	0xbd517621	-0.051138047
178	0xbd9c20c3	-0.07623436
179	0xbd3e0f98	-0.04640159
180	0xbd72df35	-0.059294898
181	0xbd392c66	-0.045208357
182	0xbd7f5473	-0.062336396
183	0xbd689e87	-0.05679181
184	0xbd694266	-0.056948088
185	0xbda72846	-0.081619784
186	0xbd9bc693	-0.076062344
187	0xbd59e44d	-0.05319624
188	0xbd23dcd1	-0.04000551
189	0xbd647a5b	-0.05578075
190	0xbd5efe3d	-0.05444168
191	0xbd650969	-0.055917177
192	0xbd422c29	-0.047405396
193	0xbd3d616d	-0.04623549
194	0xbd4fb5cb	-0.05071048
195	0xbd5f8c7a	-0.05457733
196	0xbd44fa63	-0.04809035
197	0xbd72f9e8	-0.05932036
198	0xbd6db395	-0.05803259
199	0xbd424a42	-0.0474341
200	0xbd92f181	-0.071749695
201	0xbd62efe0	-0.055404544
202	0xbd6638e2	-0.05620659
203	0xbd8495ca	-0.064738825
204	0xbd75e569	-0.060033236
205	0xbd3e80ea	-0.04650966
206	0xbd644f9b	-0.05573998
207	0xbd5bf53b	-0.053700667
208	0xbda3ebd3	-0.08003964
209	0xbd63ecc4	-0.05564572
210	0xbd7d86ae	-0.06189602
211	0xbd775ff1	-0.06039423
212	0xbd97836c	-0.073981136
213	0xbd7ddf82	-0.06198073
214	0xbd81aa39	-0.063312955
215	0xbd9c1335	-0.07620851
216	0xbd89384c	-0.06700191
217	0xbd891c68	-0.06694871
218	0xbd5fa4f0	-0.054600656
219	0xbd9a184f	-0.07524168
220	0xbd79691f	-0.060891267
221	0xbd513172	-0.051072545
222	0xbd7af3e4	-0.06126775
223	0xbd886597	-0.06660002
224	0xbd2d3da1	-0.042295102
225	0xbd478810	-0.048713744
226	0xbd63f05d	-0.05564915
227	0xbd263dd4	-0.040586308
228	0xbd7cec62	-0.06174887
229	0xbd758c66	-0.059948348
230	0xbd48c3a6	-0.04901471
231	0xbd6e535e	-0.058184974
232	0xbd6639f3	-0.05620761
233	0xbd90435b	-0.07044097
234	0xbd3a3fe5	-0.04547109
235	0xbd728167	-0.05920544
236	0xbd6b0757	-0.057380047
237	0xbd84e830	-0.06489599
238	0xbd59737c	-0.05308865
239	0xbd88a88d	-0.066727735
240	0xbd8e275a	-0.069410995
241	0xbd7eedb7	-0.06223842
242	0xbd5d477d	-0.054023255
243	0xbd8c01e4	-0.06836298
244	0xbd4212fe	-0.047381394
245	0xbd85ddb8	-0.0653643
246	0xbd857b2d	-0.065176345
247	0xbd3cdd6d	-0.046109606
248	0xbd6eebc5	-0.058330316
249	0xbd815dd3	-0.06316724
250	0xbd7f7028	-0.06236282
251	0xbd99996a	-0.074999645
252	0xbd8f7886	-0.0700541
253	0xbd7ae15d	-0.06125008
254	0xbd821fd6	-0.063537285
255	0xbd53bbd0	-0.051692784

v_fcs.1.bias f4 [128]
0	0xbd88de25	-0.06682996
1	0xbd711a57	-0.05886301
2	0xbbe824c3	-0.0070844605
3	0x3f2206da	0.63291705
4	0xbd7e0778	-0.06201884
5	0xbe238f89	-0.15972723
6	0xbd8c8a3d	-0.06862304
7	0xbd5f1123	-0.054459702
8	0xbd895b62	-0.06706883
9	0x3f3253ac	0.69658923
10	0xbd404d45	-0.04694869
11	0xbd4eea38	-0.050516337
12	0xbd547f9e	-0.051879518
13	0xbd9d5db0	-0.07683885
14	0xbc8ecc4a	-0.017431397
15	0xbeddc6bb	-0.43315682
16	0xbd8a58fb	-0.06755253
17	0xbd8ecaa1	-0.06972242
18	0xbd960b01	-0.073263176
19	0xbd610bac	-0.05494277
20	0xbd50c22b	-0.050966423
21	0xbd4686b9	-0.048468325
22	0xbd93054d	-0.071787454
23	0xbee4b99a	-0.44672853
24	0xbd64214d	-0.05569582
25	0xbd7f28b9	-0.062294696
26	0xbd48c906	-0.049019836
27	0xbc68a335	-0.014199068
28	0xbd849e70	-0.06475532
29	0xbd60557a	-0.054769017
30	0xbd3136c7	-0.04326513
31	0xbda877bb	-0.08225962
32	0xbbef15d8	-0.007296305
33	0xbcdf57ff	-0.02726364
34	0xbd77b680	-0.06047678
35	0xbd7cb74a	-0.061698236
36	0xbd6e58ec	-0.05819027
37	0x3f61cee4	0.88206315
38	0xbba3a7b4	-0.004994357
39	0xbd670eae	-0.056410484
40	0xbd9758d5	-0.0738999
41	0xbd7de5b2	-0.061986633
42	0xbd600556	-0.05469259
43	0xbd5bbbbd	-0.053645838
44	0xbd183b5f	-0.037165996
45	0xbd3aca17	-0.045602884
46	0xbd9cecf3	-0.07662382
47	0xbd50412f	-0.050843414
48	0xbbd5a1ce	-0.0065195328
49	0xbd9339d5	-0.07188765
50	0xbd977897	-0.073960476
51	0xbedf85a8	-0.4365666
52	0xba93fd48	-0.0011290694
53	0xbd6a6262	-0.05722273
54	0xbd6ef5a4	-0.05833973
55	0xbd802e12	-0.06258787
56	0xbd4c5eef	-0.049895223
57	0xbeccd646	-0.40007228
58	0xbc2360aa	-0.009971777
59	0xbcb5c31b	-0.02218776
60	0xbc89d1ec	-0.016823731
61	0xbd807615	-0.06272522
62	0xbd84e81f	-0.06489586
63	0xbd108d87	-0.03529122
64	0xbd78cc55	-0.06074174
65	0xbd86e980	-0.06587505
66	0xbbafd59b	-0.00536604
67	0xbd6f1ef0	-0.058379114
68	0xbc00ad55	-0.007853826
69	0xbd6bb611	-0.05754668
70	0x3f7474c2	0.9549066
71	0x3f8710d9	1.0552016
72	0xbef9a62b	-0.4875959
73	0xbd8b99b0	-0.06816423
74	0xbd307191	-0.043077055
75	0xbd60c644	-0.05487658
76	0xbf23a7ca	-0.639279
77	0xbd5e468f	-0.05426651
78	0xbc4e72e9	-0.012600639
79	0x3f66aba4	0.9010565
80	0xbc610f4d	-0.013736558
81	0xbc4f9af3	-0.01267122
82	0xbb68942f	-0.0035488715
83	0xbe045e95	-0.12926705
84	0xbd8a8dca	-0.06765325
85	0xbf79b51f	-0.97541994
86	0xbd5c804f	-0.053833302
87	0xbe9dd75d	-0.30828372
88	0xbda3d473	-0.07999506
89	0xbd2e7685	-0.042593498
90	0xbdc55b29	-0.09636528
91	0xbd7a2df9	-0.061079
92	0xbca2ccdf	-0.01987308
93	0x3f9db062	1.2319453
94	0xbd86e8a8	-0.065873444
95	0xbc5d7bd4	-0.013518292
96	0xbd815d3a	-0.0631661
97	0xbf2cc103	-0.6748201
98	0xbd559648	-0.052145272
99	0xbd61e60b	-0.055151027
100	0xbd84de54	-0.06487718
101	0xbd3e014b	-0.04638795
102	0xbccf1ee8	-0.025283292
103	0xbd8b0287	-0.067875914
104	0xbd24439b	-0.040103536
105	0xbd677586	-0.056508563
106	0xbf1a1469	-0.60187393
107	0x3f8171ba	1.0112832
108	0xbd4ba280	-0.04971552
109	0xbd971d8e	-0.07378684
110	0xbd8887d9	-0.06666536
111	0xbd645a8a	-0.055750407
112	0xbd7c4582	-0.061589725
113	0xbd401888	-0.046898395
114	0xbc10bb27	-0.008833683
115	0xbd728606	-0.059209846
116	0xbd6be368	-0.05758992
117	0x3f841e61	1.0321771
118	0xbb0a6db7	-0.0021122524
119	0xbd4c0587	-0.04980996
120	0xbd671d6c	-0.056424543
121	0xbd9c5bdc	-0.07634708
122	0xbc91c109	-0.017792242
123	0xbd4c2275	-0.04983755
124	0xbd22826c	-0.03967516
125	0x3dfa4ac9	0.122212954
126	0x3e82d6fa	0.2555464
127	0xbd869f5d	-0.06573365

mu.weight f4 [12, 128]
0	0x3bfcf4de	0.00771962
1	0xbd74a3af	-0.059726413
2	0xbd947c39	-0.07250256
3	0x3cd4581a	0.025920916
4	0xbd65257d	-0.055943955
5	0xbb9a73e4	-0.0047135223
6	0x3c0aa580	0.00846231
7	0xbc3435bb	-0.0109991385
8	0xbd30d8bd	-0.043175448
9	0x3e055a89	0.13022818
10	0xbb94fd9e	-0.004546835
11	0xbb300f2b	-0.002686451
12	0xbcaf1c05	-0.021375665
13	0x3d6ef95c	0.058343276
14	0x3a929362	0.001118284
15	0x3d4a6e0a	0.049421348
16	0xbb9ee0ca	-0.0048485743
17	0xbe4475e7	-0.19185601
18	0xbe594ac8	-0.21219933
19	0xbe25b750	-0.1618321
20	0xbd17a47e	-0.037022106
21	0xbabbd893	-0.0014331512
22	0x3ddfd3ac	0.10929045
23	0x3dc5ba61	0.096546896
24	0x3ce97638	0.028498754
25	0x3d07c14a	0.03314332
26	0xbe149e04	-0.14513403
27	0x3dd1f7cd	0.102523424
28	0xbe5814d8	-0.21101701
29	0xbca2f705	-0.019893179
30	0x3e553972	0.20822695
31	0x3d9818b2	0.07426585
32	0x3b498348	0.0030748416
33	0x3c9828a9	0.018574076
34	0x3cbfe851	0.023426207
35	0xbe3bcb5f	-0.18339299
36	0x3d2a3cb1	0.041561786
37	0xbe041d22	-0.12901738
38	0x3dba7a22	0.09105326
39	0xbdc3e3f9	-0.09564967
40	0x3c374692	0.011186259
41	0x3d5f74fa	0.054554917
42	0xbc64e926	-0.013971603
43	0xbd2ac6c1	-0.041693453
44	0xbd94229b	-0.07233163
45	0x3d71a4e1	0.05899513
46	0xbe3976ec	-0.18111771
47	0x3dfc51d9	0.12320299
48	0xbdb9b3a7	-0.09067469
49	0xbd3031b0	-0.043016136
50	0xbd85c4d6	-0.06531684
51	0xbc0e107c	-0.008670922
52	0x3e172563	0.14760356
53	0x3d93f68b	0.07224759
54	0xbe2d87b2	-0.16946295
55	0x3df96cdd	0.12178967
56	0x3c0eb605	0.008710389
57	0xbbefbb98	-0.007316064
58	0x3ca03b4c	0.019559525
59	0xbb1873eb	-0.0023262452
60	0x3d6c1b3c	0.05764316
61	0xbe05c5b7	-0.13063703
62	0x3dd36d99	0.103236385
63	0x3c7e0d25	0.015506064
64	0x3b47fd13	0.0030515834
65	0x3e8ffcac	0.2812246
66	0xbc0df8c8	-0.008665271
67	0x3ba02b51	0.004887976
68	0x3dad9697	0.08475988
69	0x3d738050	0.05944854
70	0x3ca3a341	0.019975306
71	0xbca3005f	-0.019897638
72	0xbdcc9b6f	-0.09990584
73	0xbe81db59	-0.2536266
74	0x3acfbf30	0.0015849825
75	0x3d428352	0.047488518
76	0x3d1ee014	0.038787916
77	0xbbe49ad0	-0.006976463
78	0xbdb05102	-0.08609201
79	0x3dded393	0.10880198
80	0xbd5cfaa6	-0.053949974
81	0x3de9c148	0.114138186
82	0xbe180446	-0.1484538
83	0x3d9fb9e0	0.07799125
84	0x3994c708	0.0002837705
85	0xb7a5fde1	-1.9787754e-05
86	0x3c787cba	0.015166456
87	0x3d2a7b01	0.041621212
88	0xbd36f195	-0.044663984
89	0x3e2e6c1c	0.17033428
90	0x3d8a00b2	0.06738414
91	0xbdc0b396	-0.09409253
92	0x3bff553d	0.0077921436
93	0xbdd888cb	-0.10572966
94	0x3c73898b	0.014864336
95	0xba1e22be	-0.00060323987
96	0xbc1102d9	-0.008850777
97	0xbd2897e4	-0.04116048
98	0xbaced7f9	-0.0015780918
99	0x3e16ed75	0.1473902
100	0x3e310e9c	0.1729073
101	0x3e2794d5	0.16365369
102	0xbde67412	-0.112526074
103	0xb99cb116	-0.00029886578
104	0xbd61a0b7	-0.05508491
105	0xbcc0ef0d	-0.023551488
106	0xbd214036	-0.039367877
107	0x3e599bab	0.21250789
108	0x3dbb5468	0.091469586
109	0x3e1cb5c5	0.15303715
110	0x3d80f818	0.0629732
111	0x3cd2a6d1	0.02571431
112	0x3d3265d5	0.043554146
113	0xbd18864a	-0.037237443
114	0x3d40ed0b	0.04710106
115	0x3d960ebd	0.0732703
116	0xbdd66b49	-0.10469682
117	0x3c780122	0.015136989
118	0xbdf86732	-0.12129058
119	0x3d909634	0.07059899
120	0xbce0ea7a	-0.027455557
121	0x3d59586a	0.053062834
122	0x3e22cb5b	0.15897886
123	0x3bd17a3b	0.006392745
124	0xbae7bcd2	-0.0017680174
125	0xbc33a4e5	-0.010964607
126	0x3b214cd5	0.0024612446
127	0xbd53d5ee	-0.05171769
128	0x3b4ae5e5	0.0030959782
129	0x3d46c113	0.048523974
130	0x3d423edd	0.047423232
131	0xbc9cd934	-0.01914654
132	0x3d16b6b6	0.03679534
133	0xbcd2a4bf	-0.025713323
134	0x3e5102ee	0.20411274
135	0xbe320f66	-0.17388687
136	0x3d868578	0.06568426
137	0xbca65d85	-0.020308265
138	0x3d361072	0.044449277
139	0xbda197d1	-0.07890285
140	0x3e00eeb7	0.12591062
141	0x3e00df6b	0.12585227
142	0xbb64dee5	-0.0034922895
143	0xbc980d76	-0.018561106
144	0x3d8b397d	0.067980744
145	0xbdaee2ae	-0.085393295
146	0x3dc942cc	0.098271936
147	0xbb9c090d	-0.004761821
148	0xbc67fc99	-0.014159345
149	0x3c502454	0.012703974
150	0xbd81dcd7	-0.0634095
151	0x3e173a25	0.14768274
152	0xbd84c5a6	-0.06483011
153	0x3c99d18b	0.018776676
154	0x3d52163a	0.05129073
155	0x3c7f3528	0.015576638
156	0x3da5d356	0.0809695
157	0xbd4987d9	-0.04920182
158	0xbd3e4091	-0.046448294
159	0x3d2c233b	0.042025786
160	0xbbf75c86	-0.0075488715
161	0x3dbae74c	0.09126148
162	0x3dee9fd9	0.11651582
163	0x3d990c23	0.07473018
164	0xbdcba192	-0.099429265
165	0x3dc1fa0e	0.09471522
166	0x3833aaaa	4.283587e-05
167	0xbdb589d3	-0.088641785
168	0x3ce41a27	0.027844502
169	0xbc511f2b	-0.012763779
170	0x3e223984	0.15842253
171	0xbc0a5fda	-0.008445704
172	0xbd34feee	-0.044188432
173	0xbe1b0630	-0.15139079
174	0xbcf520e9	-0.02992292
175	0x3dea5d8a	0.114436224
176	0xbba3d308	-0.004999522
177	0xbdfa3900	-0.12217903
178	0x3e7bca0b	0.24588792
179	0x3dd93fce	0.10607873
180	0x3ca12da2	0.01967508
181	0x3d5b113e	0.05348324
182	0xbe3a8063	-0.18213038
183	0xbe07893d	-0.13235946
184	0x3c00f801	0.007871629
185	0xbb90cd40	-0.004418999
186	0xbd3c0758	-0.04590544
187	0x3c6d7353	0.0144928275
188	0xbdf360a1	-0.11883665
189	0xbe07f929	-0.13278641
190	0x3dde3fee	0.10852037
191	0xbc16f722	-0.0092141945
192	0x3b4d3e47	0.0031317638
193	0x3e0f76f1	0.14010216
194	0xbc3d1ecf	-0.01154299
195	0xbabed127	-0.0014558182
196	0xbdc72e45	-0.09725622
197	0xbd6c8038	-0.057739466
198	0x3ddcce06	0.10781483
199	0x3c3de6c4	0.011590663
200	0x3d92cd58	0.071680725
201	0xbe0618ba	-0.1309537
202	0xbb40a44e	-0.0029394808
203	0xbe7b753d	-0.24556442
204	0x3e0e53c0	0.13899136
205	0xbbe8b208	-0.007101301
206	0xbc9d10c0	-0.019173026
207	0xbdc7276c	-0.09724316
208	0xbd9cdba4	-0.076590806
209	0x3db2c462	0.08728863
210	0x3d6104c6	0.054936193
211	0x3cba52d3	0.022744572
212	0x3c56de73	0.013114559
213	0x3d819372	0.06326951
214	0xbd811d9b	-0.06304475
215	0xbd3a17bf	-0.045432802
216	0xbe15b5e6	-0.1462017
217	0xbd6539da	-0.055963375
218	0xbda36a89	-0.07979304
219	0xbe3dae56	-0.18523535
220	0xbc5995ab	-0.0132803125
221	0x3ddb905f	0.10720896
222	0x3d0ba071	0.034088556
223	0xbc417d32	-0.011809634
224	0xbdb46ecf	-0.088101976
225	0xbdd245c8	-0.10267216
226	0xbc1a1f6f	-0.009406908
227	0x3b974742	0.004616649
228	0xbd3a2e30	-0.045454204
229	0xbd8c5bc2	-0.06853439
230	0x3d8fbee2	0.0701883
231	0xba0bdc1c	-0.0005335228
232	0xbc4925ba	-0.012277061
233	0x3e166743	0.14687829
234	0x3e18a584	0.14906889
235	0xbec43822	-0.38324076
236	0xbe61c535	-0.22047885
237	0xbd7ed4c1	-0.062214617
238	0xbca4df5b	-0.020126035
239	0x3df4197b	0.119189225
240	0xbcb173c1	-0.021661641
241	0x3d219b81	0.03945494
242	0xbe508b14	-0.20365554
243	0x3d66f610	0.056387007
244	0x3c3c695b	0.011499728
245	0xbcfe3c69	-0.031034665
246	0x3d02d0d9	0.031937454
247	0xbe0a9132	-0.1353195
248	0xbe6cb299	-0.23115005
249	0xbe32f2ed	-0.17475481
250	0xbe247d75	-0.16063483
251	0x3ca7866d	0.020449841
252	0x3b4adc0b	0.003095391
253	0xbd243e4d	-0.040098477
254	0xbb7c08d4	-0.003845741
255	0x3da44c34	0.08022347

mu.bias f4 [12]
0	0xbbfa0536	-0.0076300157
1	0xbca07095	-0.019584933
2	0x3d97d851	0.07414306
3	0x3d4251db	0.047441345
4	0xbc047078	-0.008083455
5	0x3c5584d6	0.013032159
6	0xbc77280e	-0.015085233
7	0x3a93b4d2	0.0011269099
8	0x3ccd7c7a	0.02508377
9	0xbc4700cc	-0.012146186
10	0x3c6b255f	0.014352172
11	0x3d82d37b	0.06387993
