stats/test/iter7999.pt (torch, 183486 bytes, 12 tensors)

log_std f4 [12]
000000 00 00 00 00 00 00 00 00 00 00 00 00 00 00 00 00
       0.0 0.0 0.0 0.0
000010 00 00 00 00 00 00 00 00 00 00 00 00 00 00 00 00
       0.0 0.0 0.0 0.0
000020 00 00 00 00 00 00 00 00 00 00 00 00 00 00 00 00
       0.0 0.0 0.0 0.0

p_fcs.0.weight f4 [128, 39]
000000 e6 ed 04 bc db 40 f6 bc 43 1f e3 be 89 7d cc bd
       -0.00811336 -0.030060222 -0.44359788 -0.099848814
000010 08 aa ee 3e a9 27 76 3d 40 a7 4a 3d fc b1 9d 3d
       0.466141 0.060096417 0.04947591 0.076999635
000020 86 9b 4c be 77 ac 14 3d ee f9 b8 3d f7 64 6f be
       -0.19981202 0.036297288 0.09032045 -0.23378359
000030 b9 c1 76 bd 98 3a 1f 3c c8 24 55 3e 8d 41 19 3c
       -0.060243342 0.00971856 0.20814812 0.009354007
000040 87 09 d0 3d 2f 10 04 3e ae de 6a 3e b1 1c 4b be
       0.10158067 0.12896799 0.22936508 -0.19835164
000050 ca ea 97 be e9 44 6e 3e 39 08 8c 3e d0 6e 48 3d
       -0.29671317 0.23268475 0.27350023 0.048933804
000060 6f b6 0e 3d 00 f8 eb bb ea 7d ad 3c ed 49 c4 bc
       0.03484195 -0.0072011948 0.021178205 -0.023961032
000070 af 29 ad 3d 85 36 7d bd 8c 77 30 bd 68 70 a6 bd
       0.08455216 -0.061819572 -0.04308276 -0.081269085
000080 c1 63 81 3c 2e 43 a1 3c 7f 15 90 3c ee 66 63 3c
       0.015794637 0.019685354 0.017588375 0.013879521
000090 83 0c 81 be df 30 f9 ba e5 69 0a 3e 2f f2 51 3c
       -0.25204858 -0.0019011757 0.13516958 0.012814089
0000a0 95 4c 3b 3b 02 9c 1a be 25 3c a5 bd aa 67 c6 be
       0.0028579582 -0.15098575 -0.08068112 -0.38750964
0000b0 34 f8 2a be c5 40 1c be c4 1e 33 bc f3 18 4d 3f
       -0.16696244 -0.15259083 -0.010932628 0.80116194
0000c0 ae 09 52 bd 12 8c 5d bd b3 99 8d bd 0e 29 cf bb
       -0.051278763 -0.05408866 -0.069140814 -0.006322033
0000d0 c4 2a 8f bd f5 57 b1 bd 61 a8 24 be a5 08 5a 3c
       -0.06990579 -0.086593546 -0.16079856 0.013307725
0000e0 7f b2 91 be 63 09 ac 3b d8 63 7d 3e f3 dc 69 3d
       -0.28456494 0.0052501424 0.24745119 0.05709548
0000f0 a3 37 48 3d 2e 10 45 be c8 e2 a8 bd 75 a0 16 be
       0.048881184 -0.19244453 -0.0824638 -0.14709647
000100 06 e7 10 bd 44 98 97 3d 7d e6 d4 bc d8 9a fb 3c
       -0.03537657 0.07402089 -0.025988812 0.030713484
000110 c9 3d 6b 3d 53 9c f0 3c 3d 71 c3 3b d0 2d a0 b9
       0.05743197 0.029371416 0.005964427 -0.0003055171
000120 79 26 38 3d f7 10 cd 3c 3d 92 42 bd e9 12 f6 bd
       0.044958565 0.025032504 -0.047502745 -0.120153256
000130 18 37 51 be 51 89 5a be 8a 61 ec bc e0 64 01 3d
       -0.20431173 -0.21341445 -0.028855104 0.031590343
000140 89 2b 02 3f 24 ac 06 3f fe bf d2 3e e2 d5 00 3d
       0.5084768 0.52606416 0.41162103 0.031453975
000150 a2 65 19 bd 84 35 a5 bd dd 28 04 3e 60 2b 2b 3b
       -0.03745044 -0.08066848 0.12906213 0.0026118383
000160 0f 8f ad bd 58 34 38 3d e3 83 f2 bd b5 10 3e bd
       -0.08474552 0.044971794 -0.11841562 -0.04640265
000170 23 95 7f 3e d2 ef ec bb 2e c3 7c bd a0 94 07 be
       0.24959235 -0.0072307372 -0.061709575 -0.1324029
000180 4d e4 62 be 84 0c 3d bf 2d 27 8e bc 1e ea 10 be
       -0.22157402 -0.7384722 -0.017352665 -0.14151809
000190 80 73 b3 3e 5b 71 37 bb 40 4f ec 3c 43 f6 ef 3b
       0.35049057 -0.002799115 0.028846383 0.007323058
0001a0 84 83 c9 bc 05 e8 dc ba b9 3a a6 39 b7 61 6e bd
       -0.024598844 -0.0016853815 0.0003170574 -0.058198657
0001b0 c9 a0 53 3c 52 14 ce 3b ce a0 20 3d b1 fd 8f 3c
       0.012916752 0.0062890435 0.039215855 0.017577024
0001c0 aa 1d 9d 3c 90 bb c4 bd cf 07 bf be 7a d0 4c 3e
       0.019179184 -0.09606087 -0.37310645 0.20001402
0001d0 08 47 2d be e6 3b 56 3a ba a4 ae 3a e8 7c 84 bf
       -0.16921628 0.0008172378 0.0013324239 -1.0350618
0001e0 14 29 04 3d c5 17 e8 bd 3d 80 2e be ab 18 69 3d
       0.032265738 -0.11332659 -0.17041107 0.05690829
0001f0 71 ea 24 3d 19 40 cd 3d 8d fa 2e bd ef 07 48 bd
       0.040262643 0.10021991 -0.042719413 -0.04883569
000200 7f 2d 23 3d 6a 6e 0c 3e 16 3f 3a bd 19 98 0c be
       0.03983831 0.13713995 -0.04547032 -0.13729896
000210 5d ea 6a 3d 5a 79 d3 bc c6 14 07 bd dc e7 5b 3e
       0.057352412 -0.0258147 -0.032978795 0.21475166
000220 8c d7 09 be 22 ab 69 bd 90 c7 95 3d d7 8f b8 3c
       -0.13461131 -0.05704797 0.07313454 0.022529526
000230 30 9f 8a bd 15 ad 0e 3c 59 51 14 bc c5 a7 c5 bb
       -0.06768644 0.008708258 -0.009052598 -0.0060319626
000240 7b b5 9f bc 7d f8 ad 3b 6a 46 8b bb d6 f6 09 bd
       -0.019495716 0.005309163 -0.0042503374 -0.033682667
000250 67 47 74 bc 3e 2e c0 3b ac 20 86 3d ac 79 b0 bc
       -0.014909602 0.0058648875 0.065492004 -0.021542393
000260 56 72 fc bc ee 48 1f be 0c 2a 0e bf 3c 47 bd bd
       -0.030816238 -0.15555164 -0.5553291 -0.092421025
000270 67 24 f0 bc bf fc 95 3c b7 5e 51 3f f1 72 ed be
       -0.029314233 0.018308995 0.8178515 -0.46376756
000280 4c 18 e8 bd 67 67 db 3e 20 8e 36 bd 5a 9c 93 bd
       -0.11332759 0.42852327 -0.044569135 -0.07207556
000290 51 fe 9c be 04 58 05 bd d2 7a 0e bd 78 31 b4 3e
       -0.30662778 -0.03255464 -0.0347851 0.35193992
0002a0 14 a4 be bd 0b d5 57 bd 9b 21 01 3c 9f f7 db bd
       -0.09308639 -0.052693408 0.007881547 -0.10740589
0002b0 12 44 bc ba 8f d8 f7 bd 89 27 65 be 25 aa 5d 3e
       -0.0014363548 -0.12101852 -0.22378363 0.21646936
0002c0 83 5d 85 bd fa 6f 72 be d5 08 6d be 20 5b 4d 3d
       -0.065119766 -0.23675528 -0.231479 0.05013573
0002d0 7a 4d ae 3c 91 3f 1c 3d 9f 2e b8 bd 69 e3 c8 bd
       0.021277178 0.03814656 -0.08993267 -0.09809
0002e0 06 f7 12 bd 9c 11 d5 3c 62 dd 41 bc 4c 3f 33 bb
       -0.03588011 0.026009373 -0.011832567 -0.002735096
0002f0 a5 a4 09 bc 9d 8e 79 bb dd bf 3f 3b 76 a5 d1 3a
       -0.008401071 -0.003807939 0.0029258647 0.0015994746
000300 74 d3 39 bd 28 c8 20 be 09 0e 20 be 4c 3e 0b 3d
       -0.045367673 -0.15701354 -0.15630354 0.033994958
000310 36 58 6d 3d 63 1e 98 3f 2a 71 4b bd 71 43 b9 be
       0.057945453 1.1884273 -0.04966847 -0.36184266
000320 cd c2 22 3e ca 54 22 be ee 9d b3 bd 56 d5 1d 3f
       0.15894623 -0.15852657 -0.08770357 0.6165365
000330 73 7d 46 3e d6 88 02 bd 94 c6 f8 3e 62 11 53 bd
       0.19383793 -0.03186878 0.48589003 -0.05153025
000340 ba e0 7e bd 0f df f9 3e 14 e8 c6 bd 2b 01 7f 3b
       -0.062226035 0.48802993 -0.09712234 0.0038910608
000350 b3 16 d7 bd 17 15 0d be b4 e6 c5 3c 3c e2 9d 3d
       -0.105023764 -0.13777576 0.02415786 0.077091664
000360 27 5f 1c be a1 93 44 bf 1c a8 ca bc 47 46 15 3b
       -0.15270673 -0.76787764 -0.024738364 0.0022777484
000370 83 7d fb 3b 1d 93 c9 3c b3 e4 10 3d 08 e1 72 3c
       0.0076748743 0.024606282 0.035374355 0.014824159
000380 ee 44 84 3d ce 28 4a 3c de 68 e1 3c 20 ed cc 3c
       0.0645846 0.01233883 0.027515825 0.025015414
000390 1e 3f eb bc db 08 96 3b 2c d0 93 bd 46 ec 31 be
       -0.02871662 0.0045786924 -0.0721744 -0.17375287
0003a0 8b 0a d9 3d c9 47 7b bb 59 6c c2 3c 59 6a 2c 3d
       0.10597714 -0.0038342348 0.023733305 0.04209361
0003b0 38 aa 82 bf d4 5f 16 3f c2 ec 8f 3d 97 d0 80 bf
       -1.0208197 0.5873997 0.0702758 -1.0063657
0003c0 35 f3 a8 3c f8 ce 24 3d 9a ab e0 3c a3 94 c8 bc
       0.020623783 0.040236443 0.027425576 -0.024484938
0003d0 dc 77 e2 3a f4 49 8e be ad 47 d2 3c 3d c0 b0 bc
       0.0017278153 -0.27790797 0.025668943 -0.021576041
0003e0 70 5f 8a be 1b 11 e7 3d 5e f4 98 3d 4e d8 05 3e
       -0.27025938 0.112825595 0.07468484 0.13070795
0003f0 10 22 85 3e 00 81 14 3e 9d e9 4a bd af 25 e7 3d
       0.2600255 0.14502335 -0.049539197 0.112864845

p_fcs.0.bias f4 [128]
000000 7f e6 fd bc 3a ae ca 3c 30 6e f1 3c d2 a2 2e 3b
       -0.030993698 0.02474128 0.029471487 0.0026647341
000010 d0 2d 18 39 61 fb 1e 3d d0 45 a0 3c 73 ec f4 3a
       0.00014512916 0.038813952 0.01956454 0.001868619
000020 80 ba 65 3c 61 5e 84 bd 4e 06 2b bb 09 19 14 3d
       0.014021516 -0.06463314 -0.0026096287 0.036156688
000030 ba e3 c1 3c 13 21 0d bc 53 be a6 bc 9c b0 44 bd
       0.023668159 -0.008613843 -0.020354426 -0.04801999
000040 64 5f 05 bd 65 90 dd 3c ad 71 87 3b 35 57 c6 bb
       -0.032561675 0.027046392 0.0041334243 -0.0060528764
000050 9d 4e 41 bd 11 31 9c bc da dd b5 3c f3 ce 3e 3d
       -0.047194112 -0.019066365 0.022200514 0.04658408
000060 aa e6 6f bd cd e5 1d bd c7 38 53 3b ae 4f 8b bc
       -0.058569588 -0.038549233 0.0032229887 -0.017005768
000070 3d 8a 0a 3d 64 b8 e9 3b f5 ee 41 bb b7 9b 3e bd
       0.03382324 0.007132577 -0.0029591892 -0.04653522
000080 fe e5 08 3c de 90 27 ba 81 d0 aa 3c de 8c b2 3c
       0.008355616 -0.00063921313 0.020851376 0.021795686
000090 af 2b f2 3c 7c e2 91 bb 56 fc 7c 3c 61 1c dc 3c
       0.029561846 -0.004452048 0.015441021 0.026869
0000a0 e4 4f 9c bc 6b 93 4b bb 57 93 db bc d4 49 d9 3a
       -0.019081064 -0.003106321 -0.026803656 0.0016577789
0000b0 ad 1a f6 bc 50 fb 17 bd 8d c0 32 bc 9d 98 63 3c
       -0.030042017 -0.037104905 -0.0109101655 0.013891366
0000c0 50 33 04 bb 85 60 3e bd fc 10 af 3a df 63 7c bc
       -0.0020172186 -0.046478767 0.0013356502 -0.0154046705
0000d0 42 69 f9 3c ef f4 e0 3c e9 9d 3f 3c 7c 66 bf 3b
       0.030445699 0.027460543 0.011695364 0.0058410745
0000e0 d3 4d a8 3d 77 55 81 3c 3e c2 14 bc ad af 39 bb
       0.08217969 0.015787823 -0.009079514 -0.002833347
0000f0 d1 1f 91 bc 2f 5b b3 bc 04 bf ba 3c 9c 7c 7c 3c
       -0.017715367 -0.021894066 0.022796161 0.015410569
000100 9c 29 1b bd 46 2a 38 3c bf 1a 42 bc e7 df 30 bd
       -0.03788148 0.0112405475 -0.011847197 -0.04318228
000110 de dd 39 3d 89 ad 0f 3d bb 0e 2f 3d d7 eb 8d bc
       0.045377605 0.035077605 0.042738657 -0.017324371
000120 53 5f 4e 3c 9b 9c d8 bb 82 e2 f0 bc 79 71 23 3d
       0.012595969 -0.0066104657 -0.029404882 0.039903138
000130 c8 18 45 bd 4d bc 60 3c 18 ba 01 bd f5 cd 33 3c
       -0.048119336 0.013716769 -0.031671613 0.010974397
000140 e3 42 9a 3c 85 91 b9 3c 0c 1c d4 bc 7e 2f da 3c
       0.018830722 0.022652397 -0.02589228 0.026633974
000150 63 d5 c0 bc 1b c3 57 3c ad 26 12 3d 44 24 82 bd
       -0.02353925 0.013169075 0.035681415 -0.06354573
000160 72 49 76 bd f8 b0 bf bc 4f 0e 60 bc 2b c7 5f bc
       -0.060128637 -0.023399815 -0.013675286 -0.013658325
000170 77 bb 38 bd ca 5a 00 3d 6c cc 05 3c ac eb 43 bd
       -0.045100655 0.031336583 0.008166414 -0.047832176
000180 7d f0 55 bd 58 80 c9 bc 24 5a be 3c 1c 1b 07 3d
       -0.0522313 -0.024597332 0.023236342 0.032984838
000190 82 71 a6 bc 44 76 d4 bc c6 b9 b3 3c 64 30 e5 3a
       -0.020317797 -0.0259353 0.02193917 0.0017485735
0001a0 66 7f 18 3d 38 4c 9a bc 2a c4 e8 39 b4 88 0b 3d
       0.03723087 -0.018835172 0.00044396642 0.034065917
0001b0 9e e7 43 3c 72 8f 00 3d b1 ff 92 bc bf df 18 bb
       0.011957077 0.0313868 -0.017944189 -0.0023326722
0001c0 49 d1 38 3c 18 31 f2 3c 7b 6e 7e 3a 08 e9 ed 3c
       0.011280366 0.029564425 0.0009705794 0.029041782
0001d0 f9 09 11 bc f8 44 24 bb d8 bb eb 3c e4 47 18 bc
       -0.008852475 -0.0025065523 0.028776094 -0.009294484
0001e0 2a 6d e4 3c e5 65 4f 3b 89 dd 8c bc 87 6f 38 bc
       0.027884085 0.0031646427 -0.01719548 -0.011257059
0001f0 e8 8b 9d 3b f7 91 29 bd fd b0 05 bd 1f b4 47 bc
       0.004807938 -0.04139897 -0.032639492 -0.01218894

p_fcs.1.weight f4 [128, 128]
000000 67 cb 0b bc ad ac b8 bb d4 46 b7 bc af a3 e3 bb
       -0.008532382 -0.005635819 -0.02237264 -0.006947003
000010 6d 2c bc bb b1 09 bc bb ae e5 87 bc b9 ab 6a 3c
       -0.0057426007 -0.00573846 -0.016589012 0.014323168
000020 1b 2a dd 3b 88 c7 0d bc 48 1a 4e 3b b1 ca e9 bb
       0.006749404 -0.008653529 0.003144877 -0.0071347584
000030 20 7a 63 bb ac 54 69 3a ba 07 ce ba 43 0b e1 3a
       -0.0034710243 0.0008900862 -0.0015718855 0.0017169494
000040 3b 94 18 39 e4 c2 22 3c e7 e6 03 bc da cc 1c 3b
       0.0001455107 0.009934161 -0.008050657 0.0023925812
000050 ad 43 b5 bc 4e c2 0f b9 6f 2a fe ba 6c 3d 53 bb
       -0.022126997 -0.00013709927 -0.0019391308 -0.0032232655
000060 78 3d 79 3c a9 5f ce bc 1b 24 0f ba 06 b2 d3 ba
       0.015212409 -0.025192099 -0.0005460397 -0.0016151078
000070 d2 5f 6d bc 84 ea 8d bc e2 cc 06 bb 29 17 9a 3c
       -0.014488177 -0.01732374 -0.0020568897 0.018809872
000080 6d d5 7e bc 55 43 ff 3b 4e 23 62 bb af 72 d5 39
       -0.015553814 0.007790009 -0.0034505907 0.00040711972
000090 d3 53 10 bc 71 10 16 3b 8c c3 15 3c 5b 7a 1e bc
       -0.008809048 0.0022897983 0.00914086 -0.0096727265
0000a0 90 5c 63 3b 9d c2 02 bc d3 d8 69 3b ac 75 9e 3b
       0.0034692623 -0.00798097 0.0035682216 0.004835805
0000b0 6f 9d 35 bc 25 da 25 3b fd f0 6e bb a7 8d 9e bc
       -0.011084898 0.0025307026 -0.0036459558 -0.019354654
0000c0 a3 5c 3c bc 85 bf bd bc aa b9 2f 3a 7d f5 5f bb
       -0.011496696 -0.023162613 0.00067033863 -0.0034173422
0000d0 40 9d 56 bc 13 a6 eb bb d6 f1 88 bb 2e 69 bf bb
       -0.013099015 -0.0071914284 -0.0041792197 -0.005841396
0000e0 e8 59 8d bb b7 3f d2 bc f5 28 36 bc 68 a3 bd bb
       -0.004313696 -0.025665147 -0.011118163 -0.005787302
0000f0 ae 3b 39 bc f1 58 e5 3b 6f 00 9b 3b 4d e9 28 bc
       -0.011305733 0.006999128 0.0047302763 -0.0103095295
000100 a7 17 32 bc e5 69 1d bb e6 df e4 bc a4 10 16 bc
       -0.010869897 -0.0024019417 -0.027938794 -0.009159241
000110 f6 25 8e bb 89 6c 3c bc c3 a7 0f bc 2c 1a 51 3c
       -0.0043380214 -0.011500486 -0.008768025 0.0127625875
000120 5b 19 bd bb 98 f7 96 bb 28 6c c8 bb fc 01 30 3b
       -0.005770845 -0.004607152 -0.006116409 0.0026856652
000130 93 6c 5d bb d1 b3 86 bc 96 10 7d bc c0 50 3c bb
       -0.003378664 -0.016443165 -0.015445849 -0.0028734654
000140 b1 8b 97 bc f6 ce 77 bb ca d1 32 3b 9c 3e 67 bc
       -0.018499227 -0.0037812567 0.0027285689 -0.014114048
000150 0c a0 e9 3b 86 ba 73 bb f8 cf e2 bb 8b 02 f7 3b
       0.007129675 -0.0037190034 -0.0069217645 0.007538145
000160 17 1c 2a ba db 63 93 bc 87 0c 3b 3a a6 c5 17 bc
       -0.0006489171 -0.01799195 0.00071353506 -0.009263432
000170 89 71 d0 bb e5 46 8d bb 98 bc 08 3b cf 7e 4f 3b
       -0.0063611907 -0.00431143 0.0020864364 0.0031661277
000180 5f ae 2b bc 40 a5 2e 3c 8f a3 75 bc 67 52 57 bc
       -0.010478585 0.010659516 -0.014992609 -0.013142205
000190 2a 6a 01 bc 3a 51 57 bc da 77 08 bc 64 4e 3f ba
       -0.007898847 -0.0131419245 -0.008329356 -0.0007297753
0001a0 c9 1a 55 bc e1 ce 03 bb e8 d5 c2 38 f2 15 11 bc
       -0.013006874 -0.0020112323 9.290484e-05 -0.00885533
0001b0 42 3a cd 3b b1 fd c4 ba b1 a8 f3 bb 31 4d 13 bb
       0.0062630484 -0.0015029219 -0.007435881 -0.002247643
0001c0 de dc 39 bc 1e c0 c7 bc 7d d7 8f bc fe ea 3c bb
       -0.011344163 -0.0243836 -0.017558808 -0.002882659
0001d0 ea 74 75 bc 52 f3 a0 bc 47 02 2b bc 33 0a ce bb
       -0.014981488 -0.019647274 -0.010437555 -0.006287837
0001e0 67 34 4c bb 08 c8 c3 bb 92 2f 78 bc c6 49 5e bc
       -0.0031159164 -0.0059747733 -0.01514806 -0.013567394
0001f0 15 26 07 bc 9f d4 2b bc 14 f8 4e 3c ac 29 e1 39
       -0.008248826 -0.010487705 0.012632389 0.00042946392
000200 4b 84 4e 3c bb c8 f6 3d 8f 4f 90 3d 01 22 6c 3d
       0.012604783 0.12050005 0.070464246 0.057649616
000210 8a 3d 8f bb ec ac 5b bd 9f 93 ff 3c 87 53 d7 ba
       -0.0043713497 -0.053631708 0.03119832 -0.0016428091
000220 bc 6e c1 bd 96 bf c1 3d 54 16 d5 bd 5e 78 24 bd
       -0.09444949 0.0946037 -0.104046494 -0.040153854
000230 69 cb f8 3d e7 14 ee 3c 25 f0 d5 bc 30 9e 7a 3d
       0.121481724 0.029062701 -0.026115486 0.061186016
000240 fe 28 64 3d 8a 23 91 3d 4f e8 ad bc ed eb c9 3d
       0.055703156 0.07086857 -0.021228937 0.098594524
000250 1f 34 e8 3b 5c 69 96 bc b3 e9 94 3d db cf 91 3c
       0.0070862914 -0.018360786 0.07271137 0.017799309
000260 f2 5e 0c 3b 04 7b 08 3c 63 08 24 be 3b d3 2f 3d
       0.0021418897 0.00833011 -0.16018824 0.042926054
000270 18 cb 81 bc 77 74 62 bd 91 02 f2 bd d5 de 4c bd
       -0.015843913 -0.05528685 -0.11816896 -0.050017197
000280 af 5a aa 3d c0 ce 9e 3d 86 70 26 3d fa 14 c6 3d
       0.08318078 0.07754278 0.040634654 0.0967197
000290 79 6d 38 3d fa 2b d1 3b ad e3 8f 3d 27 f3 db 3c
       0.045026276 0.0063834162 0.070258476 0.026849343
0002a0 d2 ad c3 3d 9b eb 2b bd f6 2d 0a 3d 35 d9 b7 3c
       0.09554638 -0.041972738 0.033735238 0.02244244
0002b0 de 0e ce 3b d9 29 44 3c 6c f4 dc 3c 6c 3b 46 3d
       0.0062883934 0.011972868 0.026972018 0.048396513
0002c0 37 66 35 bd 3f 4c 9c 3d df 16 36 3b 02 7d 7b bd
       -0.044286933 0.0763173 0.0027784628 -0.061398514
0002d0 64 70 ff 3d 5a e7 a2 bd c4 3a d9 bc 60 e5 63 bd
       0.12472609 -0.07954283 -0.02651728 -0.05563867
0002e0 71 85 1d bd f8 a0 b5 bc ae d4 83 bd 1e 03 11 3d
       -0.038457338 -0.022171482 -0.0643705 0.035403363
0002f0 c7 96 ba bd d8 c2 81 3d a2 16 09 bb 9d 3a 90 3b
       -0.0911079 0.063359916 -0.0020918031 0.0044015185
000300 24 f4 af bd 04 91 a4 bd 60 2e a9 3b 40 b0 9c bd
       -0.08591488 -0.08035472 0.005162999 -0.076508045
000310 76 2a c3 3c 63 ac ec 3d fa 22 7c bc 09 fc 20 3d
       0.023823958 0.11556318 -0.015389198 0.03930286
000320 13 0a 6d 3c 09 2a 2d bd 26 f5 09 bd 14 c7 9e 3d
       0.014467734 -0.042276416 -0.033681057 0.07752815
000330 db 12 b2 bd ab c7 8b bd 25 9f 3b 3d 7a 6b f6 3d
       -0.08695003 -0.06825193 0.04580607 0.12032218
000340 25 3e ae bd fd 8d 38 3c d0 46 3c bc 4a 22 9a bd
       -0.08507947 0.011264321 -0.011491492 -0.07526071
000350 25 e4 d9 3b 35 0e 14 bd 9e 35 d8 bc f8 d3 80 3d
       0.0066495114 -0.03614636 -0.026392754 0.0629043
000360 1b af 70 3d 99 0d eb bd e1 cd 00 be aa 97 ee bc
       0.058760744 -0.11477203 -0.12578537 -0.029125053
000370 f4 e9 7c 3d 91 99 87 3d 75 a5 32 3d 43 dd 00 3e
       0.061746553 0.06621087 0.043614823 0.12584405
000380 67 a0 bf bd d9 d1 d7 3d fe 9f d9 3d 1b a3 ef bc
       -0.09356766 0.10538072 0.10626219 -0.02925258
000390 6d 29 ec 3d 53 91 b5 bd a3 93 91 3d 47 b8 a9 bd
       0.11531339 -0.08865609 0.071082376 -0.08287101
0003a0 c8 8c 81 b9 c0 c7 fd bc 69 00 38 bc 6d 4e cf 3c
       -0.00024709688 -0.030979037 -0.011230567 0.025305951
0003b0 cb 79 27 3e 67 ba 5a 3d 27 ef 5a 3d f7 cf ed 3d
       0.16355054 0.053400423 0.05345073 0.11611932
0003c0 e8 cb 8d 3d 3e 37 41 3d 34 ae b5 bd d7 86 af bd
       0.06923658 0.047171824 -0.08871117 -0.085706405
0003d0 86 17 64 be fd ae 07 3c b5 4a 03 3e 89 4d a3 3d
       -0.22274598 0.008281467 0.12821467 0.07973773
0003e0 e5 fe cc bb 4d 79 1e 3d c8 cd 48 3d 5f 66 b7 bd
       -0.0062559717 0.0386899 0.049024373 -0.089550726
0003f0 11 48 a3 bd 88 e0 c7 bd 6d ea 75 3d 31 9f 49 be
       -0.0797273 -0.09759623 0.06003802 -0.19689633

p_fcs.1.bias f4 [128]
000000 07 70 31 bc a4 dd b7 3d ea c4 8b 3d 00 80 d5 bb
       -0.010829932 0.089778215 0.06824668 -0.006515503
000010 c8 64 63 3d 71 b3 51 3d ed 11 07 bd 8c 06 d1 ba
       0.055516034 0.05119652 -0.03297608 -0.0015947386
000020 75 51 ec bb e8 84 8f bc a9 f2 9d 3d c7 0d 5b 3d
       -0.007211859 -0.01751943 0.077122994 0.053479936
000030 26 af 71 3d 3a fa 5c 3c 55 f1 bd bc 50 0c dc 3c
       0.059004925 0.013487393 -0.023186365 0.02686134
000040 39 eb 3c 3c ff 88 85 3c fa 84 b1 bb bc c6 9d 3c
       0.011530691 0.016300676 -0.0054174634 0.019259803
000050 00 ee 99 3d 59 cf 43 3d 3e ce e7 bc bb 93 f6 3d
       0.07516098 0.047805164 -0.028296586 0.12039896
000060 29 3b 74 bc 4e 47 b3 bc 46 e3 2a 3d fc ef c8 3c
       -0.014906683 -0.021884587 0.04172065 0.024528496
000070 8a fe d7 3c 87 ca 33 bc 5c ae 85 bc 0f 21 9e 3d
       0.02636649 -0.010973579 -0.016318493 0.07721149
000080 86 42 0d bc 78 e6 45 3d 18 ca 32 bc ce 6f 25 3d
       -0.008621817 0.048315495 -0.010912441 0.04038983
000090 d6 cf 99 3c 94 4e cb bc ce 69 fc 3c 8c c6 b1 3c
       0.018775862 -0.024817742 0.03081217 0.02170112
0000a0 00 d6 59 3d 34 88 35 3d 42 9a 00 3d 8f 40 95 3d
       0.053182602 0.044319347 0.03139711 0.07287704
0000b0 8b 3a 06 3d b2 8b 19 3d 34 c5 b2 3d c9 6a f2 b9
       0.032770675 0.03748674 0.0872902 -0.00046237398
0000c0 0f 59 10 3d de 10 d2 3d e0 fa 87 3d 8b b6 0d 3b
       0.035241183 0.102571234 0.066396475 0.0021623697
0000d0 96 25 67 3b c0 b2 cb 3d f3 a0 8e 3d c8 79 80 bc
       0.0035270206 0.09946203 0.069642924 -0.01568307
0000e0 8e 9a 2c bc d8 39 f3 3c 84 27 4e b8 c5 e2 01 3d
       -0.010534896 0.029690668 -4.915103e-05 0.031710405
0000f0 a6 e6 22 3d 99 15 4c 3d a5 d1 dd 3d 8c b2 88 3d
       0.039770745 0.049825285 0.10831002 0.0667468
000100 df 7d 9d bc 9e 8b a8 3d bb a7 57 bd 89 43 35 3d
       -0.01922506 0.08229755 -0.052650195 0.04425386
000110 bc 8d e9 3d 39 1f 2c 3d 06 bc 19 3d a1 3a 49 3d
       0.11403987 0.042021964 0.03753283 0.04912818
000120 fa 8e a5 3d 41 c1 f1 3d 63 d9 0b 3c 3c c1 08 3d
       0.08083911 0.118044384 0.008535716 0.033387408
000130 01 3d 8b 3d 29 25 4e bc a2 ff 81 bc 5e b6 bc 3c
       0.06798745 -0.012582102 -0.015868966 0.023036178
000140 4c 13 6b 3d 85 f8 6c 3b c3 5f ae bc 2c 07 4f 3d
       0.05739145 0.0036158871 -0.021285897 0.05054395
000150 d4 06 78 3d 40 d3 07 3d a9 75 92 3d ab bb 39 3d
       0.060553387 0.033160448 0.07151348 0.04534499
000160 8d 30 35 bd c6 68 cf 3c 37 0a fc 3a e5 4f 36 3d
       -0.044235755 0.025318515 0.0019229118 0.044509787
000170 5c cb 48 bc 08 c4 84 3d 38 ca 30 3d a6 71 f3 3c
       -0.012255516 0.064827025 0.0431616 0.029717278
000180 9d 37 89 3d 3d d7 b6 3d 9d fe 29 3d 81 49 f1 3c
       0.067000605 0.08927772 0.041502584 0.029453995
000190 19 b7 91 3d 84 d1 bd 3c c5 57 3d 3d c9 e9 2c bc
       0.07115001 0.023171194 0.04622628 -0.010553786
0001a0 44 d3 8e bb 3e 4e 72 3d fe d7 95 3d 0a d9 19 3b
       -0.004358681 0.05915665 0.07316588 0.0023475313
0001b0 21 cf c6 3d af f6 40 bd 93 99 9b 3d 22 ab e4 bb
       0.097074755 -0.047110256 0.07597651 -0.0069784084
0001c0 47 09 32 bc ea e0 b6 bc 8f 86 fb 3b e1 f3 1d bc
       -0.01086647 -0.022324044 0.0076759527 -0.009640665
0001d0 11 59 3d 3d a9 63 1b bd 4d c4 95 3d bb 10 6a bc
       0.04622752 -0.03793684 0.07312832 -0.014286215
0001e0 56 ef 93 ba 23 0a 6c bc b8 dc b1 bb 42 c3 61 3d
       -0.0011286538 -0.014406714 -0.005427923 0.055117853
0001f0 43 7f 4c bd bc b3 39 3d 9b 42 83 3d d2 19 15 3c
       -0.049926054 0.045337424 0.06409188 0.009100394

v_fcs.0.weight f4 [128, 39]
000000 32 ee f7 be 08 7e f1 be 6d 0f 14 41 11 2c 4f 40
       -0.48423916 -0.47166467 9.253766 3.2370646
000010 e1 d9 2c be 93 36 16 40 65 2d b0 be 41 1e cf 3e
       -0.16879989 2.347081 -0.34409633 0.4045277
000020 a6 91 be 3d 9e 56 47 3e 07 ab dc 3e f7 16 11 40
       0.09305124 0.19466636 0.43099234 2.2670267
000030 c2 5c 62 3e 83 d7 19 3f 39 2a 87 bf a7 04 3f 3e
       0.22105697 0.6009447 -1.055976 0.18654118
000040 23 3d 05 3f cb a4 85 3f 9a 8e e2 bf a1 14 b0 bd
       0.5204641 1.0440916 -1.7699769 -0.08597685
000050 e1 86 ef bb 5b 64 ab 3d 56 7e 1b 3e 1b ae 9b bc
       -0.00730978 0.08368751 0.15184912 -0.019003918
000060 35 b8 92 bd 7d 82 a9 3b d0 49 c4 bc 25 4e c2 bb
       -0.07164041 0.005173026 -0.023960978 -0.0059297257
000070 1f e6 78 bc 42 e0 9c bb ea 1c 04 3d da 0f f0 bc
       -0.015191584 -0.004787476 0.032254137 -0.029304434
000080 be 32 3a bd 04 64 3f 3d ae 34 3c 3d 92 ac 0a 3f
       -0.045458548 0.04672624 0.045948677 0.5416957
000090 48 09 bd be fd 1a 2a 3d 3a 37 7d 3e 06 44 a4 be
       -0.36921144 0.041529644 0.24728099 -0.32083148
0000a0 c0 d1 3a bf 9f 8f 5c be 59 8a c2 3f 54 da 23 40
       -0.72976303 -0.21539162 1.519847 2.5602007
0000b0 13 92 61 3f 54 ab 2f bf 1e ac 38 3f 1e 18 45 bf
       0.88113517 -0.686208 0.7213763 -0.76989925
0000c0 ef fd 44 bf 6e 53 8e 3f 0d e1 56 3e 73 84 26 bf
       -0.7694997 1.1119211 0.20984288 -0.6504585
0000d0 0a 05 79 3f 7e 16 e2 3f fc 87 2e bf 65 61 63 3f
       0.97273314 1.7663114 -0.68176246 0.8882049
0000e0 41 ec be be e5 fe ea be 70 83 87 3d c1 46 04 bf
       -0.37289622 -0.45897594 0.066168666 -0.5167046
0000f0 60 26 56 bf b4 a7 ac 3f b4 d8 54 be 9c 26 15 3e
       -0.83652306 1.3488679 -0.2078579 0.1456551
000100 d1 cf e7 3c 6e b1 a6 3e fa 97 fe bd dc a6 fe bc
       0.028297337 0.32557243 -0.12431331 -0.031085424
000110 18 83 ef bd 45 01 9a bc 67 79 5b bc bc 6b 62 be
       -0.11694926 -0.018799433 -0.013395644 -0.2211141
000120 7a 25 93 3d 60 f9 3d 3d 56 78 29 3f 46 25 1c bf
       0.071848825 0.0463804 0.66199243 -0.60994375
000130 81 9e cf 3d af 41 65 3e 2f f0 4d be 64 d2 57 be
       0.10137654 0.22388338 -0.20111154 -0.21076351
000140 47 2d e0 3d 3c bc 18 3d 15 e1 76 3d af 16 cd ba
       0.10946136 0.03728889 0.06027325 -0.0015647019
000150 c3 0d 59 be 6a 32 69 3e cf 21 9b bd 6f 7c 52 be
       -0.21196656 0.22773138 -0.07574808 -0.2055528
000160 fe 77 68 3e 00 ee a5 3d 71 15 57 be 1b 7e 65 3e
       0.22702023 0.081020355 -0.21004273 0.22411387
000170 88 d6 11 3e bc 54 60 be 17 dc 3e 3e 41 4f 4c 3e
       0.14241993 -0.21907324 0.18638645 0.19952108
000180 eb 63 af bd be bf 7d 3e 8d f2 a2 bc 46 0b 1f 3e
       -0.0856398 0.24780175 -0.019891048 0.15531644
000190 0f 20 07 3e 67 9b 76 3c dc a4 64 bc 7d 9f 26 3c
       0.13195823 0.015051699 -0.013955321 0.010169861
0001a0 20 08 16 bc 66 15 c7 3c 29 f8 26 3d 10 71 21 bd
       -0.009157211 0.024302196 0.040764008 -0.039414465
0001b0 4c 67 65 3c 33 f9 d3 3b ff fb 15 3d 0f 03 a2 3d
       0.014001679 0.006468916 0.036617275 0.0791074
0001c0 0d 8d 56 3c aa 49 50 3e 5d 17 a8 bd 21 c3 0f 3d
       0.013095153 0.203406 -0.08207581 0.0350982
0001d0 51 42 c8 3b 14 b3 8f 3f 3e f0 b4 3e d8 4d 28 bf
       0.006111421 1.1226525 0.3533954 -0.6574378
0001e0 d2 ca 6b 41 54 13 0b 40 b1 a9 e7 3f 4a 02 9b 3e
       14.737017 2.1730547 1.8098661 0.30275184
0001f0 8b 85 c1 bd b4 ae 9c 3f db 33 ff bf ee 12 46 40
       -0.094492994 1.2240815 -1.99377 3.0949054
000200 cc 21 46 be 8b 66 5e 3f 1d 42 28 3e 19 7a b1 3e
       -0.1934883 0.8687522 0.1643147 0.34663466
000210 10 0b fd be 2e c5 d4 be 0b b2 0a c0 27 96 d5 bf
       -0.49422503 -0.41556686 -2.1671169 -1.6686448
000220 dc c2 7e bf 7a c6 17 3f 99 35 06 3f 26 36 45 3f
       -0.9951608 0.59287226 0.52425534 0.7703575
000230 48 a5 ce 3d 81 7c 79 bd 46 28 a1 3b a7 2d 48 3e
       0.10090119 -0.06090975 0.004918131 0.19548665
000240 6e 21 bc 3d c1 a5 0c bc bc 7b 13 3d 37 22 7b 3d
       0.09186064 -0.008584441 0.036006674 0.061311927
000250 8b 84 13 3d 90 94 85 3b 91 17 6c 3d a4 65 15 3c
       0.036015075 0.004076548 0.057639662 0.009118471
000260 81 f4 82 be 1b a3 15 c0 f5 7a 2b bf 74 d6 85 3e
       -0.25577167 -2.3380802 -0.6698449 0.26140177
000270 46 6e 16 bf d2 7b ff be d7 17 c6 bf dc d6 4f 40
       -0.58762014 -0.49899155 -1.5476025 3.247489
000280 d1 2b f9 3f 88 ed 4e bf 1a 8d 31 bf bb 28 0a 3f
       1.9466497 -0.80831194 -0.6935593 0.539684
000290 bc 1d f6 3e 5d 49 7c bf 51 cb 88 3e c9 d7 95 be
       0.4806956 -0.98549443 0.26717618 -0.29266194
0002a0 74 98 34 3e 15 d0 0b 3f b4 c2 17 3c c2 b7 83 be
       0.17636281 0.54614383 0.009262729 -0.25726134
0002b0 c1 7f ff 3e be 76 04 40 42 a3 05 40 bc 25 38 3f
       0.49902156 2.0697474 2.0880895 0.7193258
0002c0 a3 86 ac 3e fe 9a a9 be c2 b0 8c 3d 25 a3 14 be
       0.3369647 -0.33126062 0.068696514 -0.1451536
0002d0 4a 5a 7d bb 2c d6 71 3c 03 ea 05 3e 6a 73 cd bd
       -0.0038658553 0.014760535 0.1307755 -0.10031779
0002e0 9b 6f 90 bd 80 f4 4f 3e 26 01 37 be fc 05 07 bd
       -0.07052537 0.20308113 -0.17871532 -0.03296469
0002f0 fd e2 0b 3e 29 a0 75 bd bd 40 da bc 01 49 e3 3e
       0.13660808 -0.059967194 -0.026642198 0.44391635
000300 62 ed 1a bf 55 29 c1 bd 99 ac b9 bf 09 08 0a bf
       -0.6051847 -0.094317116 -1.4505798 -0.5391851
000310 42 8d 19 bf 31 32 09 3f 1f dd 12 40 1c 95 50 3f
       -0.5998117 0.5359221 2.2947462 0.8147752
000320 6e b2 85 be d5 6b 09 bf 7b a7 f8 3e 2e 0a 4f 3f
       -0.26112694 -0.53680164 0.48565277 0.8087491
000330 d0 40 bd be 17 6f 02 3f 14 11 b7 bf 91 72 93 be
       -0.3696351 0.5095076 -1.4302087 -0.28798345
000340 4f 27 27 3f 81 53 7f 3f ed 04 c9 be 1a 97 02 3f
       0.65294355 0.9973679 -0.3926157 0.5101181
000350 0c cb 43 3f 30 e5 a6 be 23 ec 91 3d 24 3a a0 3b
       0.764817 -0.3259673 0.07125118 0.0048897434
000360 5b a5 cd 3e db 25 0a 3f 16 cd 3f 3d 86 d9 b5 3d
       0.4016522 0.5396401 0.046826445 0.0887938
000370 2d b5 4e 3d 19 c5 08 3d c2 70 a6 3d 93 2c 74 3d
       0.05046575 0.033391092 0.081269756 0.05961282
000380 3a b7 71 3d fb 09 40 3e 65 bb ca 3d 0b 03 e1 bc
       0.05901263 0.18753807 0.09899024 -0.027467271
000390 5d 11 ad bd 13 d8 0b bd 40 aa 0c 3f b7 b6 ab bf
       -0.084505774 -0.03414161 0.5494728 -1.3415135
0003a0 8e 58 1d 3f 46 1a 06 be 53 fa fe be 9d 24 2f bf
       0.6146325 -0.1309596 -0.49800357 -0.6841524
0003b0 fb 90 a0 bf af 2e 41 40 63 df 09 3f ac b4 a3 3d
       -1.2544245 3.0184743 0.53856486 0.07993445
0003c0 98 98 ff be 97 6a 64 3f 90 af 4a 3f a6 5f 06 bf
       -0.49921107 0.89225143 0.7917414 -0.524897
0003d0 13 a0 20 3f 93 40 e2 bd e7 5f 12 bf 85 c9 51 3f
       0.62744254 -0.11047473 -0.57177585 0.8194812
0003e0 e3 f1 1e 40 dc a3 cf be ab 7a 5c 3f 2c ec 7e 3f
       2.4835136 -0.40554702 0.86124676 0.9957912
0003f0 4d f9 2c be a5 8a 5d 3e d0 4d e2 3c bc 75 3d 3e
       -0.16891976 0.2163492 0.027624995 0.18501943

v_fcs.0.bias f4 [128]
000000 4b bc eb be 55 4f 37 bf 36 d2 59 be 22 ae 9f 3e
       -0.46042094 -0.71605426 -0.21271595 0.3118754
000010 a4 af 05 bf c5 64 1e bf a3 a5 2c bf da a9 90 bf
       -0.5222113 -0.6187251 -0.6744024 -1.1301835
000020 f9 27 8d 3d 07 d0 57 bf b1 2e 57 bf 6e 18 9c be
       0.0689239 -0.843018 -0.8405562 -0.30487388
000030 99 30 5e bf b8 78 03 bf f0 33 10 bf 72 9b 8c 3e
       -0.86792904 -0.5135608 -0.5632925 0.27462345
000040 ad 2a 5d bf 96 2e c6 3d 15 68 37 be a2 3d c6 3d
       -0.86393243 0.09676854 -0.17910798 0.09679724
000050 33 54 14 bf 5b c6 1e be fe a1 b8 be 14 e6 c3 be
       -0.5794098 -0.15505354 -0.3606109 -0.38261473
000060 92 49 04 be fe bb 91 bb 79 6a e5 bd 7e 92 b6 be
       -0.1291869 -0.0044474592 -0.11201949 -0.3565864
000070 ff 34 fb be 7a 89 24 bf b2 0f f2 be c5 33 0e bf
       -0.4906387 -0.6427227 -0.472776 -0.55547744
000080 50 5f dc be 99 d9 80 bf fa d4 75 3e 45 b8 8b be
       -0.43041468 -1.0066406 0.24007025 -0.27289024
000090 8c cd 6a be 83 b3 29 bf 94 49 19 bf f6 7f 43 bf
       -0.22929972 -0.6628954 -0.59877896 -0.7636713
0000a0 c4 30 26 bf 66 0a 01 bf 92 23 18 bf 0b cc 63 be
       -0.6491816 -0.5040649 -0.59429276 -0.22245805
0000b0 c0 6b 24 3d d5 ae 8e be 0d a8 ed 3e 1c 4b 03 bf
       0.04014182 -0.2786776 0.46417275 -0.5128648
0000c0 92 8e ff be 6b 8c 6c be 97 98 c5 be b2 9b ed be
       -0.4991346 -0.2310044 -0.3859298 -0.4640785
0000d0 ee d8 76 bf 73 6a 8e be bf 21 4c be d4 ca 2e bf
       -0.9642476 -0.2781559 -0.19934748 -0.6827824
0000e0 63 68 10 bf 16 d3 c5 be df 06 9a 3e 7d 6c be be
       -0.5640928 -0.38637608 0.30083367 -0.37192145
0000f0 bf db a0 be 33 aa ab 3d fc f7 db bd 4f 32 ac be
       -0.31417653 0.08382072 -0.10740659 -0.33632132
000100 78 6f b5 be 75 87 1e bf 7f a4 92 bd 2c 25 52 be
       -0.35436606 -0.6192544 -0.071602814 -0.20521992
000110 bf 40 18 be e6 68 27 be 2b 86 7a be 82 71 5f bf
       -0.14868449 -0.1634861 -0.24465244 -0.87282574
000120 16 5d 11 3f cf 27 52 be 70 42 98 be ae 28 98 3f
       0.5678266 -0.20522998 -0.29738188 1.1887414
000130 3e 05 33 bf bd 96 02 bf 3b 1e 00 be 52 90 e3 be
       -0.69929874 -0.5101126 -0.12511532 -0.44446045
000140 9e 14 bc be e6 a9 19 be 15 6a 74 bf b9 25 7d 3e
       -0.3673448 -0.15006217 -0.9547437 0.24721421
000150 0a c7 cd be 7c 07 30 bf d5 e9 56 bf b7 b5 9c be
       -0.40190917 -0.6876142 -0.8395055 -0.30607387
000160 73 0a e5 be a0 2e 25 bf eb 8d 2f bf d2 41 71 be
       -0.44734535 -0.6452427 -0.68575925 -0.23560265
000170 b5 0b dd 3c 90 c8 5d bf 91 7e 2a bf 0b 2e f7 be
       0.026983121 -0.8663416 -0.66599375 -0.48277315
000180 80 e9 ec be 0d fe aa be 05 de 9a be 00 be 9c be
       -0.46271896 -0.3339695 -0.30247512 -0.30613708
000190 bf da 31 bf 25 a0 c6 be 06 b2 ce be 3b e7 2f be
       -0.69474405 -0.38794056 -0.40370196 -0.17178051
0001a0 d7 05 19 bf 4c ae 1c bf d3 e5 98 be 56 cc 9a be
       -0.59774536 -0.61203456 -0.29862842 -0.3023402
0001b0 1a 64 d9 be b5 03 04 bf 59 bb 8e be 28 03 ff be
       -0.42459184 -0.51568156 -0.2787731 -0.49807096
0001c0 54 59 1b 3f 90 19 09 bf f2 85 c1 be 3b 22 8b be
       0.6068318 -0.5355463 -0.37797505 -0.27174553
0001d0 4f 14 2c bf 64 42 3e bf 6f 2a bd be 4f ca de be
       -0.6721849 -0.74320054 -0.36946437 -0.43513724
0001e0 c6 b1 12 bf 7d 67 82 3e 37 65 5e be b6 5d 37 be
       -0.5730251 0.2546958 -0.21718298 -0.17906842
0001f0 5e ad b3 3d 52 87 22 bf a6 d0 39 be 23 8c b8 3d
       0.087733015 -0.6348773 -0.18146 0.09011104

v_fcs.1.weight f4 [128, 128]
000000 19 5d e8 bf e9 b9 ad be ea 55 ca bc 3d a9 a3 3e
       -1.8153411 -0.339309 -0.02469917 0.31965056
000010 c3 1b 63 3e ed 0f 45 be 8c 7f 50 3e d9 b4 8b 3f
       0.22178559 -0.19244356 0.20361155 1.0914565
000020 79 6a 39 3f b4 1e bf be 56 a0 3c be b4 4f a4 3d
       0.7242809 -0.37328112 -0.18420538 0.08023015
000030 29 53 89 3e 20 75 0b 3e 6f 4f 21 c0 ba 56 28 be
       0.2682126 0.13618898 -2.5204732 -0.16439334
000040 2b 93 4f 3e 4d eb 92 3e 32 f5 a2 bd 6a ef 07 3f
       0.20270984 0.28695145 -0.079569235 0.5309969
000050 2d 7a 95 c0 74 85 92 bf 98 f3 62 3f 1e 78 47 3d
       -4.671164 -1.1446977 0.88652945 0.048698537
000060 da de aa 3d 10 aa b5 3e 1f 5e 3e bb e9 f3 c0 3e
       0.08343287 0.3548131 -0.00290478 0.3768609
000070 45 47 a8 bf b6 02 72 c0 e5 9b f3 bf 3e 91 55 3e
       -1.314675 -3.7814155 -1.903195 0.20856187
000080 f8 50 3b bf 37 9b e0 3b cb fc 20 3e d6 40 09 be
       -0.73170424 0.0068544406 0.15721433 -0.13403639
000090 a9 d5 80 bd d3 8a df bf d5 62 5f c0 44 4a 23 3e
       -0.062907524 -1.7464241 -3.4904072 0.15946299
0000a0 a7 7f de 3e 73 43 b2 be 31 f5 4d 3e d9 45 f8 bd
       0.43456766 -0.34817085 0.20113064 -0.121226974
0000b0 e5 b3 3a be dc 56 04 be 76 c4 f3 3d 5b 0b 1e c0
       -0.18232687 -0.12923759 0.11902706 -2.469443
0000c0 05 9d a3 be 8c 69 76 bd 17 2e 61 3e 70 ee f8 3e
       -0.31955734 -0.06015925 0.21990238 0.48619413
0000d0 1a 2f d9 be 14 22 33 c0 43 86 e5 3c f6 26 9f bf
       -0.42418748 -2.798955 0.028018123 -1.2433765
0000e0 7a c4 d1 be 69 d7 a1 3c b7 b2 51 3e 4e 23 c1 3d
       -0.40970212 0.019756036 0.2047833 0.09430562
0000f0 e6 58 ae bd aa 16 00 3f 23 83 02 3f ef 84 96 3e
       -0.0851305 0.5003458 0.5098135 0.29398295
000100 b2 35 8b c0 d8 79 65 3e 52 84 57 bf b2 a6 36 3e
       -4.3503046 0.22409761 -0.8418628 0.17837027
000110 5e 22 90 bd 87 94 54 bf 06 c3 ce c0 34 0a 60 3f
       -0.07037805 -0.83039135 -6.4613066 0.8751557
000120 d3 c0 94 3d 53 7f 1a be 94 d0 06 c0 6f 4b b6 3e
       0.07263341 -0.15087633 -2.1064806 0.35604426
000130 f7 06 18 3e 02 22 34 c0 c6 3d 31 bd 70 25 2c 3e
       0.14846407 -2.8145757 -0.043271802 0.16811156
000140 9c 37 aa be d7 d5 98 3c 73 50 2c 3e 76 3b c1 3e
       -0.33245552 0.018656654 0.16827564 0.37740678
000150 bc 5d 95 be 7a 05 16 bf 24 9a e1 bd 95 c8 7f 3d
       -0.29173076 -0.58602107 -0.11015728 0.06244715
000160 49 b2 d1 bc 40 cf 1a bb b2 c2 9e 3d 4a a7 12 bd
       -0.025597708 -0.0023622066 0.07751979 -0.03580407
000170 f7 e8 d8 3d 60 df bb 3d 9d 4b 8e bf eb 72 e8 be
       0.105913095 0.09173465 -1.1116825 -0.45400175
000180 50 50 78 be ce af 9c bd 40 e9 a0 c0 a1 92 26 3c
       -0.24249387 -0.076507196 -5.028473 0.010166795
000190 be c4 c0 3d fb fb 0d 3f 59 e7 bb bd fc 47 9e 3c
       0.094125256 0.55462617 -0.091749854 0.019321434
0001a0 d0 9e 54 c0 eb da 99 3e ea 78 13 be 2f d6 5b be
       -3.3221931 0.30049834 -0.14401594 -0.21468423
0001b0 68 7d 31 3e 5e cd 47 be f8 b0 c2 3d 9f 7b 92 bf
       0.17332995 -0.19511935 0.0950641 -1.1443976
0001c0 6a 30 54 3d 83 c2 8c c0 76 91 8a bf fe 7c 9f 3d
       0.051803984 -4.398744 -1.0825641 0.07787512
0001d0 36 dc 05 3e 25 6b b2 bf 38 21 91 c0 58 8d 44 3f
       0.13072285 -1.3938948 -4.535305 0.76778173
0001e0 a7 ce f8 be d8 cc f7 3e 01 db 0f 3e 01 f7 b7 bd
       -0.48595163 0.4839847 0.14048387 -0.08982659
0001f0 9f 9d fc bd 21 fc 38 bf f3 e0 10 3c c7 03 02 3e
       -0.12334751 -0.7225972 0.008842695 0.12696753
000200 30 34 4e bd ed d6 9e bd ab eb 64 bd 7e ab 82 bd
       -0.05034274 -0.077558376 -0.055888813 -0.06380366
000210 9b 8d 8f bd cc fa 68 bd 89 37 56 bd c2 5d 7a bd
       -0.07009431 -0.056879804 -0.052299056 -0.06112457
000220 42 fe 5a bd 89 f9 45 bd 77 d3 61 bd 5b 0a 7e bd
       -0.053465135 -0.04833368 -0.05513331 -0.062021594
000230 ce 6a 5e bd 54 5e 93 bd bf 65 37 bd 6b a5 44 bd
       -0.054301076 -0.07195726 -0.044774767 -0.048009317
000240 a1 b9 5e bd be 8d 7c bd 0a 6d 4c bd a2 6a 6a bd
       -0.05437625 -0.061658613 -0.049908675 -0.0572306
000250 19 74 24 bd 26 8c 68 bd 13 d1 66 bd f0 df 88 bd
       -0.04014978 -0.05677428 -0.056351732 -0.06683338
000260 21 a4 4d bd d8 51 81 bd 86 67 3c bd f5 41 83 bd
       -0.050205354 -0.063144386 -0.045997165 -0.06409065
000270 b2 81 6c bd c4 a6 5d bd 5d 49 64 bd 3f 8f 81 bd
       -0.057740875 -0.05411412 -0.055734027 -0.0632615
000280 f7 28 75 bd 50 f5 73 bd 9c 33 61 bd 44 c0 4e bd
       -0.05985352 -0.05956012 -0.05498086 -0.050476328
000290 86 af 9b bd 01 41 4e bd 16 e9 7b bd e0 4e 6e bd
       -0.07601838 -0.05035496 -0.061501585 -0.05818069
0002a0 0f ae 61 bd e3 66 48 bd a0 4f 7c bd 67 82 6c bd
       -0.055097636 -0.048926245 -0.061599374 -0.05774155
0002b0 8a 30 5e bd d1 da 92 bd 71 3a 80 bd 32 06 52 bd
       -0.05424551 -0.07170642 -0.06261147 -0.05127544
0002c0 f3 9d 72 bd 4e 73 51 bd 3f 1f 9c bd 87 06 3e bd
       -0.059232663 -0.051135354 -0.07623147 -0.046392944
0002d0 19 d7 72 bd 1b 2e 39 bd e6 4f 7f bd 86 9b 68 bd
       -0.059287164 -0.045209985 -0.062332056 -0.056788944
0002e0 54 12 69 bd b8 26 a7 bd 7c c5 9b bd a3 df 59 bd
       -0.056902245 -0.08161682 -0.076060265 -0.053191792
0002f0 6b d8 23 bd 65 79 64 bd 19 fb 5e bd 11 06 65 bd
       -0.040001314 -0.055779833 -0.054438684 -0.05591399
000300 9c 22 42 bd a2 5a 3d bd 90 b0 4f bd 6a 88 5f bd
       -0.047396287 -0.046229012 -0.050705492 -0.054573454
000310 6c fe 44 bd 8d f9 72 bd ed ad 6d bd f3 4b 42 bd
       -0.048094198 -0.05932002 -0.058027197 -0.047435712
000320 cc f0 92 bd e5 f3 62 bd 03 31 66 bd f9 8c 84 bd
       -0.071748346 -0.055408377 -0.056199085 -0.06472201
000330 74 e1 75 bd dc 84 3e bd b7 50 64 bd c2 e9 5b bd
       -0.060029462 -0.046513423 -0.05574104 -0.053689726
000340 75 e7 a3 bd 5e e4 63 bd d2 7a 7d bd cd 4a 77 bd
       -0.08003131 -0.05563771 -0.06188471 -0.06037407
000350 16 83 97 bd 48 dd 7d bd 22 a4 81 bd 16 11 9c bd
       -0.073980495 -0.06197861 -0.06330134 -0.076204464
000360 b6 36 89 bd 63 1c 89 bd 8e a4 5f bd 6c 1a 9a bd
       -0.066998884 -0.066948675 -0.05460029 -0.07524571
000370 99 20 79 bd 5b 1f 51 bd 74 f4 7a bd 62 5d 88 bd
       -0.060822103 -0.051055294 -0.061268285 -0.06658436
000380 a7 38 2d bd 5e 85 47 bd 17 ee 63 bd 3f 35 26 bd
       -0.042290356 -0.048711173 -0.055646982 -0.040578123
000390 2d b9 7c bd bf 89 75 bd c9 c1 48 bd 9a 48 6e bd
       -0.061700035 -0.059945818 -0.049012933 -0.058174707
0003a0 7d 33 66 bd cf 23 90 bd e6 3b 3a bd ae 7a 72 bd
       -0.056201447 -0.0703808 -0.04546728 -0.059199028
0003b0 89 02 6b bd 9a e7 84 bd eb 73 59 bd 6f a8 88 bd
       -0.057375465 -0.06489487 -0.053089064 -0.06672751
0003c0 59 24 8e bd ae ee 7e bd 7e 42 5d bd 58 ff 8b bd
       -0.069405265 -0.06223934 -0.05401849 -0.06835812
0003d0 5a 10 42 bd 09 de 85 bd 2b 75 85 bd e2 d1 3c bd
       -0.047378875 -0.065364905 -0.06516489 -0.046098597
0003e0 8a b9 6e bd 6e 56 81 bd 3f 5b 7f bd b9 97 99 bd
       -0.058282413 -0.06315313 -0.06234288 -0.07499642
0003f0 00 6e 8f bd ba de 7a bd 64 1d 82 bd 05 bb 53 bd
       -0.07003403 -0.061247565 -0.06353262 -0.051692028

v_fcs.1.bias f4 [128]
000000 ae a9 ba 3f 46 1a 71 bd f2 e8 41 bb 1f 0c c3 3c
       1.4583032 -0.058862947 -0.002958831 0.02380949
000010 dd 59 65 3c f5 04 d3 3c 96 ec b1 bd 19 11 5f bd
       0.013998476 0.0257592 -0.08687703 -0.054459665
000020 e2 fc 88 bd 8f a6 a6 bc 70 4b 40 bd 04 4a d2 3f
       -0.066888586 -0.020343093 -0.046946943 1.6428838
000030 7f 7f 54 bd ce 17 cb 3c f2 0f 60 3b 91 8f a7 3b
       -0.051879402 0.024791624 0.0034189192 0.00511355
000040 0c ce 89 3c 33 c0 ca bd eb 09 96 bd 92 0b 61 bd
       0.016821884 -0.0989994 -0.073261105 -0.054942675
000050 f2 be 50 bd 9b 86 46 bd 1c 4b 92 bd fd 3f ec 3b
       -0.05096335 -0.048468214 -0.07143232 0.0072097764
000060 16 21 64 bd 56 28 7f bd f6 c8 48 bd dc 24 6f bb
       -0.055695616 -0.062294327 -0.049019776 -0.0036490476
000070 e9 9d 84 bd 4e 55 60 bd b6 36 31 bd c3 06 6c 3c
       -0.064754315 -0.054768853 -0.043265067 0.014405909
000080 0d b8 94 bb 6f 71 c9 3c 7b b6 77 bd 93 bf 7c bd
       -0.004538542 0.024590222 -0.06047676 -0.061706137
000090 de 58 6e bd cd 7c d7 bd 98 62 78 3a 49 0e 67 bd
       -0.05819022 -0.10521851 0.0009475141 -0.056410108
0000a0 3a 48 97 bd c8 e7 7d bd 23 05 60 bd b9 55 54 3c
       -0.07386823 -0.061988622 -0.0546924 0.012959891
0000b0 4f dc e4 3c ab c9 3a bd 46 b6 30 bd 20 41 50 bd
       0.027937083 -0.04560248 -0.04314258 -0.050843358
0000c0 0d ad 5c bb df 2e 93 bd 8b 77 97 bd 9a 74 38 3c
       -0.0033672482 -0.07186674 -0.07395848 0.011258269
0000d0 49 ba 5a 3b 40 62 6a bd 92 bf 1b 3c e3 2d 80 bd
       0.0033375195 -0.057222605 0.009506123 -0.06258752
0000e0 e3 5e 4c bd e2 54 00 3d 20 34 9f bc 74 b1 60 3c
       -0.04989518 0.03133095 -0.019434035 0.013714183
0000f0 ad 37 45 bc f0 75 80 bd 12 e8 84 bd d0 68 b1 3c
       -0.0120372 -0.06272495 -0.064895764 0.021656424
000100 5b ce 78 bd 59 e9 86 bd 47 1f 4e 3b d7 1e 6f bd
       -0.06074367 -0.06587476 0.0031451748 -0.05837902
000110 43 52 8f bb 09 b6 6b bd c2 45 aa 3e b4 2c a5 3c
       -0.00437382 -0.05754665 0.33256346 0.020162918
000120 3c 40 49 3c a1 99 8b bd 59 69 c4 3c 37 c6 60 bd
       0.012283381 -0.06816412 0.023976015 -0.054876532
000130 10 5b bf 3c 70 46 5e bd 3f 22 73 3c cf 3e 5a bf
       0.023358852 -0.054266393 0.014839708 -0.8525209
000140 bc 8c 0c bc 57 bf 0c bc 3c 18 af 39 dd 8c da 3c
       -0.008578476 -0.008590541 0.00033396657 0.026678497
000150 de 8d 8a bd 11 c0 25 3d 1e 80 5c bd 7c a8 94 3c
       -0.0676534 0.040466372 -0.05383312 0.018146746
000160 b1 0d 27 bd 7d 76 2e bd 2d 95 ee 3c 99 2d 7a bd
       -0.04078454 -0.042593468 0.029123867 -0.06107864
000170 79 13 75 bc d1 8f 48 bd 48 e8 86 bd b7 62 21 bc
       -0.014958256 -0.04896528 -0.06587273 -0.009850196
000180 36 5d 81 bd 4d 21 0a 3d 2f 96 55 bd 02 e6 61 bd
       -0.06316607 0.033723164 -0.05214518 -0.055150993
000190 1f de 84 bd 3e 01 3e bd 47 c4 88 3c 55 02 8b bd
       -0.06487679 -0.046387903 0.016695155 -0.06787554
0001a0 b2 75 bc 3c 57 75 67 bd 7a 86 c6 3c ea ea b9 3f
       0.02300534 -0.05650839 0.024234045 1.4524815
0001b0 6e a2 4b bd 1d 1d 97 bd 29 00 cb bd 5e 5a 64 bd
       -0.049715452 -0.073786 -0.0991214 -0.055750243
0001c0 c0 47 7c bd 75 18 40 bd ef 68 9e bb f5 85 72 bd
       -0.061591864 -0.046898324 -0.0048342864 -0.059209783
0001d0 3b e3 6b bd 73 7a 6f 3c d6 9f 0a 3b 85 05 4c bd
       -0.05758975 0.0146165965 0.0021152399 -0.04980995
0001e0 61 1b 67 bd e0 64 9c bd 06 6a 4d bc 5e 22 4c bd
       -0.056422595 -0.07636428 -0.012537485 -0.049837463
0001f0 98 c5 3d 3c e8 c6 44 bd 8d cf d1 3b 31 80 86 bd
       0.011582755 -0.048041254 0.006402916 -0.06567419

mu.weight f4 [12, 128]
000000 57 28 d0 3a b5 46 29 3e 28 e5 4e 3e 0a 28 17 bd
       0.0015881163 0.16530879 0.20204604 -0.03690342
000010 12 97 20 bd 25 70 b9 3d 9f 15 51 bd a0 87 10 bb
       -0.039206572 0.09054593 -0.05104601 -0.0022053495
000020 04 46 5f bc c1 ea 26 bc 1b 9e 43 3b 1a 38 60 3c
       -0.013627533 -0.010187806 0.0029848877 0.013685251
000030 13 1c 35 3e f0 f8 fd bd fd 01 60 3c 0f 53 10 3e
       0.1768649 -0.12400997 0.013672349 0.14094184
000040 d8 64 06 3a cd 3d 1d bc ac 63 08 be b5 10 39 be
       0.0005126721 -0.009597254 -0.13319272 -0.1807278
000050 6d ac 12 be 3d a8 36 3d 71 ff 32 be 47 75 4f bd
       -0.14323588 0.04459404 -0.17480256 -0.050648954
000060 92 e8 21 bc 49 f1 1e bb 6b 0a 2f be d4 c0 80 3e
       -0.009882109 -0.0024252704 -0.17093818 0.25147116
000070 ff 89 b2 bd b5 c4 2a bb ed e9 52 3d 28 59 9c bc
       -0.08717727 -0.0026057188 0.05149262 -0.019085482
000080 61 65 7d bb 1f d8 98 bb 98 60 03 be 05 fb ac 3d
       -0.0038665163 -0.0046644355 -0.12829816 0.08446316
000090 80 11 b3 bd c3 76 08 be 45 7c 02 be 22 12 f2 3d
       -0.08743572 -0.13326554 -0.12742718 0.11819865
0000a0 dc 23 9d 3b 51 ff fc bc 91 e5 43 3d 78 10 e8 3d
       0.0047955345 -0.030883463 0.047826353 0.11331266
0000b0 3a 8a 79 be eb 0b 37 bd 4c e5 04 3e 03 24 34 3c
       -0.24369135 -0.0446891 0.12978095 0.010994914
0000c0 8e 52 00 be d7 bb e7 bc 7e 90 14 3c 2e da 98 3c
       -0.12531492 -0.028287811 0.009067653 0.018658724
0000d0 a2 56 9d bb a4 93 8d be 1c 61 24 be 36 1f 0b bc
       -0.004801587 -0.27651703 -0.1605267 -0.008491328
0000e0 12 f7 0b 3c 0e 35 1b bd 20 77 e8 3c c6 b5 31 3c
       0.008542793 -0.037892394 0.028377116 0.010846561
0000f0 c5 ad d3 bd 15 ba 00 be 98 f8 0e 3e e6 dd f9 bc
       -0.10335878 -0.12570985 0.13962018 -0.030501317
000100 ca 4e 30 3b f7 c1 07 bc 4b 3b ad 3d 9e 1d 99 3e
       0.002690243 -0.008285991 0.08458575 0.2990541
000110 95 12 bd bd 0a e2 f0 3c 20 1d 3e bc 71 c0 28 3e
       -0.0923206 0.029404659 -0.011603624 0.1647966
000120 5c e0 01 3e 85 21 fd bb 0e 6c cb bd 40 46 80 bc
       0.12683243 -0.007724943 -0.09932719 -0.015658498
000130 f2 64 4d 3d 5f 9d 14 bc 91 5f 94 3b 79 6d c7 bd
       0.050145097 -0.009070723 0.004527994 -0.09737677
000140 3d a8 d3 3d e0 71 29 3d 9b ca 3b be fe 89 a5 bb
       0.10334823 0.041368365 -0.18339007 -0.0050518503
000150 d2 25 4e 3e 16 18 14 3e 58 18 59 bd 52 5a 26 be
       0.20131615 0.14462313 -0.05300173 -0.16245392
000160 63 7e 27 3d 26 7f b3 3c 20 2e 9b 3c ec 1f 97 3c
       0.040892016 0.021911215 0.018942893 0.018447839
000170 0b 5e ec 3b 45 9c eb 3d 23 0b 9a bd 9e 76 ad ba
       0.0072133592 0.115044154 -0.075216554 -0.0013234203
000180 25 7a 03 3d 59 02 86 3d 67 47 44 bd fe c5 c4 3d
       0.032098908 0.065434165 -0.047919657 0.096080765
000190 d8 0d 65 3e ac d5 a5 3d 41 e5 f0 bd 9b 82 f0 ba
       0.22368562 0.08097395 -0.11762477 -0.001834947
0001a0 29 50 60 bd bd 8a e9 3c 63 66 ba bd 8f b4 ca bc
       -0.054763947 0.028508538 -0.0910156 -0.0247443
0001b0 22 3c 80 be b8 46 c7 3c 2d bc d2 3c 70 7f 25 3b
       -0.25045878 0.024325714 0.025724495 0.002525296
0001c0 4b 5b eb 3b 2f 29 28 bc 0d bd d5 3d 5b 3c 3f be
       0.007182514 -0.010263725 0.10436449 -0.18675368
0001d0 68 d6 e2 bc 92 05 70 3d 8f 07 97 be 03 be 26 3d
       -0.027690127 0.058599062 -0.29497954 0.040708553
0001e0 1c 94 c2 bd c4 4e e1 39 08 a4 42 3c 57 23 4c 3e
       -0.09500906 0.0004297403 0.011879928 0.19935356
0001f0 62 88 c9 3d 9e 7f 85 3d ef e2 9a 3d c5 64 7b bd
       0.09840466 0.06518482 0.075628154 -0.0613754
000200 a9 2c 4f 3c 32 cb 8e 3c 8d 44 1f 3e 57 a5 06 3e
       0.012644925 0.017430875 0.15553494 0.1314901
000210 63 6d d8 3e 5c a2 2f 3d d6 46 56 3e d0 ec 48 bc
       0.42270955 0.042879447 0.2092546 -0.012263492
000220 c7 8b bf bb 96 fd fd 39 09 c9 7c b9 5a 2d 94 3d
       -0.00584552 0.00048444857 -0.00024107484 0.072352126
000230 1f 66 a6 3d 48 a1 44 3e a5 60 f3 3b 22 dd dd 3b
       0.08124947 0.19202149 0.0074272924 0.006770746
000240 4c 8d df bb b9 17 42 be 19 91 33 3e 9e 72 19 3e
       -0.006822264 -0.18954362 0.17535819 0.14985129
000250 17 1e 0d be e4 6c ad bd fe 8b 92 3c 63 ce b8 3b
       -0.1378101 -0.08468035 0.01788902 0.0056398376
000260 08 8e 52 bc 6b a4 0b 3b 69 7b 50 3e d5 d4 57 3d
       -0.012851246 0.0021307718 0.20359577 0.052693207
000270 be c9 0e 3e 2f 07 78 bb 18 05 03 3d 40 f2 4d be
       0.13944146 -0.0037846079 0.03198728 -0.20111942
000280 a5 00 b2 3a f1 bf ee bd 4e 16 35 3d f3 4a be 3b
       0.0013580514 -0.11657704 0.044210725 0.0058072745
000290 1e 24 fb bd 7a 26 13 be a5 d9 22 be d1 77 bf bd
       -0.12262748 -0.14370146 -0.15903337 -0.09349025
0002a0 d7 27 89 3d 43 1f 50 3d db 9a cb 3c 24 f7 f7 3d
       0.06697052 0.050811063 0.024854114 0.12107685
0002b0 67 2b 9c be 07 2b 51 be e6 1a c8 bd 9b d1 6e 3c
       -0.30501863 -0.2042657 -0.097707555 0.014576341
0002c0 4c 1d e0 3d 53 2b f2 3c b0 d9 b2 be 2f f7 f6 3c
       0.10943088 0.029561674 -0.34931707 0.030147163
0002d0 f9 f5 4c 3b bc 6d bb be 22 df 7c bd 68 7c c8 be
       0.003127454 -0.36607158 -0.061736234 -0.39157414
0002e0 c4 47 a6 b8 c2 28 99 3d e2 16 88 3d 69 c5 ad bd
       -7.928864e-05 0.07478477 0.066449896 -0.084849186
0002f0 db 4f 85 bc 47 af 08 be 27 8b 4c 3c 9d a4 54 bd
       -0.01627343 -0.13348113 0.012484348 -0.0519148
000300 6f 19 74 3c 92 e5 58 3d 7b f2 24 be 7e 93 15 be
       0.014898642 0.05295331 -0.16108124 -0.14607045
000310 ff 05 3a bc 36 a2 f5 3c 1c 7c 3f 3e 6f 3e 04 bc
       -0.011353969 0.029984575 0.18699688 -0.008071526
000320 4c e4 0f 3e 2c 24 d1 bd 9b 9f 00 bc b8 f6 ff bd
       0.14051932 -0.10211977 -0.007850553 -0.1249823
000330 d5 ab 0c 3e c7 53 4c bb b8 95 bd bb 6b 13 20 3d
       0.13737424 -0.0031177865 -0.00578567 0.03908102
000340 ea db 17 be d7 f6 27 3e c4 4a 18 be ff 82 3a be
       -0.14829984 0.16402756 -0.14872271 -0.18214034
000350 b5 8f 9e 3d ee fb 62 3d 66 0c ac bd 7c 48 13 be
       0.07742254 0.05541604 -0.08400802 -0.1438312
000360 5d 82 46 3e d1 d9 0b 3d b9 7f 04 bd c7 e8 a0 3d
       0.19385667 0.034143273 -0.03234837 0.07856899
000370 7d 51 3b bb 81 80 50 bc 03 7f e8 3c 94 cb ca bc
       -0.0028582506 -0.01272595 0.028380876 -0.024755277
000380 ae 0e 2a 3d 40 51 f1 bd 38 6e 8f 3d 67 5c 0e be
       0.041517906 -0.11783075 0.070034444 -0.13902436
000390 92 e1 03 3e aa 63 85 be 9a d6 f6 bc c5 cb af 3b
       0.12879017 -0.260526 -0.030131627 0.0053648674
0003a0 42 b7 87 3d 2e 83 a7 3d e0 27 2f 3e 92 12 ec bd
       0.066267505 0.081793174 0.17105055 -0.115269795
0003b0 f5 32 ff be 2e d9 2f be 77 73 b1 bd a9 81 f6 3b
       -0.49843565 -0.17172691 -0.08664601 0.007522781
0003c0 48 c5 03 bc 16 b9 82 3c e2 a5 69 bd c1 45 74 3d
       -0.008042641 0.015957396 -0.057042964 0.059636835
0003d0 14 42 05 be 7b 96 37 be 96 24 ae bd e2 c0 ed bd
       -0.13013488 -0.17928497 -0.08503072 -0.11609055
0003e0 29 83 1d 3d 93 b6 91 bb db 94 e0 3a 8a af 03 bf
       0.038455162 -0.0044468134 0.0017134206 -0.51439726
0003f0 ac ed f0 bc 57 35 73 bd 2e bf f1 bd 32 fd be bc
       -0.029410206 -0.05937704 -0.11804043 -0.023314092

mu.bias f4 [12]
000000 d7 64 2e bd 21 20 6a bc 4b 43 3d 3d aa 3f f7 3c
       -0.042576637 -0.014289887 0.046206754 0.030181725
000010 c0 8f c1 bc a6 b0 b4 bc e8 87 bc 3c f5 a3 80 bc
       -0.023628116 -0.022056889 0.023014024 -0.01570318
000020 a7 7a c4 3b ec 60 c2 bc 5d 79 d2 bc 61 61 9e 3d
       0.0059960666 -0.023727857 -0.025692636 0.07733417
