stats/test/iter1999.pt (torch, 183486 bytes, 12 tensors)

log_std f4 [12]
000000 00 00 00 00 00 00 00 00 00 00 00 00 00 00 00 00
       0.0 0.0 0.0 0.0
000010 00 00 00 00 00 00 00 00 00 00 00 00 00 00 00 00
       0.0 0.0 0.0 0.0
000020 00 00 00 00 00 00 00 00 00 00 00 00 00 00 00 00
       0.0 0.0 0.0 0.0

p_fcs.0.weight f4 [128, 39]
000000 22 45 c7 3b 3f ac 6a 3c 4b 2b 23 bf 88 82 03 3d
       0.0060812393 0.014323293 -0.63737935 0.032106906
000010 d4 df 2e 3f db 99 1f 3d 47 6c 90 bb 93 19 24 bd
       0.68310285 0.038965087 -0.004407439 -0.040063452
000020 0c da dc be 09 69 98 3d 74 cf d3 3c 22 8f e4 bb
       -0.43135107 0.07441909 0.025855757 -0.0069750706
000030 de 8e 92 3c e9 43 3c 3c 86 b6 b3 bd 4d 3c 8d bc
       0.01789039 0.0114908 -0.08775048 -0.017240668
000040 5c 2f a6 bc 32 6b 87 3b 24 26 ad 3e fc 6e 29 3e
       -0.020286255 0.0041326517 0.3381816 0.16546243
000050 3b e0 88 bc e4 b4 45 bd 2d c1 6e 3e be ef 79 3d
       -0.016708484 -0.048268214 0.23315878 0.06101965
000060 ae a7 a3 3b 77 5a e2 bc 80 6a b0 bc 0e 0f 52 3b
       0.004994354 -0.027631028 -0.021535158 0.003205243
000070 56 1b 70 3c 9c d5 7d bd a6 2e c8 3c 32 1d 89 3c
       0.014654955 -0.061971292 0.024436306 0.016737554
000080 6b 48 53 3c 59 79 d4 bc 88 cb bc bc d5 ae 79 be
       0.012895684 -0.02593677 -0.02304627 -0.243831
000090 00 9a 81 3b cf ee 8d 3e 08 36 46 3d 25 68 4a 3d
       0.003955126 0.2772126 0.048391372 0.049415726
0000a0 5a 64 1e 3d bf 22 15 bf 74 61 c2 bd 07 c7 72 bd
       0.03866992 -0.58256143 -0.09491244 -0.05927184
0000b0 15 c4 60 be 22 4b af 3d cc aa 8d b9 14 0d a8 be
       -0.219498 0.08559252 -0.0002702087 -0.32822478
0000c0 83 47 46 3d 53 01 68 bd ea 54 5a bc 48 1c 19 3c
       0.048408043 -0.056641888 -0.013325909 0.009345122
0000d0 18 73 58 3c f0 29 9f be 29 40 a6 3d 1b 1c 39 bd
       0.013211034 -0.31086683 0.08117706 -0.04519282
0000e0 1e 77 ee 3d 74 15 84 3e e1 12 c6 bd ea d1 19 3d
       0.116438136 0.25797617 -0.096715696 0.037553705
0000f0 e9 ff 0a be 44 67 41 bd 6a b8 1e bd d4 cc ea 3c
       -0.13574184 -0.047217622 -0.03875009 0.028662123
000100 ce 0b 0e 3c fe 51 49 bc a6 3a 48 3d 3f bc 62 bc
       0.008669807 -0.012287615 0.048884057 -0.013838827
000110 60 ae 08 3c 4f 51 91 3c 0c f3 74 3a 1a 58 89 3b
       0.0083423555 0.017738966 0.0009344078 0.0041914107
000120 56 0c 5b 3b 6b f5 63 bc 55 44 18 bd d0 e5 86 bd
       0.00334241 -0.013913493 -0.03717454 -0.06586802
000130 2a b7 7b 3e 1e 4d 65 3d 8e 4f 0e bc 0a 8e af bc
       0.2458159 0.055981748 -0.0086859595 -0.021430034
000140 87 13 b8 be ca a6 43 bd 87 75 0a 3e 89 59 f2 3d
       -0.35952398 -0.047766484 0.13521396 0.11833484
000150 00 c7 c6 bd 39 54 23 3d b2 4e 1f 3d 46 53 9b bd
       -0.09705925 0.039875243 0.03889341 -0.075842425
000160 a7 55 f0 3c 91 99 8b be d4 9a 3d bd c2 ba 25 3d
       0.029337717 -0.272656 -0.046290234 0.04046131
000170 01 e0 bf bd 0f 56 fc bd 45 9b 9c bb 11 63 df bd
       -0.09368897 -0.12321102 -0.0047792518 -0.10907567
000180 60 32 35 3e 99 b2 a7 bd 17 50 cb bd 76 bf b7 bb
       0.17694998 -0.08188362 -0.09927385 -0.0056075407
000190 db 9a 8c 3d f3 8d f6 3c d0 0f 18 bd 75 35 26 bd
       0.06865474 0.030096984 -0.037124455 -0.040578324
0001a0 9a be 44 bd bf 28 e8 bd 8c e4 91 bc 6f bf 05 be
       -0.048033334 -0.11335897 -0.017809175 -0.13061307
0001b0 f3 36 61 bd 94 20 19 3d 63 28 3a 3b 97 a8 df bd
       -0.054984044 0.037384585 0.002840542 -0.10920828
0001c0 44 df 35 bd 35 fe 32 3e 14 cd 22 3d 2d 05 41 bd
       -0.044402376 0.17479785 0.03974636 -0.047124077
0001d0 3f 7d 0d bd 34 4b 3f 3c a1 09 a8 3b a7 34 c6 3e
       -0.034543272 0.011675645 0.005128101 0.38712046
0001e0 3d bc 8f be b2 81 48 3e b2 2d b6 bd cf 78 9c bd
       -0.28073302 0.19580725 -0.088954344 -0.0764023
0001f0 07 fa 73 bb 79 d5 f5 3c a0 c6 0b 3c 85 73 86 bc
       -0.0037227885 0.030009018 0.008531243 -0.016412506
000200 77 64 b2 be 3d 1d 9a 3c c9 6d a8 bc 8e 7b a2 3c
       -0.34842274 0.01881277 -0.020560162 0.019834306
000210 dc 64 91 bc 49 cd 89 bd c3 d7 7b be 81 be be bd
       -0.017748289 -0.06728608 -0.24594025 -0.093136795
000220 35 d2 ae be 04 d9 10 3d 42 46 0c 3d ec af ee 3d
       -0.3414475 0.035363212 0.03424669 0.11654648
000230 cf 45 66 bb 6c 67 97 3c 2a 82 c4 3b b2 5b a6 3c
       -0.0035136824 0.018481933 0.005996962 0.020307396
000240 00 a5 1f 3d 4d d0 71 bc 7d 5c 12 bd 90 ba cf bc
       0.038975716 -0.014759135 -0.035732735 -0.025357515
000250 15 90 e1 3c 06 e6 de 3c 7a ea 68 3d 87 2f 01 3c
       0.027534524 0.027209293 0.05686424 0.007884867
000260 49 0a 52 3e 21 bb 8c be a3 8d ea 3d 56 cc 89 be
       0.20511736 -0.27486518 0.11452796 -0.26913708
000270 e8 02 a6 bd 4d a8 19 bd f8 b4 c9 3e db 91 ef bd
       -0.08106023 -0.03751402 0.3939588 -0.116977416
000280 35 c2 1f 3f 32 c8 2c be e5 ae 8a bd 77 c2 b1 bc
       0.6240571 -0.16873243 -0.0677164 -0.021699173
000290 db 84 dc be 4f 3c 6d 3c 7c 98 c9 3c 5e fd 81 3e
       -0.4307011 0.014479711 0.024608843 0.25388616
0002a0 ed 6e 85 bd 8d c2 07 bb 02 18 11 be ab 2e 81 bc
       -0.06515298 -0.0020715327 -0.14169315 -0.015769323
0002b0 bd ad d5 3c 78 37 32 bd 8f 17 92 be d6 ce 51 be
       0.026083821 -0.04350993 -0.285336 -0.20489058
0002c0 71 53 94 bc 61 33 b0 3d 47 b3 a6 3e 01 f8 87 3b
       -0.018106194 0.0860355 0.32558653 0.0041494374
0002d0 e2 4f b5 bc 57 80 9f bc 30 06 40 bd c7 b0 f2 bc
       -0.022132818 -0.019470377 -0.0468809 -0.02962531
0002e0 68 9c 11 bc 17 71 19 3d 65 1e 49 3d 84 a6 20 3d
       -0.008887388 0.037461367 0.049101252 0.0392213
0002f0 30 5d a4 bd 6d f9 92 3d 84 d7 c5 3b 5a 74 d3 bd
       -0.080255866 0.071764804 0.0060376544 -0.10324927
000300 ac e1 e3 3d 71 d1 86 3e 49 f1 b4 bd 3a 6d e8 3c
       0.11127028 0.26331666 -0.08835084 0.028372396
000310 34 53 fa 3c 0d c1 05 bf 5e 91 8f 3e e9 26 30 bf
       0.030557252 -0.522477 0.28040594 -0.6880937
000320 81 d6 34 bd 5c 6c a1 3d 42 d8 4f 3c 47 52 a4 bb
       -0.04414988 0.07881996 0.012685837 -0.005014691
000330 09 35 ea 3d 29 51 33 bc 37 8d 80 bd 5a 2a 33 3d
       0.11435897 -0.010944643 -0.062769346 0.04374156
000340 13 08 0e 3d 3a 8e 9a be 10 bd 88 3d a8 02 8e 3b
       0.03467567 -0.30186635 0.06676686 0.0043338127
000350 bb a4 d4 3e 86 1e 67 3e fc 79 48 bb fe d2 45 3d
       0.4153193 0.22570238 -0.0030590286 0.04829692
000360 aa 24 16 3e 30 8e b4 be 13 d1 de bc aa 03 73 3b
       0.14662424 -0.3526473 -0.027199304 0.0037081041
000370 6f bd 88 bc dd 91 93 3b 70 3d 7b 3d 1b 51 9c 3c
       -0.016691891 0.0045034722 0.06133789 0.019081643
000380 07 d9 84 3a 9b f3 0a bd c5 f0 53 bb b8 f8 40 bd
       0.001013548 -0.033923727 -0.0032339555 -0.047112197
000390 59 8d ba 3b 1d 54 c1 ba 1c 52 e6 bd 91 d2 ee 3c
       0.0056931195 -0.0014749799 -0.1124613 0.02915314
0003a0 1e 85 8a 3d e5 0c 40 3c f2 d4 a4 3b b4 d3 d3 3c
       0.06763671 0.011721824 0.005030268 0.025857784
0003b0 50 e3 7f be 20 6e 0e 3e 9a c6 bf bd e8 6c 3b 3e
       -0.24989057 0.13909197 -0.09364052 0.18303263
0003c0 dc 00 2c bc 7a 53 75 3d 10 f0 cc be 9b 6f d9 3c
       -0.010498252 0.059894063 -0.40026903 0.026542475
0003d0 3f 39 9d 3c fa d1 34 3e 39 eb 90 bc 9a df 6a bc
       0.019192336 0.17658225 -0.017690288 -0.014335537
0003e0 fc 3c fa 3d 2a c1 52 3d ce c1 01 3d 2f f0 38 3e
       0.12218663 0.051453747 0.031678967 0.18060373
0003f0 a1 b4 33 bd 1b f8 da 3d a0 2b c8 3d 5d 60 52 3d
       -0.043873433 0.106918536 0.09773946 0.05136143

p_fcs.0.bias f4 [128]
000000 8d 61 69 3c 16 d5 77 3d 00 1c c8 bc a3 b8 cb 3b
       0.014244449 0.06050595 -0.024427414 0.006217079
000010 e3 02 68 bd 8a f5 88 3c 2f 0e 07 3c c0 22 a0 bb
       -0.056643378 0.016718645 0.008243128 -0.004886955
000020 9a 3e 83 bc 2f 6c 4a bc 4b 49 a6 3b 2f be 37 3d
       -0.016021062 -0.012354895 0.005074655 0.044859108
000030 b6 89 dd 3b 5c 5f 06 bc 3d 33 13 bc 7d b9 0b bd
       0.006760801 -0.008201446 -0.008984384 -0.034112442
000040 87 b4 06 bd 7a 51 30 3d f8 c6 a0 3c cd 2f e7 bc
       -0.032887008 0.043046452 0.019626126 -0.028221035
000050 b7 ca cf 3c 80 86 71 3b 1f cd 24 3d cc c1 98 bb
       0.025365217 0.003685385 0.04023468 -0.0046617743
000060 77 95 6f bd bd 3a ab bc f3 c7 4e bc 6b 43 9c bc
       -0.05849215 -0.020902032 -0.012620914 -0.019075116
000070 3f 22 46 3b 5f d8 9e 3a 7d 07 7e 3c 9a b3 1d bc
       0.0030232815 0.0012118927 0.015504715 -0.00962534
000080 98 1c 81 bc 86 3c 7c 3c 97 6c a3 3c 76 bd 95 bc
       -0.015760705 0.015395289 0.01994924 -0.018278819
000090 d8 ab 62 3b d3 f2 a6 3c 70 40 ea bb e3 18 7c 3d
       0.003458729 0.02037946 -0.007148795 0.06154717
0000a0 28 71 1f bc 4d 40 1f bc 1b 6a 0e 3c 51 17 91 bc
       -0.009731568 -0.00971992 0.00869229 -0.017711313
0000b0 13 64 45 bc 31 7c 95 bc 6d 7b 8d bd 8c a3 60 3b
       -0.012047785 -0.018247696 -0.06908307 0.003427717
0000c0 0e 84 ae 3b 73 e6 7d 3a 05 18 4c bc 08 11 2f ba
       0.0053258007 0.00096855237 -0.012456899 -0.0006678258
0000d0 ea cc a4 b9 76 fa 3e bd 25 43 2c bd 40 03 10 bc
       -0.0003143319 -0.046625577 -0.04205622 -0.008789837
0000e0 45 af 06 3b 6d 75 ee 3b e8 3e ac 3b 91 58 97 3c
       0.0020551246 0.007277182 0.0052565224 0.018474849
0000f0 f5 92 3d 3a 09 0e 81 bc 90 39 e3 3c cd d6 10 3d
       0.0007231676 -0.015753763 0.027737409 0.0353611
000100 af 2d bf bc 9b 30 c3 3c 18 77 00 3c 9f 7d 51 bd
       -0.023337213 0.023826888 0.007840894 -0.051145192
000110 19 17 1f 3d e3 bf c5 bc e6 e5 07 3c aa 52 17 bb
       0.038840387 -0.02413935 0.008294558 -0.0023090043
000120 a2 3c c8 3c 10 63 4f bc 84 3d 3d 3c a7 9f 3f ba
       0.024442974 -0.012657896 0.011550311 -0.0007309862
000130 f5 04 5a bc a2 85 ce bb 49 d7 cc bb 61 0d 84 3c
       -0.013306846 -0.0063025514 -0.00625125 0.01611966
000140 60 8e e7 3b be 88 7e 39 60 ed 71 bd 08 4a 0a 3d
       0.007066533 0.00024274268 -0.05906427 0.033762008
000150 82 a9 fc bc 63 c8 5b 3a ac 72 04 bb 11 02 3a bb
       -0.030842546 0.0008384047 -0.0020209951 -0.002838258
000160 0a 6d 5d b9 21 91 fd 3c e6 df 2d 3c 60 03 64 3c
       -0.00021116823 0.030952992 0.010612464 0.01391682
000170 2d 1a c1 bc c0 ef e1 bc 3f cf cd bc c9 ca b8 bc
       -0.023572052 -0.027580142 -0.025123237 -0.022557633
000180 ee fc 2f 3c af ba 89 bc af e9 f8 3c 01 84 9c 3c
       0.0107414555 -0.01681265 0.030384867 0.019105913
000190 9c 48 c9 bc 0c f1 d4 3c 54 0d f4 bc 0e c4 6d 3c
       -0.024570756 0.025993846 -0.029791512 0.014512075
0001a0 7e 88 b2 3c 13 77 61 3b fc 87 49 3c 71 54 85 ba
       0.0217936 0.003440325 0.012300488 -0.001017226
0001b0 f5 c8 a8 3c e4 28 98 3c 9d ea 73 3d a3 0b b5 39
       0.020603636 0.018574186 0.059549917 0.0003453168
0001c0 45 b0 b8 3c 64 85 87 3c be 57 3f 3c 6b 51 67 bb
       0.02254499 0.016543098 0.011678634 -0.0035296332
0001d0 ae ec 01 3d 7c 4a 37 bc b1 ad 0b bc e7 d6 e8 3b
       0.031719856 -0.011187192 -0.008525298 0.0071056965
0001e0 48 44 c4 bc c7 03 25 3d ec 3d 8e bc 6b 15 e1 3a
       -0.02395834 0.040286805 -0.017363511 0.0017172521
0001f0 72 e8 15 3d 75 55 27 bd 51 b0 8b bc 29 b7 d4 b9
       0.03659863 -0.040852983 -0.017051848 -0.00040572256

p_fcs.1.weight f4 [128, 128]
000000 c6 3e 4b bc 4c 30 cd bb 34 60 88 bc c6 ae a0 bb
       -0.012405103 -0.006261861 -0.016647436 -0.004903647
000010 68 9d be bb a0 8a 9f bb 48 52 9e bc 2f eb 7c 3c
       -0.005817104 -0.0048688203 -0.019326344 0.0154369315
000020 0c 86 d7 3b 46 4e 1b bc 57 83 02 3b 4a 2e f9 bb
       0.006577259 -0.009479111 0.001991471 -0.007604395
000030 57 b8 c8 bb 51 42 96 bb fd 2a 19 3b 6e 21 54 bb
       -0.0061254906 -0.0045855423 0.002337157 -0.0032368558
000040 98 30 8f bb 75 13 0e 3c fb 2e fa ba 49 39 17 3b
       -0.0043698065 0.008671631 -0.0019087488 0.0023074916
000050 f8 1c 9c bc 32 fb 4e bb b5 d5 86 bb 91 d8 49 bb
       -0.019056782 -0.003158283 -0.0041148313 -0.003079925
000060 ee f0 22 3c c8 9e c1 bc d2 7a 2b 3a 64 8f 01 bb
       0.009945137 -0.023635283 0.0006541434 -0.0019769305
000070 3a a3 86 bc 78 ff 69 bc 99 65 9c ba aa 31 8f 3c
       -0.016435254 -0.0142821 -0.0011932134 0.017479736
000080 be 1d 72 bc fa d3 eb 3b d7 b6 4b 38 18 ec b1 3b
       -0.014777599 0.0071969004 4.8569254e-05 0.005429756
000090 f3 7b 3b bc dc 5d 6d ba 26 f9 11 3c b9 dd 1e bc
       -0.011443126 -0.00090548187 0.008909499 -0.0096964175
0000a0 8a 04 d5 ba d9 71 16 bc 8f 0a 4a 39 56 8b 06 3c
       -0.0016251963 -0.009182417 0.00019268155 0.008211931
0000b0 7e 19 27 bc 35 55 22 3b 2e 12 9b b9 36 3f a1 bc
       -0.010198949 0.0024770026 -0.0002957745 -0.019683462
0000c0 9f 58 de bb 32 00 a1 bc c1 80 76 bb b8 cf 6e ba
       -0.006785467 -0.019653413 -0.0037613364 -0.0009109932
0000d0 f2 34 b6 bc 70 07 26 bc 4c 65 7a bb aa 20 98 bb
       -0.022242043 -0.010133609 -0.003820735 -0.0046425657
0000e0 32 b6 57 bb f1 a1 bc bc 79 3f 0d bc 7b 3e 08 bc
       -0.0032914993 -0.023026438 -0.00862109 -0.008315678
0000f0 be 32 01 bc f3 4e ee 3b 9f 64 f5 3b 5e ee 22 bc
       -0.007885633 0.007272595 0.0074888016 -0.0099445265
000100 fd 67 0d bc cb e4 bd bb b3 c4 01 bd a0 df be bb
       -0.00863075 -0.0057950965 -0.031681728 -0.005824998
000110 95 16 94 bb 4c cd 2e bc 68 28 6a bc 8c 0a 65 3c
       -0.0045192936 -0.010669064 -0.01429186 0.013979565
000120 64 bb 98 bb 08 43 7d bb 1a 2b 31 bc c4 55 63 3b
       -0.0046610106 -0.003864469 -0.010813499 0.0034688571
000130 00 b7 70 b9 fd 76 8f bc 0d 5f 4d bc a3 62 3a bc
       -0.00022956356 -0.017512793 -0.012534869 -0.011376056
000140 13 5c 83 bc 5e 74 bb ba 35 41 85 3b 21 3c 13 bc
       -0.016035115 -0.0014301648 0.004066611 -0.008986504
000150 05 be 2c 3c 04 00 b8 bb 2a 2b 6f bb df 4b fa 3b
       0.010543351 -0.0056152362 -0.0036494234 0.007638439
000160 6f c4 b3 bb f7 0e bc bc 1e 15 52 bb 84 0d ae bb
       -0.005486063 -0.022956355 -0.0032056044 -0.00531167
000170 0f 97 e4 bb 41 fd 7e bb 48 0b 26 bb 3b a4 54 3b
       -0.0069760154 -0.0038908275 -0.0025336314 0.0032446522
000180 27 05 0e bc 8f a2 4b 3c 1b 7d 52 bc bc 8a 78 bc
       -0.008668221 0.012428894 -0.01284721 -0.015169796
000190 2d 62 2a bc c7 5d 70 bc 17 44 27 bc a4 3b 8c b9
       -0.0103993835 -0.014670796 -0.010209105 -0.00026747317
0001a0 98 fa 87 bb 70 da 2e bb 2b 1d a1 bb 9c ec 6a bc
       -0.004149746 -0.0026680492 -0.004916807 -0.014338639
0001b0 06 4d cf 3a a6 d6 83 bb 8f 18 18 bc 96 3b 80 bb
       0.0015815801 -0.004023391 -0.009283199 -0.003913353
0001c0 1a 20 7a bc 65 63 c9 bc 00 22 97 bc 0e 5a b6 bb
       -0.015266443 -0.024583528 -0.01844883 -0.0055649346
0001d0 49 42 79 bc 47 c5 c1 bc 92 e1 0b bc c4 68 54 bb
       -0.0152135575 -0.02365364 -0.008537667 -0.0032411078
0001e0 11 4c e2 bb 40 3f 96 bb 5f ce 39 bc 4e 66 63 bc
       -0.0069060405 -0.0045851767 -0.011340707 -0.013879372
0001f0 25 70 da bb 5c 40 3e bc 2f dc 30 3c 51 03 57 3b
       -0.0066662007 -0.011612024 0.010794683 0.0032808373
000200 79 ab 22 bd 49 a4 88 3d 02 86 42 bd 17 b7 2c 3c
       -0.03971431 0.0667196 -0.04749108 0.010541699
000210 4d ca db bc ed 71 ea 3c 99 95 8f 3d f8 a0 a7 bd
       -0.026829863 0.028618777 0.07010955 -0.08184999
000220 c0 16 21 3b ff f7 5d 3d 59 c9 27 3d 4e 30 0d 3d
       0.002458021 0.054191586 0.040963504 0.034469895
000230 f4 e0 8c 3a f0 fd 1b 3d 49 76 b5 bd 0b 29 2d be
       0.0010748194 0.03808397 -0.08860452 -0.16910188
000240 39 16 08 bd 23 c8 80 bd 7d 08 f9 3b ca 2e 89 bc
       -0.03322432 -0.06288173 0.007599889 -0.016745944
000250 32 6c 10 3b 7a af b7 bd 1d 06 ee bd 18 a0 2e bc
       0.0022037146 -0.089690164 -0.1162226 -0.0106582865
000260 21 65 1b bd 9a 5c a2 bd e2 69 82 bc 6f 2d 8f 3d
       -0.03793824 -0.079278186 -0.01591963 0.06991088
000270 47 a8 67 bd de 99 e1 3c ca 1e 8c bd 6d f7 db 3c
       -0.056556966 0.02753919 -0.0684181 0.02685138
000280 c7 50 1b 3c 06 46 c1 3c 53 f8 80 3d 9c 22 12 3e
       0.009479708 0.02359296 0.06297364 0.14271015
000290 6b b5 c6 bd 85 f2 83 3d 1d 7f 2f bd d5 6b 6e 3d
       -0.097025715 0.06442741 -0.042845834 0.058208305
0002a0 45 20 b8 bc 0b 71 11 3e 0a 5c 6b bd 60 ec 8e bc
       -0.022476325 0.14203279 -0.057460822 -0.017446697
0002b0 42 54 84 bd c7 30 ef bc be d8 84 bd 6e f2 a5 bc
       -0.064613834 -0.029198064 -0.06486653 -0.020257201
0002c0 3c 39 ee 3a 0e 02 5a 3d 60 b3 95 bd 2b 54 3e 3d
       0.0018175016 0.053224616 -0.07309604 0.046466988
0002d0 a3 8d 17 be 4a 29 6a 3d e3 91 c5 bd 7a 71 d2 bc
       -0.14800124 0.057168283 -0.09646966 -0.025688875
0002e0 c7 71 5a 3d 0a c2 59 be d0 61 89 bd 9b 36 00 bc
       0.053331163 -0.21265426 -0.067081094 -0.007825519
0002f0 6a 6b 22 bd 7f 0f a3 bd d1 2a 85 3d a1 50 6d 3d
       -0.03965322 -0.0796194 0.06502307 0.05793822
000300 5d 4c 0c 3d 1b 8f 9e 3d bb 70 8e bd eb dd 3c be
       0.034252513 0.07742139 -0.069550954 -0.1844403
000310 ac 9f 83 3c c7 07 66 bd 2a 87 5e 3d 21 08 0e bd
       0.016067348 -0.05615976 0.05432812 -0.03467572
000320 7a e5 30 bd 23 59 06 be 21 19 84 3d 9f c8 7a 3d
       -0.043187596 -0.1311994 0.064501055 0.061226483
000330 a4 18 93 bd c9 41 ef 3d df 18 80 3d f0 b7 80 3d
       -0.07182434 0.116824694 0.06254744 0.06285083
000340 35 80 37 bd 1e c5 8f bd 64 f4 fc 3d 16 ea 22 3c
       -0.044800002 -0.07020019 0.12351301 0.009943506
000350 74 a5 eb 3c 30 77 75 3c 80 80 1d bd 33 bf f6 bc
       0.028765418 0.01498203 -0.038452625 -0.030120468
000360 b0 49 50 bb db 84 7c 3d 95 f6 c7 3b bd c4 25 be
       -0.0031782202 0.06165014 0.006102393 -0.16188331
000370 3b 81 65 3d b8 1f 9a 3c c0 67 08 3e 52 97 3b bd
       0.056031447 0.018813953 0.13320827 -0.045798607
000380 d9 88 87 bd 7e 29 85 be 5a fa a8 3d f4 80 6b 3b
       -0.066178985 -0.2600822 0.08250876 0.0035935016
000390 22 52 b3 bc bf 52 08 bd a6 11 ee bd 7f d0 85 3d
       -0.02188975 -0.033282038 -0.1162446 0.06533908
0003a0 b8 f2 86 bd f6 e3 7e bc bf 3a 64 3d 90 5a 10 3c
       -0.06589264 -0.01555728 0.055720087 0.008810654
0003b0 6c 40 9d 3c e2 87 79 bd 36 3b 63 bb 2f 18 c4 3c
       0.019195758 -0.060920604 -0.0034672744 0.023937313
0003c0 b5 24 64 bd a9 88 6d bc 64 fa 68 3d 17 10 ce bb
       -0.05569907 -0.014497914 0.056879416 -0.006288539
0003d0 de 1f c2 3c 14 29 19 3d 96 7d f7 3c 2a d0 49 3c
       0.023696836 0.03739269 0.030211251 0.012317697
0003e0 e4 23 eb 3c e9 c9 40 bd 18 5d 27 bd eb 13 35 3d
       0.028703637 -0.047067557 -0.040860265 0.04420845
0003f0 f1 a3 72 bd 23 c7 d4 bc cc 50 6a bd c0 6c 61 bd
       -0.059238378 -0.025973862 -0.05720596 -0.055035353

p_fcs.1.bias f4 [128]
000000 4b f0 2d bc 9f 61 c1 3d d9 7e 99 3d 36 0b 1a 3d
       -0.010616372 0.09442448 0.074948974 0.037608348
000010 f7 19 8d 3d cd 56 e5 3a 70 48 7f bb 1e 5c 9c 3d
       0.06889718 0.0017497182 -0.0038953088 0.076347575
000020 20 fc 41 3d 0c 40 65 3d e7 98 2a 3d 95 1e 7b 3c
       0.047359586 0.055969283 0.041649725 0.015327116
000030 56 85 26 3d 74 fe 26 3d f6 bc 6e bc 8e 3d d6 3c
       0.040654503 0.04077001 -0.014571419 0.026152398
000040 77 56 ac 3c 85 3d 0c 3d 6a 47 0d 3c 89 51 5b 3c
       0.021037323 0.034238357 0.0086229835 0.013386139
000050 5d 2b ef 3c d0 ea 8a bc f5 2c 0e bd 48 cc 5d 3d
       0.029195482 -0.01695767 -0.034710843 0.054149896
000060 27 02 d4 3c b0 de 44 bb 8e 6e 98 3d 5e 45 5f 3d
       0.025879933 -0.0030039959 0.07442962 0.054509513
000070 1f 46 94 3d f1 09 19 3d 45 ba 35 3d 50 8d b0 3c
       0.07239937 0.037362996 0.044367094 0.021551758
000080 40 c1 0b bc 5e 22 05 3d 77 38 2f bc fa e7 de 3c
       -0.008529961 0.03250348 -0.010694615 0.027210224
000090 1b af 71 3d 00 f2 70 bc d7 36 51 3d fd 05 ee 3c
       0.059004884 -0.014706135 0.05107769 0.02905559
0000a0 98 5d 65 3d fa 58 30 3d 08 02 80 3d 97 ab 3f 3b
       0.05599746 0.043053605 0.062503874 0.0029246563
0000b0 56 0b 63 3d 92 88 40 3c 50 b8 e4 3c c8 89 57 3d
       0.055430733 0.011751311 0.027919918 0.052621633
0000c0 e1 2f 08 3d 5c b4 3c 3d f2 f2 66 3d 68 c7 5c 3d
       0.033248786 0.04607044 0.056384034 0.053901106
0000d0 f8 09 75 3d b4 c6 09 3d 43 33 9c 3d c1 a9 f2 3c
       0.05982396 0.033636764 0.07626965 0.02962196
0000e0 44 bc 55 bc b1 5b 07 bc d9 2e 5c bd d3 84 90 bc
       -0.013045374 -0.008261607 -0.053755615 -0.01764146
0000f0 75 01 3e 3d cd 89 cf 3c 63 46 95 3d 9f 57 da bc
       0.04638811 0.025334263 0.07288816 -0.02665311
000100 b9 7b 9d bc 6a 4e 6b 3d 60 21 6a bc 75 73 f2 bb
       -0.019224035 0.05744783 -0.014290184 -0.0073990175
000110 10 2d b0 3d 75 55 fd b9 f6 b5 c8 3c 1d 70 99 3d
       0.08602345 -0.0004831959 0.024500828 0.07492087
000120 c9 55 99 3d d1 68 ea 3b dc 5f a2 bc 67 59 9b 3d
       0.07487065 0.0071536084 -0.0198211 0.075854115
000130 37 87 96 3d e1 83 30 bc cb de 00 3d a7 b8 31 3d
       0.07350009 -0.01077363 0.031462472 0.04338899
000140 93 a0 22 bc f0 19 5c bc 10 03 39 3d 69 a8 d3 3c
       -0.009925979 -0.013433918 0.045168936 0.02583714
000150 3a 5c 23 bc 6c 57 50 3d eb 7a 4e 3d b9 82 d3 3c
       -0.009970719 0.050864622 0.050410192 0.02581917
000160 91 99 1b 3d 2c 81 8e 3d e9 09 0c 3d 31 2d f2 3c
       0.03798825 0.06958231 0.03418914 0.029562565
000170 8f c7 27 bc f0 21 33 3d 28 65 73 3d 4d 2f 32 bc
       -0.01024045 0.043733537 0.059422642 -0.010875535
000180 df c9 c2 3c 6b 22 44 3d 4e 49 8c 3d 69 f1 79 3d
       0.0237779 0.047884386 0.06849919 0.061021242
000190 b2 74 06 3d 65 a1 fc 3c 7a 95 39 bb cf db 15 bc
       0.032826133 0.030838678 -0.0028317855 -0.009146645
0001a0 49 00 8c 3c d4 6e 8d 3c c0 98 bb 3c 05 1f d0 3c
       0.01708998 0.017264761 0.022899985 0.025405416
0001b0 80 73 4e 3d 79 17 24 3c 70 76 02 3d 59 6e 8b bc
       0.050403118 0.010015362 0.031851232 -0.017020391
0001c0 2b d7 28 3c 96 39 89 ba a1 30 f0 3c 33 e3 0f 3d
       0.010305206 -0.0010469432 0.029320063 0.035128783
0001d0 41 8c 0b 3d cc 6a eb bc 46 2f d3 3c 14 da d8 3d
       0.034069303 -0.028737448 0.025779378 0.1058847
0001e0 ec 73 07 bb de 93 93 3d fd 05 02 bc 18 31 24 3d
       -0.002066846 0.07205938 -0.007935998 0.040085882
0001f0 57 70 9f bc 9a 18 48 3d f7 df 27 bc 62 37 1a 3d
       -0.019462747 0.048851587 -0.0102462685 0.037650473

v_fcs.0.weight f4 [128, 39]
000000 5b 19 57 be 86 82 58 be 86 d9 8c 3d 21 87 99 3e
       -0.21005766 -0.2114354 0.06877427 0.29985908
000010 29 c9 4b 3e 6e 35 42 be 10 c7 6b be d3 46 7d 3e
       0.19900955 -0.18965694 -0.23025155 0.24734049
000020 5b ab c1 bc 53 6a 6a be 0c d6 6a 3e 48 c8 92 be
       -0.023641279 -0.22892122 0.22933215 -0.28668427
000030 2f a0 5d be 2d 75 73 3e 74 bb 3d 3e 5a 82 71 be
       -0.21643136 0.23775168 0.18528539 -0.23584881
000040 bb 8c 71 3e 9f 17 4a 3d b3 b3 76 be ae c7 45 3e
       0.2358884 0.049338933 -0.24091987 0.19314453
000050 8d 1a e9 3c 25 9e 0d 3e ad e0 15 3e fb 18 71 bc
       0.028455043 0.13829859 0.14636488 -0.014715428
000060 c0 15 d1 3c 45 57 8e 3c 52 b8 a2 bc 4d cf 3e 3b
       0.025523067 0.017375598 -0.019863281 0.002911526
000070 62 62 ea bc e3 4b 35 bc a3 21 07 3d a7 76 1f bc
       -0.028611366 -0.011065456 0.032991063 -0.009732879
000080 0c 4a 6e bc 53 fa 53 bc af 82 e9 3b 37 91 27 3d
       -0.014544021 -0.0129381 0.0071261744 0.040909972
000090 38 ed 3a be 68 7e c9 3c 00 32 5b bd 7f e9 86 bd
       -0.18254554 0.024596408 -0.05351448 -0.065875046
0000a0 c3 50 ba be 48 f8 7c bf 49 44 42 3d 5b ee 03 bf
       -0.3638974 -0.9881635 0.047428403 -0.51535577
0000b0 7a df cf bf 73 1d 12 bf 73 8c 35 3f c1 10 0a bd
       -1.6240075 -0.57076186 0.70917434 -0.033707384
0000c0 81 f4 03 bf 7f 4d 0f 3f 08 b9 14 bf 86 43 0c bf
       -0.5154496 0.55977625 -0.58094835 -0.5479053
0000d0 b6 4b f9 3e 5d 5c 71 3f 01 07 a4 be 67 a5 3a 3f
       0.48690575 0.9428156 -0.32036594 0.72908634
0000e0 60 86 13 3f 8a 8b 76 bd 50 ce d0 3d a5 73 e6 bd
       0.57626915 -0.06019167 0.10195601 -0.11252526
0000f0 9a 1e 94 3e 2f 05 0e 3e 27 9f 48 bd 64 eb 3e 3e
       0.28929597 0.13869165 -0.048979905 0.18644482
000100 3a 96 31 3d 76 71 54 bd fb fa a1 3d e3 f3 94 3d
       0.043356158 -0.051866017 0.07909199 0.0727308
000110 50 85 aa bd d7 a3 26 3e 08 7b e7 3d 1a 84 27 3d
       -0.083262086 0.16273437 0.11302763 0.040897466
000120 c1 48 6b be bf be d0 bd 43 aa 7f be 01 7e 9b bf
       -0.22976972 -0.10192632 -0.24967293 -1.2147828
000130 f5 61 ba be c1 ac 8e be f7 56 a4 be c3 7a b0 be
       -0.3640286 -0.27866176 -0.320976 -0.3446866
000140 07 88 64 3e 3d ac b5 3e ce aa d5 3e ca 2a ae be
       0.22317515 0.3548297 0.41731876 -0.3401702
000150 92 d9 a5 be de 4e b7 3e 0c d2 a2 3e 51 08 b3 be
       -0.32392555 0.35802358 0.31800878 -0.34967282
000160 46 4a be 3e 4f a0 84 be 97 b8 ad be a8 2e ab 3e
       0.3716604 -0.25903556 -0.33929893 0.33434033
000170 35 8d d2 3e eb f7 b1 be 9c 22 be 3e f9 1a 96 3c
       0.41123357 -0.3475946 0.3713578 0.018323408
000180 a6 78 24 be 79 9c 65 3e 83 c1 b8 bd d4 be bf 3d
       -0.16061649 0.22422971 -0.090212844 0.093625695
000190 8d 6d 68 3e cc 60 be 3d 59 87 f8 bd be 0e 56 bc
       0.2269804 0.09295806 -0.121351905 -0.013065038
0001a0 ba 14 4f 3d 47 29 b1 bc 52 d0 22 3c 34 ea 25 be
       0.050556876 -0.021626128 0.009937363 -0.16202623
0001b0 ce b6 88 3d ab b9 11 ba b6 46 55 bd cc 81 b7 bc
       0.06675492 -0.0005558978 -0.05206939 -0.02240076
0001c0 63 d2 38 bd 80 35 9b be 63 fb f7 be 19 65 67 be
       -0.045122515 -0.30314255 -0.4843398 -0.2259716
0001d0 1a 97 c2 be ce e5 82 be 35 34 99 be 9a 8a ef be
       -0.38005906 -0.25565952 -0.29922643 -0.46785432
0001e0 d5 b4 ef 3e 30 eb 8d 3f d7 99 06 bd 28 37 b9 be
       0.4681765 1.1087399 -0.032861557 -0.36174893
0001f0 e8 aa 8e 3e b6 78 cc 3d 50 65 83 be a2 2a 8a 3e
       0.27864766 0.09983961 -0.25663233 0.2698565
000200 0f 2f 87 bd 8b 6a 82 be cd 66 77 3e 24 61 22 3e
       -0.066007726 -0.2547191 0.24160309 0.15857369
000210 bb fe a2 be 47 52 a7 3e ba ae 14 3d c4 26 ab 3d
       -0.3183497 0.3267996 0.036299445 0.08357003
000220 90 ba e3 3d 65 00 53 be b2 70 5c 3e f9 25 e7 3d
       0.11119568 -0.20605619 0.21527365 0.112865396
000230 06 87 09 bb 76 a1 39 3a 5e 11 9f 39 01 b9 c7 3b
       -0.0020985021 0.00070812495 0.00030339783 0.006095052
000240 8c a0 81 bc b7 83 cc bb 14 7d ae bc 38 bf 09 be
       -0.015823625 -0.0062412876 -0.021299876 -0.1345185
000250 ab c1 8e bd 7e c0 c9 bd 7e 22 e5 3d 2a 93 80 3d
       -0.06970533 -0.09851168 0.111882195 0.06278069
000260 ef c4 08 bf 5a 17 d8 be 30 ff 72 bd fe 8a 9c 3e
       -0.53425497 -0.42205316 -0.059325397 0.30574793
000270 2c eb 6e be f0 90 8a be ee 54 05 bd 35 4e 58 3e
       -0.23331898 -0.27063704 -0.0325517 0.21123584
000280 15 a7 fc 3d c7 d3 79 be f3 0d 8d be e6 99 8e 3e
       0.12336556 -0.24397193 -0.27549705 0.2785179
000290 5b 44 04 3c d5 06 7f be 57 d8 87 3e 5c 9c 94 3d
       0.008072938 -0.2490495 0.26532242 0.07256386
0002a0 52 2a 83 be dc c2 90 3e 4c 70 20 3e 42 90 8c be
       -0.25618225 0.28273666 0.15667838 -0.2745381
0002b0 3b fa 88 3e 85 a1 08 3e 47 3f 1a 3d 5c da 2f 3e
       0.2675341 0.13342865 0.037658002 0.17173141
0002c0 00 55 ee bc b7 90 7b 3d 6d 99 10 3e 7e 86 a7 3c
       -0.029093266 0.061417308 0.14121027 0.020449873
0002d0 7e 4e 03 3d 6e a2 1f 3d 76 d2 6d 3b 5f ed 82 3c
       0.032057278 0.038973264 0.0036288775 0.015982328
0002e0 9e db 04 3d d1 36 90 bd 5b 57 e6 3b 26 cb 09 bd
       0.032436006 -0.070417054 0.0070294566 -0.033641003
0002f0 4e ba 18 3d 20 2c 8d bc 42 1f 74 bc ac d3 6b bd
       0.03728705 -0.017232955 -0.014900031 -0.057574913
000300 c7 32 c4 bd de 52 7e bd d0 0f 67 bc eb 6f 7b be
       -0.095799975 -0.062090747 -0.014102891 -0.24554412
000310 bf 76 00 bf 6d 39 08 40 5a e3 18 40 24 27 49 40
       -0.5018119 2.128505 2.3888764 3.143014
000320 5f b3 37 3f 2c ae f8 bd d0 71 21 3f 97 86 6f 3e
       0.71758074 -0.12142596 0.6306429 0.23391186
000330 68 6f 3b 3e 18 dc 47 3f 8a f5 ff 3f 28 5f 06 be
       0.18304217 0.7807021 1.9996808 -0.13122237
000340 74 6d 48 3f 8e 29 ac bf 5d 4b 8c bf 8a a9 0e 3f
       0.7829201 -1.3450181 -1.0960499 0.55727446
000350 eb b0 cf 3e 3b 89 7a be 46 91 8c 3d dc f5 b1 3e
       0.40564665 -0.24466412 0.06863646 0.34757888
000360 42 87 81 3e bb 80 e7 bd 7b 03 63 3d 48 bf a6 3c
       0.25298506 -0.1130385 0.05542324 0.020354882
000370 ee de 05 3d 20 a1 17 3e 72 57 99 bb e4 04 77 bd
       0.032683305 0.14807558 -0.0046796137 -0.0603074
000380 49 8e 93 3d 11 55 74 bc e2 e0 9c 3b 09 dd 14 3d
       0.07204873 -0.01491286 0.0047875503 0.036343608
000390 de 3a db ba ef d4 19 3b 45 72 0d 3f 6e 2b 5d bf
       -0.0016725918 0.0023472866 0.55252486 -0.86394393
0003a0 70 d6 0c 3f eb c3 2d 3f 5e 44 33 be fd 5f 47 be
       0.55014706 0.6787707 -0.17506549 -0.1947021
0003b0 e0 ad a7 3d d6 25 f0 3d 76 55 5b 3d d3 c2 aa bd
       0.08187461 0.11725967 0.0535483 -0.08337941
0003c0 2a 23 33 be 21 34 39 3e f1 ff ea 3c 9a 6b 44 be
       -0.17493883 0.18086292 0.028686495 -0.19181672
0003d0 35 ca 1e 3e 3e ae d3 bd 6d fb 31 be 08 93 25 3e
       0.15506823 -0.103359684 -0.17381068 0.16169369
0003e0 3f 92 22 3e 0b 68 4a be da a2 23 3e e5 f8 9b 3d
       0.15876101 -0.19766252 0.15980092 0.07615832
0003f0 f8 9b 30 bd d0 5e a5 3d 15 df d2 3c 8c d5 fd 3d
       -0.043117493 0.08074725 0.02574114 0.123942465

v_fcs.0.bias f4 [128]
000000 6c f1 68 be 83 c7 d0 be 76 1f b3 be 4a 0e 95 be
       -0.22748345 -0.40777215 -0.3498494 -0.29112464
000010 88 f1 91 be f7 c0 07 bf 8f f6 31 be c4 eb e6 be
       -0.28504586 -0.53028816 -0.17379211 -0.4510175
000020 3b 9b 0a bf ce e3 eb be 3b 64 fd be 13 c8 d8 be
       -0.5414311 -0.4607224 -0.49490532 -0.42340145
000030 c6 e0 7d 3d 93 a2 c4 be 6f 84 96 bd 59 b9 52 bd
       0.06198194 -0.38405284 -0.073494785 -0.051446293
000040 1f 54 5f bf 66 ec 1d bf b3 af b5 be ee 81 5a be
       -0.87237734 -0.6168884 -0.3548561 -0.21338627
000050 92 ad 5d be 50 ce 49 3f b1 88 4f be 75 9a 5a bd
       -0.21648243 0.7883043 -0.20266987 -0.053369958
000060 fd 59 18 bf 3d c8 0f bf bf 41 61 bf b1 3f 0f bf
       -0.5951231 -0.56164914 -0.87990946 -0.5595656
000070 34 ad f6 be 80 77 c4 be 19 f2 91 be 6e a1 26 bf
       -0.48179018 -0.3837242 -0.28505018 -0.6509007
000080 1c 35 10 bf 90 2b 37 bf 0e a8 ca be 46 9a 49 bf
       -0.5633104 -0.71550846 -0.3958134 -0.7875103
000090 0c cb 3b bf 70 5b e1 be 89 98 b9 3e 78 e1 d1 3d
       -0.733567 -0.44015074 0.36249188 0.10248083
0000a0 4e 2b b8 be a0 70 d4 3c ed 21 45 be 8a 53 de be
       -0.3597054 0.02593261 -0.19251223 -0.4342311
0000b0 f2 ed e6 be f1 4c 0b bf c3 e5 f7 be 68 5c 20 bf
       -0.45103413 -0.5441428 -0.48417482 -0.62641
0000c0 d8 79 41 be 15 b6 4a bf 22 c0 ce be 8d 67 65 bf
       -0.18894136 -0.79184085 -0.4038096 -0.8961113
0000d0 1c 1d ed be 89 d1 91 be 3c 19 00 be 0e 71 49 be
       -0.4631127 -0.28480175 -0.12509626 -0.19672033
0000e0 c2 79 86 be ee fc a8 be 1a bf a7 be a5 2e 5d be
       -0.2626477 -0.3300547 -0.32762986 -0.21599825
0000f0 dc 1d f8 be 25 1c 82 be 29 43 24 be 00 a7 51 be
       -0.4846028 -0.25412098 -0.16041245 -0.20473862
000100 46 4b 3d bf d2 fa b6 be 32 25 a3 be 93 e2 30 bf
       -0.73942983 -0.35738236 -0.31864315 -0.69095725
000110 7b f3 35 be b3 2c a6 be 11 ad 0f 3e f8 3f 90 bc
       -0.17768662 -0.32455978 0.14030863 -0.017608628
000120 df 49 3e bf f7 d2 c2 be 1a 18 cf be 2d de b7 be
       -0.7433147 -0.38051578 -0.40448076 -0.35911694
000130 23 00 89 3d c7 28 01 bf 8c 65 ee be 1a ba 73 be
       0.06689479 -0.50452846 -0.4656185 -0.23801461
000140 5d 38 37 be 8f 1e 63 be f8 48 11 3f 80 7b 38 bf
       -0.17892595 -0.22179626 0.56751966 -0.72063446
000150 45 5c 21 bc ee cc 16 bf 18 31 01 bf 72 20 11 be
       -0.009848659 -0.5890645 -0.50465536 -0.14172533
000160 9a 26 3e 3e a4 63 d3 be 06 1f be be 4f 63 af be
       0.18569413 -0.41286957 -0.37133044 -0.34255454
000170 96 de 20 bf 2f ca cd be 0d db 94 be 71 eb 24 be
       -0.6283964 -0.40193316 -0.29073372 -0.16105439
000180 03 23 6d be 7c cf 0a be 18 12 37 bf 7a 73 2a bf
       -0.23157887 -0.13555712 -0.71511984 -0.66582453
000190 3b 1f 99 be 7f d6 4b bf 4a 4a d8 be 89 fb 63 be
       -0.2990664 -0.7962417 -0.42244178 -0.22263922
0001a0 e0 0b 94 be 11 0b 18 bf 40 11 9c be e4 2c 4f be
       -0.2891531 -0.59391886 -0.3048191 -0.20231968
0001b0 fd f5 0c bf 97 1a 19 bf c9 21 ce be 29 f4 33 3e
       -0.5506285 -0.598062 -0.4026015 0.17573608
0001c0 ff e3 0f bf 53 3b 77 be 07 20 8f bd 28 e4 23 be
       -0.5620727 -0.24143724 -0.069885306 -0.16005003
0001d0 2b 83 71 be 2d 33 9a be fd 15 ad be 1d 25 9a be
       -0.23585193 -0.3011717 -0.33805838 -0.3010644
0001e0 a0 d1 ac be 70 8e 90 be 08 bd 02 bf 1a 67 06 bf
       -0.3375368 -0.2823367 -0.5106969 -0.5250107
0001f0 5d cc 4f 3e db 7f a9 be d4 6f b1 be 41 cf 32 be
       0.20292802 -0.33105358 -0.3465563 -0.17461874

v_fcs.1.weight f4 [128, 128]
000000 be c0 00 bd 1b 49 24 bd 52 e7 54 bd 9e 98 4f bd
       -0.031433813 -0.04010878 -0.051978417 -0.050682656
000010 16 c5 92 bd 01 78 6f bd 96 8e 6a bd 55 17 70 bd
       -0.071664974 -0.058464054 -0.057264887 -0.058616
000020 c5 66 87 bd 3e d8 3e bd d0 82 36 bd de e0 59 bd
       -0.066113986 -0.046592943 -0.044558346 -0.053192966
000030 77 9e 85 bd 6a 14 3f bd 72 4a 68 bd b6 cb 08 3c
       -0.065243654 -0.046650328 -0.05671162 0.00834935
000040 29 79 47 bd cc 15 38 bd f1 3b 44 bd 7a eb 40 bd
       -0.04869953 -0.044942662 -0.047908727 -0.047099568
000050 2c 29 4f bd 10 00 4f bd 7a 71 82 bd 0a b8 81 bd
       -0.050576374 -0.05053717 -0.063693 -0.06333931
000060 5d 91 48 bd 26 8a 73 bd ab f5 4a bd c6 00 8f bd
       -0.048966754 -0.05945792 -0.049550693 -0.069825694
000070 5f 7e 3c bd 29 b2 67 bd ff e1 13 bd 6c 22 07 bd
       -0.046018954 -0.05656639 -0.0361042 -0.03299181
000080 4a 04 23 bd 2b 3c 68 bd 30 ac 29 bd 01 4d 5e bd
       -0.039799012 -0.056698006 -0.041423976 -0.054272655
000090 6d f4 32 bd df 36 56 bd 0e 86 64 bd 8b ff 75 bd
       -0.043690134 -0.052298423 -0.055791907 -0.060058158
0000a0 53 c0 4a bd c6 95 52 bd f4 74 7d bd 8f db 21 bd
       -0.04949982 -0.051412366 -0.061879113 -0.039516028
0000b0 dd 37 43 3c 93 25 15 bd e6 06 41 bc 1f f2 35 bc
       0.011915174 -0.036412787 -0.01178143 -0.011105089
0000c0 68 0c 78 bd 84 7f 62 bd 30 c0 3e bd d8 dc 55 bd
       -0.060558707 -0.05529739 -0.046570003 -0.052212566
0000d0 5b 9b 82 bd a3 a4 89 bd b7 10 65 bd e8 9a 65 bd
       -0.06377288 -0.06720855 -0.055924144 -0.056055933
0000e0 a5 ca d1 bc dc 68 4a bd a7 bf 7c bd 22 ca 41 bd
       -0.025609324 -0.049416408 -0.06170621 -0.04731191
0000f0 23 7e 44 bd b3 d4 80 bd ae c3 a8 bc 7f d1 45 bd
       -0.047971856 -0.06290569 -0.02060112 -0.048295494
000100 af 2b 6b bd 1c c9 5b bd 57 66 83 bd 26 f1 15 bd
       -0.057414707 -0.05365859 -0.06416004 -0.03660693
000110 fe 84 68 bd 33 e8 64 bd 04 01 54 bd ad 43 37 bd
       -0.056767456 -0.055885505 -0.05175878 -0.044742275
000120 b5 b9 46 bd 0c 20 53 bd 02 1a 45 bd cf 49 3d bd
       -0.048516948 -0.051544234 -0.048120506 -0.046212967
000130 23 4e 35 bd 29 8c 73 bd 12 1a 4f bd 2c c7 be bc
       -0.04426397 -0.05945984 -0.050561972 -0.023288332
000140 e7 e3 23 bd 1d c4 81 bd 48 5a 6b bd d2 d7 8d bd
       -0.040012266 -0.06336234 -0.057459146 -0.0692593
000150 29 88 73 bd 1a 9d 28 bd 5c 77 20 bd b5 99 71 bd
       -0.059456024 -0.04116545 -0.03917633 -0.058984477
000160 5a da 70 bd 22 78 3f bd 8a 52 4d bd 40 ad 63 bd
       -0.058801986 -0.046745427 -0.050127544 -0.055585146
000170 05 0b 5f bd 0f ad 20 bc 0a fa 6a bd 0f 20 65 bd
       -0.05445387 -0.009806885 -0.057367362 -0.055938777
000180 24 d8 72 bd 83 e0 5b bd 1b 60 21 bd 8b 80 8d bd
       -0.05928816 -0.053680908 -0.039398294 -0.06909283
000190 b0 e0 6d bd 89 12 54 bd e5 e6 83 bd 1a cb a4 bc
       -0.058075607 -0.05177549 -0.06440524 -0.020116378
0001a0 ee 02 c9 bc ae e7 55 bd cb 16 45 bd 24 8f 4a bd
       -0.02453753 -0.0522229 -0.04811744 -0.049452916
0001b0 20 5e 5d bd f5 63 91 bd 83 ed 70 bd af 55 35 bd
       -0.054044843 -0.070991434 -0.05882026 -0.044271167
0001c0 1e 67 40 bd 37 d3 50 bd 09 76 54 bd 6d ea 8b bd
       -0.04697334 -0.05098268 -0.05187038 -0.068318225
0001d0 6f f8 38 bd d1 23 64 bd 4d 9a 85 bd 70 af 1c bc
       -0.0451588 -0.05569822 -0.06523571 -0.009563312
0001e0 17 0e 5b bd 75 d1 68 bd 91 66 70 3b 02 2f 22 bd
       -0.053480234 -0.05684038 0.0036682228 -0.03959561
0001f0 1d de 7e bd cd 13 2a bd 00 80 cd bc 14 79 5f bd
       -0.062223542 -0.04152279 -0.02508545 -0.05455883
000200 d2 37 4e bd 38 d7 9e bd 5b ec 64 bd 51 ad 82 bd
       -0.050346203 -0.077558935 -0.05588947 -0.06380714
000210 ce 8d 8f bd 2b 03 69 bd 09 4e 56 bd 5e 5e 7a bd
       -0.07009469 -0.056887787 -0.052320514 -0.06112515
000220 55 fd 5a bd 9b 1a 46 bd 4b e3 61 bd a1 0e 7e bd
       -0.053464253 -0.048365217 -0.055148404 -0.06202567
000230 57 69 5e bd 89 60 93 bd e3 b4 37 bd 2f ae 44 bd
       -0.05429968 -0.07196147 -0.04485024 -0.048017677
000240 00 bc 5e bd c6 91 7c bd ae 6e 4c bd 18 80 6a bd
       -0.05437851 -0.061662458 -0.04991024 -0.057251066
000250 a4 73 24 bd e9 8d 68 bd 71 cf 66 bd eb e5 88 bd
       -0.040149346 -0.05677596 -0.056350175 -0.06684478
000260 43 a3 4d bd a2 52 81 bd f6 6a 3c bd 25 4e 83 bd
       -0.050204527 -0.06314589 -0.046000443 -0.06411389
000270 cc 90 6c bd 1a d8 5d bd ed 4f 64 bd 8b a1 81 bd
       -0.057755277 -0.05416117 -0.055740286 -0.0632964
000280 68 28 75 bd 4a ff 73 bd 4f 3c 61 bd c8 c9 4e bd
       -0.059852988 -0.059569634 -0.054989155 -0.050485402
000290 25 b9 9b bd dc 4a 4e bd 95 f4 7b bd af 4f 6e bd
       -0.07603673 -0.05036436 -0.06151255 -0.05818146
0002a0 51 b2 61 bd 24 6f 48 bd 7b 55 7c bd a6 86 6c bd
       -0.055101696 -0.048934117 -0.061604958 -0.0577456
0002b0 f4 40 5e bd f9 e1 92 bd a2 45 80 bd fe 14 52 bd
       -0.054261163 -0.07172007 -0.062632814 -0.05128955
0002c0 ba a7 72 bd 21 76 51 bd c3 20 9c bd 98 0f 3e bd
       -0.059241988 -0.051138047 -0.07623436 -0.04640159
0002d0 35 df 72 bd 66 2c 39 bd 73 54 7f bd 87 9e 68 bd
       -0.059294898 -0.045208357 -0.062336396 -0.05679181
0002e0 66 42 69 bd 46 28 a7 bd 93 c6 9b bd 4d e4 59 bd
       -0.056948088 -0.081619784 -0.076062344 -0.05319624
0002f0 d1 dc 23 bd 5b 7a 64 bd 3d fe 5e bd 69 09 65 bd
       -0.04000551 -0.05578075 -0.05444168 -0.055917177
000300 29 2c 42 bd 6d 61 3d bd cb b5 4f bd 7a 8c 5f bd
       -0.047405396 -0.04623549 -0.05071048 -0.05457733
000310 63 fa 44 bd e8 f9 72 bd 95 b3 6d bd 42 4a 42 bd
       -0.04809035 -0.05932036 -0.05803259 -0.0474341
000320 81 f1 92 bd e0 ef 62 bd e2 38 66 bd ca 95 84 bd
       -0.071749695 -0.055404544 -0.05620659 -0.064738825
000330 69 e5 75 bd ea 80 3e bd 9b 4f 64 bd 3b f5 5b bd
       -0.060033236 -0.04650966 -0.05573998 -0.053700667
000340 d3 eb a3 bd c4 ec 63 bd ae 86 7d bd f1 5f 77 bd
       -0.08003964 -0.05564572 -0.06189602 -0.06039423
000350 6c 83 97 bd 82 df 7d bd 39 aa 81 bd 35 13 9c bd
       -0.073981136 -0.06198073 -0.063312955 -0.07620851
000360 4c 38 89 bd 68 1c 89 bd f0 a4 5f bd 4f 18 9a bd
       -0.06700191 -0.06694871 -0.054600656 -0.07524168
000370 1f 69 79 bd 72 31 51 bd e4 f3 7a bd 97 65 88 bd
       -0.060891267 -0.051072545 -0.06126775 -0.06660002
000380 a1 3d 2d bd 10 88 47 bd 5d f0 63 bd d4 3d 26 bd
       -0.042295102 -0.048713744 -0.05564915 -0.040586308
000390 62 ec 7c bd 66 8c 75 bd a6 c3 48 bd 5e 53 6e bd
       -0.06174887 -0.059948348 -0.04901471 -0.058184974
0003a0 f3 39 66 bd 5b 43 90 bd e5 3f 3a bd 67 81 72 bd
       -0.05620761 -0.07044097 -0.04547109 -0.05920544
0003b0 57 07 6b bd 30 e8 84 bd 7c 73 59 bd 8d a8 88 bd
       -0.057380047 -0.06489599 -0.05308865 -0.066727735
0003c0 5a 27 8e bd b7 ed 7e bd 7d 47 5d bd e4 01 8c bd
       -0.069410995 -0.06223842 -0.054023255 -0.06836298
0003d0 fe 12 42 bd b8 dd 85 bd 2d 7b 85 bd 6d dd 3c bd
       -0.047381394 -0.0653643 -0.065176345 -0.046109606
0003e0 c5 eb 6e bd d3 5d 81 bd 28 70 7f bd 6a 99 99 bd
       -0.058330316 -0.06316724 -0.06236282 -0.074999645
0003f0 86 78 8f bd 5d e1 7a bd d6 1f 82 bd d0 bb 53 bd
       -0.0700541 -0.06125008 -0.063537285 -0.051692784

v_fcs.1.bias f4 [128]
000000 25 de 88 bd 57 1a 71 bd c3 24 e8 bb 22 fe 4f 3e
       -0.06682996 -0.05886301 -0.0070844605 0.20311788
000010 72 87 3a bc 89 8f 23 be 3d 8a 8c bd 23 11 5f bd
       -0.011384832 -0.15972723 -0.06862304 -0.054459702
000020 62 5b 89 bd 42 97 3d 3f 45 4d 40 bd 38 ea 4e bd
       -0.06706883 0.74058926 -0.04694869 -0.050516337
000030 9e 7f 54 bd b0 5d 9d bd 99 8d b5 3d b7 7b 00 bf
       -0.051879518 -0.07683885 0.08864898 -0.50188774
000040 85 6d df bc a1 ca 8e bd 01 0b 96 bd ac 0b 61 bd
       -0.027273903 -0.06972242 -0.073263176 -0.05494277
000050 2b c2 50 bd b9 86 46 bd 4d 05 93 bd fb 9a d5 be
       -0.050966423 -0.048468325 -0.071787454 -0.41719803
000060 4d 21 64 bd b9 28 7f bd 06 c9 48 bd 35 a3 68 bc
       -0.05569582 -0.062294696 -0.049019836 -0.014199068
000070 70 9e 84 bd 7a 55 60 bd c7 36 31 bd bb 77 a8 bd
       -0.06475532 -0.054769017 -0.04326513 -0.08225962
000080 d8 15 ef bb ff 57 df bc 80 b6 77 bd 4a b7 7c bd
       -0.007296305 -0.02726364 -0.06047678 -0.061698236
000090 ec 58 6e bd 5b c5 6b 3f b4 a7 a3 bb ae 0e 67 bd
       -0.05819027 0.92098016 -0.004994357 -0.056410484
0000a0 d5 58 97 bd b2 e5 7d bd 56 05 60 bd bd bb 5b bd
       -0.0738999 -0.061986633 -0.05469259 -0.053645838
0000b0 5f 3b 18 bd 17 ca 3a bd f3 ec 9c bd 2f 41 50 bd
       -0.037165996 -0.045602884 -0.07662382 -0.050843414
0000c0 ce a1 d5 bb d5 39 93 bd 97 78 97 bd 26 d9 cb be
       -0.0065195328 -0.07188765 -0.073960476 -0.3981411
0000d0 48 fd 93 ba 62 62 6a bd a4 f5 6e bd 12 2e 80 bd
       -0.0011290694 -0.05722273 -0.05833973 -0.06258787
0000e0 ef 5e 4c bd 53 58 8a be aa 60 23 bc 1b c3 b5 bc
       -0.049895223 -0.2702051 -0.009971777 -0.02218776
0000f0 ec d1 89 bc 15 76 80 bd 1f e8 84 bd 87 8d 10 bd
       -0.016823731 -0.06272522 -0.06489586 -0.03529122
000100 55 cc 78 bd 80 e9 86 bd 9b d5 af bb f0 1e 6f bd
       -0.06074174 -0.06587505 -0.00536604 -0.058379114
000110 55 ad 00 bc 11 b6 6b bd 0c c7 69 3f ac 8f 81 3f
       -0.007853826 -0.05754668 0.91319346 1.012197
000120 3f ac ff be b0 99 8b bd 91 71 30 bd 44 c6 60 bd
       -0.499361 -0.06816423 -0.043077055 -0.05487658
000130 3f 9d 30 bf 8f 46 5e bd e9 72 4e bc 2f a8 60 3f
       -0.6898994 -0.05426651 -0.012600639 0.8775663
000140 4d 0f 61 bc f3 9a 4f bc 2f 94 68 bb 95 5e 04 be
       -0.013736558 -0.01267122 -0.0035488715 -0.12926705
000150 ca 8d 8a bd c8 46 6a bf 4f 80 5c bd 76 49 9a be
       -0.06765325 -0.91514254 -0.053833302 -0.3013417
000160 73 d4 a3 bd 85 76 2e bd 29 5b c5 bd f9 2d 7a bd
       -0.07999506 -0.042593498 -0.09636528 -0.061079
000170 df cc a2 bc 99 2b 99 3f a8 e8 86 bd d4 7b 5d bc
       -0.01987308 1.196643 -0.065873444 -0.013518292
000180 3a 5d 81 bd 65 2b 1c bf 48 96 55 bd 0b e6 61 bd
       -0.0631661 -0.61003715 -0.052145272 -0.055151027
000190 54 de 84 bd 4b 01 3e bd e8 1e cf bc 87 02 8b bd
       -0.06487718 -0.04638795 -0.025283292 -0.067875914
0001a0 9b 43 24 bd 86 75 67 bd ba ce 0f bf fe db 79 3f
       -0.040103536 -0.056508563 -0.56174815 0.97601306
0001b0 80 a2 4b bd 8e 1d 97 bd d9 87 88 bd 8a 5a 64 bd
       -0.04971552 -0.07378684 -0.06666536 -0.055750407
0001c0 82 45 7c bd 88 18 40 bd 27 bb 10 bc 06 86 72 bd
       -0.061589725 -0.046898395 -0.008833683 -0.059209846
0001d0 68 e3 6b bd 4f 9d 87 3f b7 6d 0a bb 87 05 4c bd
       -0.05758992 1.0594882 -0.0021122524 -0.04980996
0001e0 6c 1d 67 bd dc 5b 9c bd 09 c1 91 bc 75 22 4c bd
       -0.056424543 -0.07634708 -0.017792242 -0.04983755
0001f0 54 0a b6 bd ce f8 0f 3f 3a 9a 37 3e 5d 9f 86 bd
       -0.08888689 0.5623902 0.17929927 -0.06573365

mu.weight f4 [12, 128]
000000 de f4 fc 3b 93 31 10 bd 33 6b 9c bd 7c c2 42 3d
       0.00771962 -0.035203528 -0.07637634 0.047548756
000010 14 47 88 bd 80 34 82 bc d2 3f ca 3c 3c 95 aa bc
       -0.06654182 -0.015894175 0.024688635 -0.020823114
000020 7f 6c 7e bd 14 97 f1 3d 86 63 40 bc ae e5 0f bd
       -0.06211519 0.11796394 -0.011742478 -0.03513115
000030 b2 35 82 bb f9 48 e3 3c d6 60 6d 3a 9f 6d 67 3d
       -0.003973686 0.027744757 0.0009055262 0.056501027
000040 14 9a 8e bc 17 6c 31 be 6b af 5b be c3 23 20 be
       -0.017407455 -0.17326389 -0.21453635 -0.15638642
000050 b4 d9 7f bd 93 d8 bb ba 2d 9e 04 3e ab c1 88 3d
       -0.062463477 -0.0014331512 0.12950964 0.06677564
000060 3b 21 12 3d 09 18 81 3d ac e1 1b be 84 19 ad 3d
       0.035676222 0.063034125 -0.15222806 0.08452132
000070 a9 de 4a be ef 7e 38 bc a9 4f 5e 3e ff 9d 95 3d
       -0.198115 -0.011260732 0.21710075 0.07305526
000080 48 83 49 3b e9 0e 53 3d 3f d6 8a bc ab 11 41 be
       0.0030748416 0.05152789 -0.016947864 -0.18854396
000090 dd 7d 65 3d e7 31 e6 bd 02 9a ac 3d 19 35 a6 bd
       0.056028236 -0.11239987 0.08427812 -0.08115596
0000a0 e6 d5 a2 3c 0f 16 29 3d b0 fa 30 3b 8a 08 56 bd
       0.019877385 0.041280802 0.002700489 -0.052254237
0000b0 08 96 5c bd ce 8a 33 3d a6 98 0d be f7 4c a4 3d
       -0.05385402 0.043833546 -0.13827762 0.080224924
0000c0 d7 ef a3 bd 83 a9 2a bd c9 3d ab bc de 1c 8a 3b
       -0.0800473 -0.041665565 -0.020903485 0.004214867
0000d0 01 98 09 3e 05 62 2a 3d d0 eb 15 be bd e5 12 3e
       0.13436891 0.041597385 -0.14640737 0.1434545
0000e0 05 b6 0e 3c 98 bb ef bb c1 2d 06 3d eb 73 18 bb
       0.008710389 -0.007316064 0.032758478 -0.0023262452
0000f0 eb 6a 10 3d 1a 06 d0 bd f9 86 ae 3d 25 0d 7e 3c
       0.035258215 -0.10157414 0.08521838 0.015506064
000100 13 fd 47 3b 7d 2c 81 3e c8 f8 0d bc 51 2b a0 3b
       0.0030515834 0.25229254 -0.008665271 0.004887976
000110 fb 92 91 3d eb b9 68 3d 89 9d 57 3d b8 9d d6 bc
       0.071081124 0.05681793 0.05264047 -0.026198253
000120 cf fb b9 bd ec b4 6c be 30 bf cf 3a c6 13 eb 3c
       -0.09081232 -0.23115891 0.0015849825 0.028695952
000130 74 2d d9 3c d0 9a e4 bb 78 3e 8a bd 79 38 e8 3d
       0.026510932 -0.006976463 -0.06750196 0.11338896
000140 7e e3 b8 bb 70 c8 14 3e 34 86 22 be 34 39 9a 3d
       -0.0056423536 0.14529586 -0.15871507 0.07530442
000150 08 c7 94 39 20 2c 08 3d 49 d0 04 3d 76 2a 04 bd
       0.0002837705 0.033245206 0.0324252 -0.032267056
000160 61 0d 1b bd bd 56 42 3e 25 de 39 3d a0 3c a8 bd
       -0.037854556 0.189784 0.04537787 -0.08214688
000170 c0 64 07 3c f2 fa aa bd a6 1f 0c 3c be 22 1e ba
       0.008263767 -0.08348645 0.008552467 -0.00060323987
000180 d8 35 7a 3a 66 31 e5 bc 9f 27 b7 3a 08 55 01 3e
       0.00095447665 -0.027977657 0.00139736 0.12630093
000190 24 ea 35 3e a8 eb 0a 3e 30 ee 04 be 16 b1 9c b9
       0.17765099 0.13566458 -0.12981486 -0.00029886578
0001a0 7b 76 de bb 23 13 7d bd 0a 44 e2 bc 52 d7 11 3e
       -0.0067890263 -0.06178583 -0.027620334 0.14242294
0001b0 d2 65 ac 3d 7c f9 b9 3d a9 43 49 3d f5 99 db 3c
       0.08417858 0.090807885 0.04913679 0.02680681
0001c0 46 64 4c 3d 60 53 71 bc 60 e3 1e 3d 5b 0c bd 3d
       0.049900316 -0.014729351 0.03879106 0.09230872
0001d0 b8 2e 8a bd 22 01 78 3c c8 58 12 be 22 98 4e 3d
       -0.06747192 0.015136989 -0.1429168 0.050438054
0001e0 18 dd 7e bc 2f 3c 90 3d d1 f3 1c 3e 90 25 b2 3b
       -0.015555643 0.07042729 0.15327384 0.0054366067
0001f0 d2 bc e7 ba 1a c0 61 3b d5 4c 21 3b a7 95 0a bd
       -0.0017680174 0.0034446777 0.0024612446 -0.033834126
000200 e5 e5 4a 3b 46 3a 8e 3d 84 98 35 3d 89 3e 89 bc
       0.0030959782 0.069447085 0.044334903 -0.016753452
000210 9f d3 36 3d 39 86 9f bc dd 9d 46 3e 2c 13 0d be
       0.04463541 -0.019473182 0.19396158 -0.13776845
000220 2e 0b 12 3d 88 4b 48 bc d2 4f 51 3d 7d 4c 62 bd
       0.035655193 -0.012225039 0.051101513 -0.055248726
000230 37 ba 06 3e 2e e1 0c 3e aa e6 6a bb 2b f6 d4 bc
       0.13156973 0.13757774 -0.0035843053 -0.025996288
000240 ca a4 92 3d 67 20 ba bd 46 17 a2 3d ca ef fc bc
       0.07160337 -0.090882115 0.07914595 -0.03087606
000250 5f 44 b1 3c 54 24 50 3c aa f5 55 bd 80 7b 3a 3e
       0.021639047 0.012703974 -0.052236237 0.18211174
000260 92 1a 90 bd 36 a3 7b 3d f6 b7 eb 3c 97 19 6b 3d
       -0.07036318 0.061434947 0.028774243 0.05739745
000270 f7 8e b5 3d 7f 52 ad bc 41 6e 13 bd e4 04 59 3c
       0.08865159 -0.021157501 -0.03599382 0.013245795
000280 86 5c f7 bb d7 60 9e 3d 11 87 f8 3d 09 ba 2c 3d
       -0.0075488715 0.077333145 0.12135137 0.042169604
000290 1c bc c3 bd c3 96 b1 3d 6e 61 c5 3c d6 ea 97 bd
       -0.095573634 0.08671334 0.02409431 -0.07417838
0002a0 7e 45 ff 3c 30 6e 63 3c fc 46 3a 3e 58 db 58 bc
       0.031161066 0.013881251 0.18191141 -0.013235889
0002b0 d8 78 3e bd 39 4d 03 be 53 86 b8 bc be d0 8e 3d
       -0.046501964 -0.12822427 -0.022524988 0.06973408
0002c0 a8 2b 36 bb 2a 97 c4 bd 04 50 5f 3e 92 ec d4 3d
       -0.0027797017 -0.09599145 0.21807867 0.10396685
0002d0 aa 09 5a 3d 2d 1b 4b 3d 47 73 2f be 78 da f4 bd
       0.053231873 0.049586464 -0.17133819 -0.11955732
0002e0 01 f8 00 3c 40 cd 90 bb 58 0b 15 bd 53 73 6d 3c
       0.007871629 -0.004418999 -0.03638777 0.0144928275
0002f0 a6 eb b2 bd 54 8e e1 bd 4d 3b ff 3d 22 f7 16 bc
       -0.087363526 -0.11013475 0.124624826 -0.0092141945
000300 47 3e 4d 3b 86 96 07 3e cf 1e 3d bc 27 d1 be ba
       0.0031317638 0.13241014 -0.01154299 -0.0014558182
000310 4f 15 00 be 97 49 91 bd bc 37 b1 3d c6 81 0f bc
       -0.12508129 -0.07094114 0.086532086 -0.008758968
000320 a0 e5 91 3d cb 76 10 be 4e a4 40 bb 3a 2c 48 be
       0.071238756 -0.14107816 -0.0029394808 -0.19548121
000330 be b0 04 3e 08 b2 e8 bb b9 b0 89 ba 20 7f de bd
       0.12958047 -0.007101301 -0.0010504938 -0.10864091
000340 ea 09 71 bd 6c 27 bf 3d dc 94 2a 3d fb 84 1c 3b
       -0.058847345 0.09333691 0.04164587 0.0023882973
000350 73 de 56 3c 16 cb 48 3d 66 34 33 bd bc 0d 6f bd
       0.013114559 0.049021803 -0.043751143 -0.058362707
000360 a2 f3 05 be 69 c4 1d bd 86 7d 41 bd 09 df 44 be
       -0.1308122 -0.03851739 -0.04723885 -0.19225706
000370 5a 59 5e bc a5 0b f3 3d 4f 46 56 3d 32 7d 41 bc
       -0.013571108 0.118674554 0.052313145 -0.011809634
000380 50 71 b3 bd 77 5a e1 bd d6 58 6a bc 70 47 80 bc
       -0.08761847 -0.11003583 -0.014303407 -0.015659064
000390 20 7a 72 bd fe 46 5a bd fc 98 24 3d 1c dc 0b ba
       -0.0591985 -0.05329036 0.04018496 -0.0005335228
0003a0 3d 64 5e bc 19 01 05 3e 82 7c 03 3e 2b 43 92 be
       -0.013573703 0.129887 0.12840465 -0.2856687
0003b0 31 01 60 be 4d 29 84 bd 93 a2 72 bc 25 43 c1 3d
       -0.21875454 -0.0645319 -0.0148092685 0.09436635
0003c0 f5 94 10 3c 90 e5 2b 3d 78 01 51 be 08 53 35 3d
       0.008824577 0.041966975 -0.20410717 0.044268638
0003d0 31 37 2a 3d 69 3c fe bc b3 07 e4 3b ec 5d 21 be
       0.04155654 -0.031034665 0.0069589256 -0.15758485
0003e0 1d bc 7e be 71 ae 4f be 26 cb 26 be 89 f6 68 bc
       -0.24876447 -0.20281388 -0.16288432 -0.014218935
0003f0 0b dc 4a 3b 8b 78 89 ba d4 08 7c bb 0a 7e b8 3d
       0.003095391 -0.0010488195 -0.003845741 0.09008415
