stats/test/iter3999.pt (torch, 183486 bytes, 12 tensors)

log_std f4 [12]
0	0x00000000	0.0
1	0x00000000	0.0
2	0x00000000	0.0
3	0x00000000	0.0
4	0x00000000	0.0
5	0x00000000	0.0
6	0x00000000	0.0
7	0x00000000	0.0
8	0x00000000	0.0
9	0x00000000	0.0
10	0x00000000	0.0
11	0x00000000	0.0

p_fcs.0.weight f4 [128, 39]
0	0x3c33fe0f	0.010985865
1	0x3c858049	0.016296523
2	0xbf6542ed	-0.89555246
3	0x3d4fa77c	0.050696835
4	0x3f43a12e	0.76417816
5	0x3e41bd23	0.18919806
6	0xbc810228	-0.015748098
7	0xbd2020b6	-0.039093696
8	0xbee058b6	-0.4381768
9	0x3dc60fab	0.09670957
10	0x3d2eb6f5	0.04265495
11	0xbc81a9be	-0.01582801
12	0xbb87e530	-0.0041471943
13	0x3c62e256	0.013847908
14	0x39c40bfe	0.00037392968
15	0x36cca9f6	6.09946e-06
16	0xbc25a54e	-0.0101102125
17	0x3d3bf5f3	0.045888852
18	0x3eeca1e2	0.46217257
19	0x3e4085ba	0.18801013
20	0xbce31ffc	-0.027725212
21	0xbc3dac3a	-0.011576707
22	0x3e90c158	0.2827251
23	0x3d74cd1a	0.059765913
24	0xbb1c03d4	-0.0023805993
25	0xbcbc9db9	-0.023024427
26	0xbd0a24fb	-0.033726674
27	0x3c7b4a90	0.015337601
28	0x3bcc492b	0.0062343082
29	0xbd1f4a9c	-0.038889512
30	0xbb6bbf0e	-0.0035972032
31	0x3cb69521	0.022287907
32	0xbc2e3222	-0.01063207
33	0xbc01e46a	-0.007927993
34	0x37d5abc1	2.5471558e-05
35	0xbe6ed85f	-0.23324727
36	0x3c9401c3	0.018067246
37	0x3ea7cb60	0.3277235
38	0x3da0b334	0.0784668
39	0x3d2ed19d	0.04268037
40	0x3d15d547	0.03658035
41	0xbf2d34c7	-0.67658657
42	0xbd7718e5	-0.060326476
43	0xbdfb35b4	-0.122661024
44	0xbe8b40cd	-0.27197877
45	0x3dd5286a	0.10408099
46	0x3c96c4ae	0.018404331
47	0xbeb562b2	-0.3542686
48	0x3d47d9f8	0.048791856
49	0xbd4df0bf	-0.05027842
50	0xbb464c3d	-0.0030257844
51	0xbb4e3cb9	-0.00314693
52	0x3ca61cef	0.020277468
53	0xbeab15bf	-0.33415028
54	0x3da6da44	0.081470996
55	0xbc950f4b	-0.018195769
56	0x3dc83d05	0.097772636
57	0x3e7246d5	0.23659833
58	0xbe72fc48	-0.2372905
59	0x3cac2f83	0.02101875
60	0xbe5afcbc	-0.21385473
61	0xbd3bbe73	-0.045835923
62	0xbc57c37e	-0.013169168
63	0x3cd7fd7b	0.026365986
64	0x3b481ab9	0.0030533506
65	0x3a84a032	0.0010118543
66	0x3d743f17	0.05963048
67	0x3b77c22a	0.003780494
68	0x3c0a009c	0.008422997
69	0x3d2d0fc2	0.042251356
70	0xbc648c61	-0.013949485
71	0x3affd370	0.0019517969
72	0x3c157e3d	0.009124336
73	0xba60a127	-0.00085689354
74	0xbd6a4e6f	-0.057203706
75	0xbdb4f26a	-0.08835299
76	0x3e87ff12	0.2656179
77	0x3d67886e	0.056526594
78	0xbcd83e3a	-0.02639686
79	0xbd33aa5b	-0.043863636
80	0xbed4e871	-0.4158359
81	0xbd7c6f63	-0.061629664
82	0x3e2c7bd9	0.16844119
83	0x3e0aa348	0.1353885
84	0xbdeb8b40	-0.11501169
85	0x3d40516d	0.046952654
86	0xbceb8175	-0.028748253
87	0xbdf5e205	-0.120060004
88	0x3d2c3082	0.04203845
89	0xbe945472	-0.28970677
90	0xbd8565ce	-0.06513558
91	0x3d032b71	0.03202385
92	0xbd99516b	-0.07486232
93	0xbe14765c	-0.14498276
94	0x3cb00f5c	0.021491699
95	0xbe1e4e22	-0.15459493
96	0x3e0371aa	0.12836328
97	0xbdab4d2f	-0.08364331
98	0xbdf0167d	-0.11723039
99	0xbda2e596	-0.07953946
100	0x3e21962c	0.15779942
101	0x3d7ba77f	0.061439034
102	0xbd024752	-0.031806298
103	0xbc8cc345	-0.017182956
104	0xbd2bcf0c	-0.041945502
105	0xbd69175a	-0.056907035
106	0xbcf8d982	-0.030377153
107	0xbdf8447c	-0.12122437
108	0xbd5f9480	-0.05458498
109	0x3d529886	0.05141499
110	0x3d6af7ea	0.057365336
111	0xbd932616	-0.07184999
112	0xbd8304ab	-0.06397375
113	0x3e10658a	0.14101234
114	0x3d59f334	0.053210452
115	0xbd428747	-0.04749229
116	0xbdf9456a	-0.12171443
117	0xbbefe0cb	-0.0073204986
118	0xbbe9a16d	-0.007129839
119	0x3ec112e7	0.37709734
120	0xbee9f645	-0.456957
121	0x3e4b1a1f	0.19834183
122	0xbd0f386f	-0.03496593
123	0xbdd783c2	-0.10523178
124	0x3c0b92a3	0.008518848
125	0x3e14e5c2	0.1454077
126	0x3c3cf284	0.01153243
127	0xbc4d277d	-0.012521622
128	0xbeabf86c	-0.33587968
129	0x399fe4b0	0.0003049723
130	0xbc710447	-0.014710492
131	0x3dd3be8b	0.103390776
132	0xbd3e8330	-0.04651183
133	0xbd66b5b0	-0.056325614
134	0xbe8c4fb1	-0.2740455
135	0xbde1b4f6	-0.11020844
136	0xbed7ea35	-0.42170873
137	0x3dbf0b26	0.09328298
138	0x3d23bbd9	0.039974067
139	0x3e7056eb	0.23470657
140	0xbc0ab60a	-0.008466253
141	0x3c5055a1	0.012715728
142	0x3b4b4858	0.0031018462
143	0x3d00400d	0.031311084
144	0x3c9c02f1	0.019044371
145	0x3b8c863d	0.0042884634
146	0xbd587dc6	-0.052854322
147	0xbc2539fc	-0.010084625
148	0x3c1abe42	0.009444775
149	0x3c0a679b	0.008447553
150	0x3caee8e4	0.021351285
151	0x3cdc749e	0.026911076
152	0x3e5f6208	0.2181474
153	0xbea72708	-0.32646966
154	0x3dc3b9e3	0.095569395
155	0xbea9dd99	-0.33176878
156	0xbde2b774	-0.11070147
157	0xbd835eb4	-0.064145476
158	0x3ee2d1f2	0.443008
159	0xbe640c88	-0.22270405
160	0x3f4e0ead	0.80491143
161	0xbd47e805	-0.048805255
162	0xbdf43075	-0.11923305
163	0x3b22c4e0	0.0024836585
164	0xbebbebe9	-0.36703423
165	0xbbbdba90	-0.0057900622
166	0x3d49d8e3	0.049279105
167	0x3ebdab21	0.37044623
168	0xbda11717	-0.07865732
169	0x3cbe87b2	0.023258064
170	0xbd8c869a	-0.06861611
171	0xbcc2451d	-0.023714596
172	0x3d6113b8	0.054950446
173	0xbdb8d900	-0.090257645
174	0xbe86dbb9	-0.2633951
175	0xbe923440	-0.2855549
176	0xbc62ed1f	-0.013850479
177	0x3d2ae857	0.041725483
178	0x3ec14606	0.37748736
179	0x3b89dd84	0.004207315
180	0x3d0ce6b9	0.03439972
181	0xbc5ce38e	-0.013481988
182	0xbd1aabe7	-0.037761595
183	0xbc7c93dd	-0.015416113
184	0xbd39a68f	-0.04532486
185	0x39ea2be2	0.00044664653
186	0x3d3482dc	0.04407011
187	0x3be7adee	0.0070702946
188	0xbd52cee7	-0.05146685
189	0x3ddfac90	0.109215856
190	0x3b3dfc63	0.0028989546
191	0xbe0b571e	-0.13607451
192	0x3dd13ef9	0.10217089
193	0x3e850afc	0.25984943
194	0xbdbec50d	-0.09314928
195	0x3cb24101	0.021759512
196	0x3ce40eb7	0.027839048
197	0xbf30f761	-0.6912747
198	0x3ee15414	0.4400946
199	0xbf311716	-0.6917585
200	0xbc1915ad	-0.009343547
201	0x3ddb308c	0.10702619
202	0x3cf1fe0c	0.029540084
203	0x3de8b875	0.113633074
204	0x3e08cc3c	0.13359159
205	0x3b3b331c	0.00285644
206	0x3d85c64a	0.06531961
207	0x3d7fca69	0.062448893
208	0x3d067a82	0.032831676
209	0xbe187b84	-0.14890867
210	0x3dc64a91	0.09682191
211	0x3c5a1d85	0.013312702
212	0x3edae7a9	0.42754868
213	0x3e84927a	0.25893003
214	0xbd2c45ea	-0.042058863
215	0x3d661908	0.056176215
216	0x3e3b7767	0.18307267
217	0xbee34cd4	-0.44394553
218	0xbc8ab0d1	-0.016930016
219	0xbc6794fa	-0.01413464
220	0xbb943f81	-0.004524172
221	0x3ca58c11	0.02020839
222	0x3ce7b51a	0.028284598
223	0x3c87c716	0.016574424
224	0x3c85f3e2	0.016351644
225	0xbd4cce09	-0.050001178
226	0xbc2edb1c	-0.010672357
227	0xbcf33ee5	-0.029693076
228	0x3c1e786d	0.009672266
229	0xbc9f2685	-0.019427547
230	0xbe0e41dc	-0.13892311
231	0x3ca5a431	0.020219894
232	0x3da21111	0.079134114
233	0x3d0c30fd	0.034226406
234	0x3caf40be	0.021393176
235	0x3d17c7ef	0.037055906
236	0xbe98138a	-0.29702407
237	0x3defe7d8	0.117141426
238	0xbd87b370	-0.06626022
239	0x3e91142c	0.28335702
240	0xbcd1911f	-0.025581894
241	0x3d8d00a2	0.06884886
242	0xbea561bc	-0.32301128
243	0x3d5ee846	0.054420732
244	0x3c062d7d	0.008189556
245	0x3e58ff4c	0.21191138
246	0xbcc1a026	-0.023635935
247	0xbc06a9e1	-0.008219213
248	0x3ea91bd2	0.33029038
249	0x3d829f0e	0.063779935
250	0x3d0f2bbd	0.03495382
251	0x3e1cd027	0.15313779
252	0xbdecd9fb	-0.11565014
253	0x3dfa2651	0.122143395
254	0x3db4e1f2	0.08832158
255	0x3d0944f3	0.03351302

p_fcs.0.bias f4 [128]
0	0x3c84c0fd	0.016205305
1	0x3d6fa7ec	0.058509752
2	0xbd3fcbd4	-0.046825245
3	0xbbb81d4f	-0.005618728
4	0xbdaa8a62	-0.08327176
5	0x3c633a37	0.01386886
6	0x3c9e5b1f	0.01933056
7	0xbc1f05b4	-0.00970595
8	0xbccb692a	-0.02483042
9	0xbcdea553	-0.027178442
10	0xbc52b1f6	-0.012859812
11	0x3d2f838a	0.042850055
12	0x3c87d8ca	0.016582865
13	0xbc1ab23d	-0.009441909
14	0xbc9dcd01	-0.019262793
15	0xbd8a76fb	-0.06760975
16	0xbd503f1f	-0.050841447
17	0x3d23f4cb	0.040028375
18	0x3ceba573	0.028765416
19	0xbc7fec57	-0.015620313
20	0x3cf185f8	0.029482827
21	0xbb2f94af	-0.0026791503
22	0x3d467c49	0.04845837
23	0xbc4eb672	-0.012616741
24	0xbd883bd2	-0.06652035
25	0xbc507650	-0.01272352
26	0x3be365b5	0.0069396147
27	0xbd024f76	-0.03181406
28	0x3c6ac59f	0.014329343
29	0xbc526839	-0.012842231
30	0x3ca07f5e	0.019591983
31	0xbc514504	-0.012772802
32	0xbcc15e9d	-0.023604685
33	0x3c86413f	0.016388534
34	0x3d3a0731	0.045417015
35	0xbc465607	-0.012105471
36	0x3c662ec2	0.014049234
37	0x3d06b37d	0.032886017
38	0x3c1060ce	0.008812143
39	0x3d7e5aa4	0.06209816
40	0xbcc0e90f	-0.023548631
41	0xbc764db3	-0.015033173
42	0x3bf07cd5	0.0073391
43	0xbc5fe4b3	-0.013665366
44	0xbcdd9d6c	-0.027052604
45	0xbc3d84f5	-0.011567344
46	0xbd3130f5	-0.04325958
47	0xba3b1496	-0.00071365514
48	0xbafe867d	-0.0019418743
49	0xbb707d00	-0.00366956
50	0xbbff9f32	-0.00780096
51	0xbc6af723	-0.014341149
52	0xbc6fe8ce	-0.014642907
53	0xbd7955d2	-0.06087286
54	0xbdc00ac9	-0.09377057
55	0xbbcbfcaa	-0.0062251883
56	0x3c36f295	0.0111662345
57	0x3cca09b3	0.024662828
58	0x3cc7f6fc	0.024409764
59	0x3bd6dc00	0.0065569878
60	0x3b78d3e7	0.00379681
61	0xbcdc59aa	-0.026898224
62	0x3c7cd91d	0.015432623
63	0x3cabe11a	0.02098136
64	0xbd04f7e2	-0.032462962
65	0x3cc3905d	0.023872549
66	0x3c6e5089	0.014545568
67	0xbd62992e	-0.055321865
68	0x3d3c6491	0.045994345
69	0xbca298d7	-0.01984827
70	0x3974718d	0.00023311954
71	0xbc6c7660	-0.01443252
72	0x3b18a82b	0.0023293595
73	0xbc9a7f13	-0.018859422
74	0x3bfbea77	0.0076878625
75	0xbce091a6	-0.0274132
76	0xbc89bb4b	-0.016812941
77	0xbc873c71	-0.016508313
78	0xbcb120a7	-0.021622015
79	0x3ca7394f	0.020413069
80	0x3b9bb392	0.004751631
81	0x3caa07bf	0.020755647
82	0xbd7c4d58	-0.0615972
83	0x3cbc03e8	0.022951081
84	0xbd63c6b5	-0.055609424
85	0x3ca81579	0.020518051
86	0x3b3807ac	0.0028080745
87	0xbcfe1a87	-0.031018509
88	0x3c673379	0.014111393
89	0x3d0b4bc5	0.034007806
90	0x3c5a9ed2	0.01334353
91	0x3b823191	0.003973194
92	0xbcc4e113	-0.024033105
93	0xbce76277	-0.028245194
94	0xbc728659	-0.014802539
95	0xbccffe17	-0.025389714
96	0x3b920307	0.0044559273
97	0xbd0bfced	-0.034176756
98	0x3d01eb8a	0.03171877
99	0x3c4aae77	0.012370697
100	0xbca9d6f4	-0.02073238
101	0x3ca97cec	0.02068945
102	0xbcec5f40	-0.028854012
103	0x3cadabb8	0.021200046
104	0xbb953153	-0.004552999
105	0x3ce7577b	0.028239956
106	0x3c9111cd	0.017708683
107	0xbca76cfb	-0.020437708
108	0x3c6d6c47	0.014491147
109	0x3cbde0b1	0.02317843
110	0x3d5102dc	0.051028118
111	0xbc0e90bf	-0.008701502
112	0x3cd66c79	0.02617477
113	0x3c9cf88a	0.019161481
114	0x3c98ef06	0.018668663
115	0xbc66451d	-0.014054564
116	0x3cd36819	0.025806474
117	0xbca66122	-0.020309988
118	0xbcf18644	-0.029482968
119	0x3cbaf33a	0.022821058
120	0xbd09474a	-0.033515252
121	0x3d5968aa	0.05307833
122	0xbd354d8d	-0.04426341
123	0xbc7e5044	-0.0155220665
124	0x3d0fc059	0.035095546
125	0xbd625a59	-0.055261943
126	0xbcc39e13	-0.023879087
127	0xbc9eac39	-0.019369232

p_fcs.1.weight f4 [128, 128]
0	0xbc4b3ec6	-0.012405103
1	0xbbcd304c	-0.006261861
2	0xbc886034	-0.016647436
3	0xbba0aec6	-0.004903647
4	0xbbbe9d68	-0.005817104
5	0xbb9f8aa0	-0.0048688203
6	0xbc9e5248	-0.019326344
7	0x3c7ceb2f	0.0154369315
8	0x3bd7860c	0.006577259
9	0xbc1b4e46	-0.009479111
10	0x3b028357	0.001991471
11	0xbbf92e4a	-0.007604395
12	0xbbc8b857	-0.0061254906
13	0xbb964251	-0.0045855423
14	0x3b192afd	0.002337157
15	0xbb54216e	-0.0032368558
16	0xbb8f3098	-0.0043698065
17	0x3c0e1375	0.008671631
18	0xbafa2efb	-0.0019087488
19	0x3b173949	0.0023074916
20	0xbc9c1cf8	-0.019056782
21	0xbb4efb32	-0.003158283
22	0xbb86d5b5	-0.0041148313
23	0xbb49d891	-0.003079925
24	0x3c22f0ee	0.009945137
25	0xbcc19ec8	-0.023635283
26	0x3a2b7ad2	0.0006541434
27	0xbb018f64	-0.0019769305
28	0xbc86a33a	-0.016435254
29	0xbc69ff78	-0.0142821
30	0xba9c6599	-0.0011932134
31	0x3c8f31aa	0.017479736
32	0xbc721dbe	-0.014777599
33	0x3bebd3fa	0.0071969004
34	0x384bb6d7	4.8569254e-05
35	0x3bb1ec18	0.005429756
36	0xbc3b7bf3	-0.011443126
37	0xba6d5ddc	-0.00090548187
38	0x3c11f926	0.008909499
39	0xbc1eddb9	-0.0096964175
40	0xbad5048a	-0.0016251963
41	0xbc1671d9	-0.009182417
42	0x394a0a8f	0.00019268155
43	0x3c068b56	0.008211931
44	0xbc27197e	-0.010198949
45	0x3b225535	0.0024770026
46	0xb99b122e	-0.0002957745
47	0xbca13f36	-0.019683462
48	0xbbde589f	-0.006785467
49	0xbca10032	-0.019653413
50	0xbb7680c1	-0.0037613364
51	0xba6ecfb8	-0.0009109932
52	0xbcb634f2	-0.022242043
53	0xbc260770	-0.010133609
54	0xbb7a654c	-0.003820735
55	0xbb9820aa	-0.0046425657
56	0xbb57b632	-0.0032914993
57	0xbcbca1f1	-0.023026438
58	0xbc0d3f79	-0.00862109
59	0xbc083e7b	-0.008315678
60	0xbc0132be	-0.007885633
61	0x3bee4ef3	0.007272595
62	0x3bf5649f	0.0074888016
63	0xbc22ee5e	-0.0099445265
64	0xbc0d67fd	-0.00863075
65	0xbbbde4cb	-0.0057950965
66	0xbd01c4b3	-0.031681728
67	0xbbbedfa0	-0.005824998
68	0xbb941695	-0.0045192936
69	0xbc2ecd4c	-0.010669064
70	0xbc6a2868	-0.01429186
71	0x3c650a8c	0.013979565
72	0xbb98bb64	-0.0046610106
73	0xbb7d4308	-0.003864469
74	0xbc312b1a	-0.010813499
75	0x3b6355c4	0.0034688571
76	0xb970b700	-0.00022956356
77	0xbc8f76fd	-0.017512793
78	0xbc4d5f0d	-0.012534869
79	0xbc3a62a3	-0.011376056
80	0xbc835c13	-0.016035115
81	0xbabb745e	-0.0014301648
82	0x3b854135	0.004066611
83	0xbc133c21	-0.008986504
84	0x3c2cbe05	0.010543351
85	0xbbb80004	-0.0056152362
86	0xbb6f2b2a	-0.0036494234
87	0x3bfa4bdf	0.007638439
88	0xbbb3c46f	-0.005486063
89	0xbcbc0ef7	-0.022956355
90	0xbb52151e	-0.0032056044
91	0xbbae0d84	-0.00531167
92	0xbbe4970f	-0.0069760154
93	0xbb7efd41	-0.0038908275
94	0xbb260b48	-0.0025336314
95	0x3b54a43b	0.0032446522
96	0xbc0e0527	-0.008668221
97	0x3c4ba28f	0.012428894
98	0xbc527d1b	-0.01284721
99	0xbc788abc	-0.015169796
100	0xbc2a622d	-0.0103993835
101	0xbc705dc7	-0.014670796
102	0xbc274417	-0.010209105
103	0xb98c3ba4	-0.00026747317
104	0xbb87fa98	-0.004149746
105	0xbb2eda70	-0.0026680492
106	0xbba11d2b	-0.004916807
107	0xbc6aec9c	-0.014338639
108	0x3acf4d06	0.0015815801
109	0xbb83d6a6	-0.004023391
110	0xbc18188f	-0.009283199
111	0xbb803b96	-0.003913353
112	0xbc7a201a	-0.015266443
113	0xbcc96365	-0.024583528
114	0xbc972200	-0.01844883
115	0xbbb65a0e	-0.0055649346
116	0xbc794249	-0.0152135575
117	0xbcc1c547	-0.02365364
118	0xbc0be192	-0.008537667
119	0xbb5468c4	-0.0032411078
120	0xbbe24c11	-0.0069060405
121	0xbb963f40	-0.0045851767
122	0xbc39ce5f	-0.011340707
123	0xbc63664e	-0.013879372
124	0xbbda7025	-0.0066662007
125	0xbc3e405c	-0.011612024
126	0x3c30dc2f	0.010794683
127	0x3b570351	0.0032808373
128	0xbd12bb9a	-0.035823442
129	0x3d772c73	0.060345124
130	0xbdde848a	-0.108651236
131	0xbcc77018	-0.024345443
132	0x3b3b3fbe	0.002857193
133	0x3d2256c5	0.03963353
134	0x3dd7b55e	0.1053264
135	0xbd7fa16d	-0.062409807
136	0xbd8ae0f1	-0.067811854
137	0x3c82ea9e	0.015981015
138	0x3d1f1a31	0.038843337
139	0x3d438143	0.047730695
140	0xbd795dec	-0.060880587
141	0x3d000da2	0.031263
142	0xbd8c456c	-0.06849179
143	0xbe02bce0	-0.12767363
144	0xbd969bd8	-0.073539436
145	0xbddb191d	-0.10698149
146	0x3cdeaccc	0.027182005
147	0xbd1f6697	-0.038916197
148	0xbd69dcc8	-0.05709532
149	0xbe5a6d0c	-0.2133066
150	0xbe00782b	-0.1254584
151	0xbbc585c0	-0.006027907
152	0xbd0ac553	-0.03387959
153	0xbda513a0	-0.08060384
154	0xbd48c021	-0.049011353
155	0x3b98bc76	0.004661138
156	0xbdc6dced	-0.09710107
157	0x3c415a5f	0.011801331
158	0xbda66780	-0.0812521
159	0x3d238c13	0.039928507
160	0x3c0a73d5	0.008450468
161	0x3c288ab7	0.010286978
162	0x3d9be4ce	0.076120004
163	0x3e1d9117	0.15387379
164	0xbdb4c8d3	-0.08827367
165	0x3d7c4df1	0.06159777
166	0x3d60f233	0.05491848
167	0x3d1f638d	0.0389133
168	0x3be6f4d0	0.007048227
169	0x3e5e2bc7	0.21696387
170	0xbc7f2d58	-0.015574776
171	0xbd822631	-0.06354941
172	0xbc50c38b	-0.012741934
173	0xbd821707	-0.06352048
174	0xbccb95f2	-0.024851773
175	0x3c203ea6	0.009780562
176	0x3d113c45	0.035457868
177	0x3de7535c	0.112951964
178	0xbda9da2c	-0.08293566
179	0xbcd15c61	-0.025556745
180	0xbd3696c7	-0.044577386
181	0x3d7b1e4f	0.0613082
182	0xbd027c63	-0.031856906
183	0xbd10b33e	-0.03532719
184	0x3b451184	0.0030070255
185	0xbe558d92	-0.20854786
186	0xbd41fef9	-0.0473623
187	0xbc399994	-0.01132812
188	0xbcfada04	-0.030621536
189	0xbdab8cf9	-0.08376498
190	0x3d1aa093	0.03775079
191	0x3cae2dd5	0.021262089
192	0x3d862efd	0.06551931
193	0x3d32506c	0.043533728
194	0xbda18c91	-0.07888139
195	0xbe85d9b2	-0.2614265
196	0xbcf5e6e5	-0.030017326
197	0xbd1b400c	-0.037902877
198	0x3d30beb6	0.043150626
199	0xbcda3294	-0.026635446
200	0xbd2def8e	-0.042464785
201	0xbe453530	-0.1925857
202	0x3d8e82eb	0.06958564
203	0x3cd13079	0.025535809
204	0xbc50ce4c	-0.0127444975
205	0x3dac704b	0.08419856
206	0x3dea82fc	0.114507645
207	0x3dbb3b46	0.09142165
208	0xbd3c4d41	-0.045972113
209	0xbd9dbcf2	-0.07702054
210	0x3e2184bf	0.15773295
211	0xbc93a9f0	-0.018025368
212	0x3cb4c2b0	0.02206549
213	0x3cad7b49	0.021176951
214	0xbc48bb01	-0.012251616
215	0xbd8714a1	-0.065957315
216	0xbd56665f	-0.052343722
217	0x3d3ebb03	0.046565067
218	0x3d184d2b	0.037182968
219	0xbe58ab1b	-0.21159022
220	0x3da97eb0	0.08276117
221	0x3d9a8e2f	0.075466506
222	0x3dcb3977	0.0992307
223	0xbcde7263	-0.027154153
224	0xbd25007f	-0.040283676
225	0xbe6c9715	-0.23104508
226	0x3db0810e	0.08618365
227	0x3d41975c	0.04726349
228	0xbdc0d0c6	-0.094148204
229	0xbd94926d	-0.07254491
230	0xbd756975	-0.059915025
231	0x3d4902b1	0.049074832
232	0xbdb317c6	-0.08744769
233	0xbd9891e5	-0.07449702
234	0x3d5080fd	0.050904263
235	0xbcb84884	-0.022495516
236	0x3c5752bc	0.013142284
237	0xbd6d8934	-0.057992175
238	0xbcfd2450	-0.030901104
239	0x3d12d4e8	0.035847574
240	0xbdc28018	-0.09497088
241	0xbd004e5e	-0.031324737
242	0x3d647991	0.055779997
243	0xbbbe89e5	-0.005814778
244	0xbc1a5ba3	-0.009421262
245	0x3ddac830	0.10682714
246	0x3d257719	0.040396784
247	0xbd32066e	-0.043463163
248	0xbb86dc96	-0.0041156514
249	0xbd1e3cf9	-0.038632367
250	0xbd381475	-0.044941384
251	0x3c9b7c4c	0.018980168
252	0xbd88ee31	-0.066860564
253	0xbce405a6	-0.027834725
254	0xbdb8f3fc	-0.09030911
255	0xbd5f6232	-0.054537006

p_fcs.1.bias f4 [128]
0	0xbc2df04b	-0.010616372
1	0x3db343e7	0.08753186
2	0x3d927501	0.07151223
3	0x3d59da24	0.05318655
4	0x3da51515	0.08060662
5	0xbb5806f8	-0.0032963138
6	0x3c732a43	0.014841619
7	0x3d9aac17	0.07552355
8	0x3d4f50ad	0.050614048
9	0x3d63e357	0.05563673
10	0x3d695c5a	0.05697284
11	0x3baf198f	0.005343623
12	0x3d3dfb23	0.04638208
13	0x3d105784	0.03523971
14	0xbc793833	-0.015211153
15	0x3c92f41b	0.017938664
16	0x3d0ce8bc	0.03440164
17	0x3c719e69	0.014747241
18	0x3c4e76db	0.01260158
19	0x3c85e2da	0.016343523
20	0x3d46c2d4	0.048525646
21	0xbc8aead0	-0.01695767
22	0xbc98b8de	-0.018642839
23	0x3d4ca37a	0.04996059
24	0x3c513d05	0.012770896
25	0xbbc51c56	-0.006015341
26	0x3d97a775	0.07404987
27	0x3d5ed5c4	0.05440308
28	0x3d7e1729	0.062033806
29	0x3d30a9b3	0.043130588
30	0x3c999b3d	0.018750781
31	0x3ca47d17	0.020079179
32	0xbc0bc140	-0.008529961
33	0x3ceeab23	0.029134339
34	0xbc1ef23f	-0.009701311
35	0x3cb00e71	0.021491261
36	0x3d8d0b31	0.068869
37	0xbca5eefb	-0.020255556
38	0x3d274d7f	0.04084539
39	0x3cc1633f	0.023606895
40	0x3d74aba5	0.059734005
41	0x3d4660f4	0.048432305
42	0x3d74d276	0.059771024
43	0x3a816c84	0.0009874259
44	0x3d0add8b	0.033902686
45	0x3c95fd72	0.018309329
46	0x3c83a1fa	0.016068447
47	0x3d958f51	0.07302726
48	0x3d1da20a	0.03848461
49	0x3d3a177d	0.045432556
50	0x3d94160c	0.072307676
51	0x3d7409b3	0.059579562
52	0x3d8d4c34	0.068993
53	0x3cd2c9a3	0.025730914
54	0x3d8c3c8c	0.06847486
55	0x3cecfbfc	0.02892875
56	0xbc55bc44	-0.013045374
57	0xbc075bb1	-0.008261607
58	0xbd28eea6	-0.041243218
59	0xbc9084d3	-0.01764146
60	0x3cb347a2	0.021884743
61	0x3cc5344b	0.024072787
62	0x3da6e85e	0.08149789
63	0xbcda579f	-0.02665311
64	0xbc9d7bb9	-0.019224035
65	0x3d4c2526	0.049840115
66	0xbc6a2160	-0.014290184
67	0xbbf27375	-0.0073990175
68	0x3dc10930	0.094255805
69	0xbc26e259	-0.010185801
70	0x3d5537eb	0.05205528
71	0x3d7331cf	0.059373673
72	0x3db8ae17	0.0901758
73	0x3aa93f66	0.0012912571
74	0xbca25fdc	-0.0198211
75	0x3d892179	0.066958375
76	0x3dae27f1	0.08503712
77	0xbc3083e1	-0.01077363
78	0x3bde3ff8	0.006782528
79	0x3d785c97	0.060635176
80	0x3b9a0db4	0.0047013406
81	0x3b7c6bdc	0.0038516438
82	0x3d491650	0.049093544
83	0x3d15e187	0.036592033
84	0xbc235c3a	-0.009970719
85	0x3d6f91fe	0.05848884
86	0x3d2de340	0.04245305
87	0x3ccb4b87	0.024816288
88	0x3d2c1561	0.042012576
89	0x3d9c402a	0.07629426
90	0x3d5daaa0	0.0541178
91	0x3c94889f	0.018131552
92	0xbc30474e	-0.010759188
93	0x3d360eb5	0.04444762
94	0x3d734dad	0.05940025
95	0xbc322f4d	-0.010875535
96	0x3cc9ec3f	0.024648784
97	0x3d317584	0.043324962
98	0x3d5898df	0.052880164
99	0x3d55aaa8	0.052164704
100	0x3d187eb7	0.03723022
101	0x3cf0ebbf	0.029409287
102	0x3b74c29f	0.0037347449
103	0xbc15dbcf	-0.009146645
104	0x3cc653e9	0.024209933
105	0x3cf546c3	0.029940968
106	0x3c48e3d1	0.012261347
107	0x3d0eac31	0.034832183
108	0x3d60a811	0.05484778
109	0x3c540e31	0.012942837
110	0x3d2a708e	0.041611247
111	0xba383140	-0.0007026382
112	0x3b6b0c39	0.003586544
113	0x3bd1f55d	0.0064074234
114	0x3d3fe168	0.046845824
115	0x3d1d1423	0.038349282
116	0x3d2337f2	0.039848275
117	0xbceb6acc	-0.028737448
118	0x3cfcbdbe	0.030852195
119	0x3db153ae	0.08658539
120	0xbd02a26e	-0.031893186
121	0x3da3d7d5	0.08000151
122	0xbba8bab6	-0.005149211
123	0x3d1df157	0.038560238
124	0xbc9f7057	-0.019462747
125	0x3d43be37	0.047788825
126	0xbc27dff7	-0.0102462685
127	0x3cf320ea	0.02967878

v_fcs.0.weight f4 [128, 39]
0	0xbe57195b	-0.21005766
1	0xbe588286	-0.2114354
2	0x3d8cd986	0.06877427
3	0x3e998721	0.29985908
4	0x3e4bc929	0.19900955
5	0xbe42356e	-0.18965694
6	0xbe6bc710	-0.23025155
7	0x3e7d46d3	0.24734049
8	0xbcc1ab5b	-0.023641279
9	0xbe6a6a53	-0.22892122
10	0x3e6ad60c	0.22933215
11	0xbe92c848	-0.28668427
12	0xbe5da02f	-0.21643136
13	0x3e73752d	0.23775168
14	0x3e3dbb74	0.18528539
15	0xbe71825a	-0.23584881
16	0x3e718cbb	0.2358884
17	0x3d4a179f	0.049338933
18	0xbe76b3b3	-0.24091987
19	0x3e45c7ae	0.19314453
20	0x3ce91a8d	0.028455043
21	0x3e0d9e25	0.13829859
22	0x3e15e0ad	0.14636488
23	0xbc7118fb	-0.014715428
24	0x3cd115c0	0.025523067
25	0x3c8e5745	0.017375598
26	0xbca2b852	-0.019863281
27	0x3b3ecf4d	0.002911526
28	0xbcea6262	-0.028611366
29	0xbc354be3	-0.011065456
30	0x3d0721a3	0.032991063
31	0xbc1f76a7	-0.009732879
32	0xbc6e4a0c	-0.014544021
33	0xbc53fa53	-0.0129381
34	0x3be982af	0.0071261744
35	0x3d279137	0.040909972
36	0xbe3aed38	-0.18254554
37	0x3cc97e68	0.024596408
38	0xbd5b3200	-0.05351448
39	0xbdbbfc1c	-0.091789454
40	0xbec8084b	-0.39068827
41	0xbf807dc6	-1.0038383
42	0x3d38984a	0.04506711
43	0xbf0502a1	-0.51957136
44	0xbfceccbc	-1.615623
45	0xbf18c655	-0.5967763
46	0x3f3c5b1e	0.73576534
47	0xbcd158f4	-0.025555111
48	0xbf0a871f	-0.5411243
49	0x3f16376d	0.58678323
50	0xbf11b1e1	-0.56912047
51	0xbf12ed57	-0.573934
52	0x3f03894f	0.5138139
53	0x3f6f7e90	0.93552494
54	0xbeb1741b	-0.34658894
55	0x3f417a0c	0.75576854
56	0x3f0e2d6f	0.55538076
57	0xbd65cb1c	-0.056101903
58	0x3e032f41	0.12810995
59	0xbdf6d2da	-0.120519355
60	0x3e974826	0.29547232
61	0x3e0f351a	0.139851
62	0xbd105905	-0.035241146
63	0x3e22c1d0	0.15894246
64	0x3d881371	0.06644333
65	0xbd548da8	-0.051892906
66	0x3db53947	0.088488154
67	0x3d38774a	0.045035638
68	0xbda54831	-0.0807041
69	0x3e246d70	0.16057372
70	0x3daec671	0.085339434
71	0x3d138a00	0.03602028
72	0xbe6302fc	-0.22169107
73	0xbdbac817	-0.09120195
74	0xbe8a7d52	-0.27048737
75	0xbf9b7e01	-1.2147828
76	0xbead1ca0	-0.33810902
77	0xbe9c3b90	-0.30514193
78	0xbeb4d76a	-0.35320598
79	0xbec31556	-0.38102216
80	0x3e6c34cc	0.23067015
81	0x3ea4bec1	0.32176784
82	0x3ecbaa92	0.39778572
83	0xbec1a8dd	-0.37824145
84	0xbeb3e58a	-0.35136062
85	0x3eca39db	0.39497265
86	0x3e9d850c	0.3076557
87	0xbec40088	-0.38281655
88	0x3ed3da9e	0.4137773
89	0xbe9e1958	-0.3087871
90	0xbec076e5	-0.3759071
91	0x3ec1f2f2	0.37880665
92	0x3edc6774	0.43047678
93	0xbec13781	-0.3773766
94	0x3ed127ab	0.40850577
95	0x3d1b9d1e	0.037991636
96	0xbe23c236	-0.15992054
97	0x3e6a9e9a	0.22912064
98	0xbdd2e84d	-0.10298214
99	0x3d08c032	0.033386417
100	0x3e823b7e	0.25436014
101	0x3dee2d7f	0.116297714
102	0xbdb6f07a	-0.08932586
103	0xbcda38f9	-0.026638495
104	0x3c483a6a	0.012220958
105	0xbbf01fec	-0.007328024
106	0x3c76e6f8	0.015069716
107	0xbe0ccc01	-0.13749696
108	0x3d80869f	0.06275677
109	0x3abcbcee	0.0014399567
110	0xbcc96a4e	-0.024586823
111	0xbcbd38d7	-0.023098392
112	0xbd406242	-0.046968706
113	0xbe92cbde	-0.28671163
114	0xbef4e8a1	-0.47833732
115	0xbe6b4691	-0.22976138
116	0xbebba42f	-0.366487
117	0xbe906353	-0.28200778
118	0xbea6f3e9	-0.32607964
119	0xbeeb1834	-0.45916903
120	0x3ee60dae	0.44932312
121	0x3f8f7785	1.120835
122	0x3b155f84	0.0022792527
123	0xbec8185f	-0.39081094
124	0x3e9d28fc	0.3069533
125	0x3d9726ac	0.07380423
126	0xbe90ca4c	-0.2827934
127	0x3e93360b	0.2875217
128	0xbdc8b2af	-0.09799706
129	0xbe8fe76b	-0.28106245
130	0x3e87ddf8	0.26536536
131	0x3e1e787f	0.15475653
132	0xbeb19e5a	-0.34691125
133	0x3eb4feca	0.3535064
134	0x3d4134fa	0.047169663
135	0x3da2e72d	0.079542495
136	0x3df1fedd	0.118161894
137	0xbe3863ba	-0.18006793
138	0x3e6169f0	0.22013068
139	0x3e1cfeb0	0.1533153
140	0x3b3fd899	0.002927339
141	0x3b0c65d8	0.0021423008
142	0x3a70373c	0.0009163504
143	0xbca83d71	-0.02053711
144	0x3c9acfee	0.018897977
145	0xbc6b2f07	-0.014354474
146	0xbcd9b54d	-0.026575709
147	0xbdeab2be	-0.114598736
148	0xbd6039a5	-0.054742474
149	0xbdc03b81	-0.093863495
150	0x3dec46c6	0.115369365
151	0x3d66a4e3	0.056309592
152	0xbf05819a	-0.5215088
153	0xbee259d5	-0.4420916
154	0xbd8723f6	-0.06598656
155	0x3ea11a04	0.3146516
156	0xbe6eeb2c	-0.23331898
157	0xbe8a90f0	-0.27063704
158	0xbd0554ee	-0.0325517
159	0x3e584e35	0.21123584
160	0x3dfca715	0.12336556
161	0xbe79d3c7	-0.24397193
162	0xbe8d0df3	-0.27549705
163	0x3e8e99e6	0.2785179
164	0x3c04445b	0.008072938
165	0xbe7f06d5	-0.2490495
166	0x3e87d857	0.26532242
167	0x3d949c5c	0.07256386
168	0xbe832a52	-0.25618225
169	0x3e90c2dc	0.28273666
170	0x3e20704c	0.15667838
171	0xbe8c9042	-0.2745381
172	0x3e88fa3b	0.2675341
173	0x3e08a185	0.13342865
174	0x3d1a3f47	0.037658002
175	0x3e2fda5c	0.17173141
176	0xbcee5500	-0.029093266
177	0x3d7b90b7	0.061417308
178	0x3e10996d	0.14121027
179	0x3ca7867e	0.020449873
180	0x3d034e7e	0.032057278
181	0x3d1fa26e	0.038973264
182	0x3b6dd276	0.0036288775
183	0x3c82ed5f	0.015982328
184	0x3d04db9e	0.032436006
185	0xbd9036d1	-0.070417054
186	0x3be6575b	0.0070294566
187	0xbd09cb26	-0.033641003
188	0x3d18ba4e	0.03728705
189	0xbc8d2c20	-0.017232955
190	0xbc741f42	-0.014900031
191	0xbd6bd3ac	-0.057574913
192	0xbdc432c7	-0.095799975
193	0xbd7e52de	-0.062090747
194	0xbc670fd0	-0.014102891
195	0xbe7b6feb	-0.24554412
196	0xbf0076bf	-0.5018119
197	0x4008396d	2.128505
198	0x4018e35a	2.3888764
199	0x40492724	3.143014
200	0x3f37b35f	0.71758074
201	0xbdf8ae2c	-0.12142596
202	0x3f2171d0	0.6306429
203	0x3e6f8697	0.23391186
204	0x3e3b6f68	0.18304217
205	0x3f47dc18	0.7807021
206	0x3ffff58a	1.9996808
207	0xbe065f28	-0.13122237
208	0x3f486d74	0.7829201
209	0xbfac298e	-1.3450181
210	0xbf8c4b5d	-1.0960499
211	0x3f0ea98a	0.55727446
212	0x3ecfb0eb	0.40564665
213	0xbe7a893b	-0.24466412
214	0x3d8c9146	0.06863646
215	0x3eb1f5dc	0.34757888
216	0x3e818742	0.25298506
217	0xbde780bb	-0.1130385
218	0x3d63037b	0.05542324
219	0x3ca6bf48	0.020354882
220	0x3d05deee	0.032683305
221	0x3e17a120	0.14807558
222	0xbb995772	-0.0046796137
223	0xbd7704e4	-0.0603074
224	0x3d938e49	0.07204873
225	0xbc745511	-0.01491286
226	0x3b9ce0e2	0.0047875503
227	0x3d14dd09	0.036343608
228	0xbadb3ade	-0.0016725918
229	0x3b19d4ef	0.0023472866
230	0x3f0d7245	0.55252486
231	0xbf5d2b6e	-0.86394393
232	0x3f0cd670	0.55014706
233	0x3f2dc3eb	0.6787707
234	0xbe33445e	-0.17506549
235	0xbe475ffd	-0.1947021
236	0x3da7ade0	0.08187461
237	0x3df025d6	0.11725967
238	0x3d5b5576	0.0535483
239	0xbdaac2d3	-0.08337941
240	0xbe33232a	-0.17493883
241	0x3e393421	0.18086292
242	0x3ceafff1	0.028686495
243	0xbe446b9a	-0.19181672
244	0x3e1eca35	0.15506823
245	0xbdd3ae3e	-0.103359684
246	0xbe31fb6d	-0.17381068
247	0x3e259308	0.16169369
248	0x3e22923f	0.15876101
249	0xbe4a680b	-0.19766252
250	0x3e23a2da	0.15980092
251	0x3d9bf8e5	0.07615832
252	0xbd309bf8	-0.043117493
253	0x3da55ed0	0.08074725
254	0x3cd2df15	0.02574114
255	0x3dfdd58c	0.123942465

v_fcs.0.bias f4 [128]
0	0xbe68f16c	-0.22748345
1	0xbede7f0d	-0.43456307
2	0xbec5ae35	-0.38609472
3	0xbea2cfa6	-0.31799048
4	0xbe91f188	-0.28504586
5	0xbf07c0f7	-0.53028816
6	0xbe31f68f	-0.17379211
7	0xbf01f062	-0.5075742
8	0xbf0a9578	-0.5413432
9	0xbeed01e4	-0.46290505
10	0xbf02333c	-0.5085943
11	0xbee6fabf	-0.4511318
12	0x3dc0ca51	0.09413589
13	0xbec684d7	-0.38773224
14	0xbd4c79ae	-0.04992073
15	0xbe1026a9	-0.14077248
16	0xbf8257c9	-1.018304
17	0xbf1f9924	-0.6234305
18	0xbebbfba1	-0.36715415
19	0xbf6b9b21	-0.9203358
20	0xbe1cef09	-0.1532556
21	0x3f2d955f	0.6780605
22	0xbe4f88b1	-0.20266987
23	0xbe806c00	-0.25082397
24	0xbf1c1233	-0.6096527
25	0xbeeae4b6	-0.45877618
26	0xbf632d33	-0.88740844
27	0xbf393b5d	-0.72356206
28	0xbeace711	-0.3377004
29	0xbec62cfb	-0.38706192
30	0xbe94808a	-0.29004318
31	0xbf4589a3	-0.7716314
32	0xbf164b79	-0.5870891
33	0xbf4beb7d	-0.796562
34	0xbecda8ea	-0.40167934
35	0xbf4cc6e4	-0.79990983
36	0xbf4ad247	-0.7922711
37	0xbf2480c5	-0.64258987
38	0x3f02fe7c	0.5116956
39	0xbe67aa7a	-0.22623625
40	0xbeb82b4e	-0.3597054
41	0xbe236c0f	-0.1595919
42	0xbe4a0ec4	-0.19732195
43	0xbec12da6	-0.3773014
44	0xbee99fbc	-0.4562968
45	0xbf104a66	-0.56363523
46	0xbefc6bc2	-0.49300963
47	0xbf96cc60	-1.178112
48	0xbe4179d8	-0.18894136
49	0xbf0e4b54	-0.5558369
50	0xbecefc37	-0.404268
51	0xbf75f8d2	-0.96082795
52	0xbef88d5a	-0.48545343
53	0xbe068bd7	-0.13139282
54	0xbe9102bf	-0.28322408
55	0xbea2ad43	-0.31772813
56	0xbeb8a26e	-0.36061424
57	0xbeb28974	-0.34870493
58	0xbea7bf1a	-0.32762986
59	0xbe5d2ea5	-0.21599825
60	0xbf22ba9c	-0.63565993
61	0xbe846e09	-0.258652
62	0xbe244329	-0.16041245
63	0xbf02fec3	-0.51169986
64	0xbf3ea632	-0.74472344
65	0xbeb6fad2	-0.35738236
66	0xbebead4b	-0.37241587
67	0xbf344245	-0.7041362
68	0xbe3d2627	-0.18471585
69	0xbea62cb3	-0.32455978
70	0xbea6e0a0	-0.3259325
71	0xbe3c13ee	-0.18366978
72	0xbf582316	-0.84428537
73	0xbeceb844	-0.4037496
74	0xbf31c595	-0.6944211
75	0xbf12c7e5	-0.57336265
76	0xbdd34c59	-0.103172965
77	0xbf067199	-0.52517086
78	0xbf48b53b	-0.78401536
79	0xbe52ae9c	-0.2057442
80	0xbe37385d	-0.17892595
81	0xbe631e8f	-0.22179626
82	0x3ef4fac6	0.47847575
83	0xbf3cbe20	-0.7372761
84	0xbd475c00	-0.048671722
85	0xbf001553	-0.5003254
86	0xbf310679	-0.691505
87	0xbe112072	-0.14172533
88	0xbcb7b221	-0.022423806
89	0xbed363a4	-0.41286957
90	0xbebfbf75	-0.37450758
91	0xbefb88e0	-0.49127865
92	0xbf2a51fe	-0.6653136
93	0xbf2c8c86	-0.6740192
94	0xbe94db0d	-0.29073372
95	0xbe949b86	-0.29024905
96	0xbe6d2303	-0.23157887
97	0xbeb517c4	-0.35369694
98	0xbf3920a6	-0.7231544
99	0xbf516437	-0.8179354
100	0xbe9f19ee	-0.3107447
101	0xbf4c9a1c	-0.7992265
102	0xbed1d358	-0.40981555
103	0xbe63fb89	-0.22263922
104	0xbef7fc8b	-0.48434862
105	0xbf1d2972	-0.61391366
106	0xbeed2c93	-0.4632307
107	0xbe4f2ce4	-0.20231968
108	0xbf380ac7	-0.71891445
109	0xbf5d1c6b	-0.8637149
110	0xbece2288	-0.4026072
111	0x3e8d8ba3	0.27645597
112	0xbf0fe68c	-0.5621116
113	0xbe80a270	-0.2512393
114	0xbe143343	-0.1447268
115	0xbdf877a3	-0.12132194
116	0xbe71832b	-0.23585193
117	0xbe6752ef	-0.2259023
118	0xbea814d2	-0.32828385
119	0xbec4b6fe	-0.38420862
120	0xbf0183aa	-0.5059153
121	0xbe908e70	-0.2823367
122	0xbf062001	-0.52392584
123	0xbf342179	-0.70363575
124	0xbec90cca	-0.3926757
125	0xbf06b23b	-0.5261571
126	0xbeb16fd4	-0.3465563
127	0xbe8c16d7	-0.27361175

v_fcs.1.weight f4 [128, 128]
0	0xbd00c0be	-0.031433813
1	0xbd24491b	-0.04010878
2	0xbd54e752	-0.051978417
3	0xbd4f989e	-0.050682656
4	0xbd92c516	-0.071664974
5	0xbd6f7801	-0.058464054
6	0xbd6a8e96	-0.057264887
7	0xbd701755	-0.058616
8	0xbd8766c5	-0.066113986
9	0xbd3ed83e	-0.046592943
10	0xbd3682d0	-0.044558346
11	0xbd59e0de	-0.053192966
12	0xbd859e77	-0.065243654
13	0xbd3f146a	-0.046650328
14	0xbd684a72	-0.05671162
15	0x3c08cbb6	0.00834935
16	0xbd477929	-0.04869953
17	0xbd3815cc	-0.044942662
18	0xbd443bf1	-0.047908727
19	0xbd40eb7a	-0.047099568
20	0xbd4f292c	-0.050576374
21	0xbd4f0010	-0.05053717
22	0xbd82717a	-0.063693
23	0xbd81b80a	-0.06333931
24	0xbd48915d	-0.048966754
25	0xbd738a26	-0.05945792
26	0xbd4af5ab	-0.049550693
27	0xbd8f00c6	-0.069825694
28	0xbd3c7e5f	-0.046018954
29	0xbd67b229	-0.05656639
30	0xbd13e1ff	-0.0361042
31	0xbd07226c	-0.03299181
32	0xbd23044a	-0.039799012
33	0xbd683c2b	-0.056698006
34	0xbd29ac30	-0.041423976
35	0xbd5e4d01	-0.054272655
36	0xbd32f46d	-0.043690134
37	0xbd5636df	-0.052298423
38	0xbd64860e	-0.055791907
39	0xbd75ff8b	-0.060058158
40	0xbd4ac053	-0.04949982
41	0xbd5295c6	-0.051412366
42	0xbd7d74f4	-0.061879113
43	0xbd21db8f	-0.039516028
44	0x3c4337dd	0.011915174
45	0xbd152593	-0.036412787
46	0xbc4106e6	-0.01178143
47	0xbc35f21f	-0.011105089
48	0xbd780c68	-0.060558707
49	0xbd627f84	-0.05529739
50	0xbd3ec030	-0.046570003
51	0xbd55dcd8	-0.052212566
52	0xbd829b5b	-0.06377288
53	0xbd89a4a3	-0.06720855
54	0xbd6510b7	-0.055924144
55	0xbd659ae8	-0.056055933
56	0xbcd1caa5	-0.025609324
57	0xbd4a68dc	-0.049416408
58	0xbd7cbfa7	-0.06170621
59	0xbd41ca22	-0.04731191
60	0xbd447e23	-0.047971856
61	0xbd80d4b3	-0.06290569
62	0xbca8c3ae	-0.02060112
63	0xbd45d17f	-0.048295494
64	0xbd6b2baf	-0.057414707
65	0xbd5bc91c	-0.05365859
66	0xbd836657	-0.06416004
67	0xbd15f126	-0.03660693
68	0xbd6884fe	-0.056767456
69	0xbd64e833	-0.055885505
70	0xbd540104	-0.05175878
71	0xbd3743ad	-0.044742275
72	0xbd46b9b5	-0.048516948
73	0xbd53200c	-0.051544234
74	0xbd451a02	-0.048120506
75	0xbd3d49cf	-0.046212967
76	0xbd354e23	-0.04426397
77	0xbd738c29	-0.05945984
78	0xbd4f1a12	-0.050561972
79	0xbcbec72c	-0.023288332
80	0xbd23e3e7	-0.040012266
81	0xbd81c41d	-0.06336234
82	0xbd6b5a48	-0.057459146
83	0xbd8dd7d2	-0.0692593
84	0xbd738829	-0.059456024
85	0xbd289d1a	-0.04116545
86	0xbd20775c	-0.03917633
87	0xbd7199b5	-0.058984477
88	0xbd70da5a	-0.058801986
89	0xbd3f7822	-0.046745427
90	0xbd4d528a	-0.050127544
91	0xbd63ad40	-0.055585146
92	0xbd5f0b05	-0.05445387
93	0xbc20ad0f	-0.009806885
94	0xbd6afa0a	-0.057367362
95	0xbd65200f	-0.055938777
96	0xbd72d824	-0.05928816
97	0xbd5be083	-0.053680908
98	0xbd21601b	-0.039398294
99	0xbd8d808b	-0.06909283
100	0xbd6de0b0	-0.058075607
101	0xbd541289	-0.05177549
102	0xbd83e6e5	-0.06440524
103	0xbca4cb1a	-0.020116378
104	0xbcc902ee	-0.02453753
105	0xbd55e7ae	-0.0522229
106	0xbd4516cb	-0.04811744
107	0xbd4a8f24	-0.049452916
108	0xbd5d5e20	-0.054044843
109	0xbd9163f5	-0.070991434
110	0xbd70ed83	-0.05882026
111	0xbd3555af	-0.044271167
112	0xbd40671e	-0.04697334
113	0xbd50d337	-0.05098268
114	0xbd547609	-0.05187038
115	0xbd8bea6d	-0.068318225
116	0xbd38f86f	-0.0451588
117	0xbd6423d1	-0.05569822
118	0xbd859a4d	-0.06523571
119	0xbc1caf70	-0.009563312
120	0xbd5b0e17	-0.053480234
121	0xbd68d175	-0.05684038
122	0x3b706691	0.0036682228
123	0xbd222f02	-0.03959561
124	0xbd7ede1d	-0.062223542
125	0xbd2a13cd	-0.04152279
126	0xbccd8000	-0.02508545
127	0xbd5f7914	-0.05455883
128	0xbd4e37d2	-0.050346203
129	0xbd9ed738	-0.077558935
130	0xbd64ec5b	-0.05588947
131	0xbd82ad51	-0.06380714
132	0xbd8f8dce	-0.07009469
133	0xbd69032b	-0.056887787
134	0xbd564e09	-0.052320514
135	0xbd7a5e5e	-0.06112515
136	0xbd5afd55	-0.053464253
137	0xbd461a9b	-0.048365217
138	0xbd61e34b	-0.055148404
139	0xbd7e0ea1	-0.06202567
140	0xbd5e6957	-0.05429968
141	0xbd936089	-0.07196147
142	0xbd37b4e3	-0.04485024
143	0xbd44ae2f	-0.048017677
144	0xbd5ebc00	-0.05437851
145	0xbd7c91c6	-0.061662458
146	0xbd4c6eae	-0.04991024
147	0xbd6a8018	-0.057251066
148	0xbd2473a4	-0.040149346
149	0xbd688de9	-0.05677596
150	0xbd66cf71	-0.056350175
151	0xbd88e5eb	-0.06684478
152	0xbd4da343	-0.050204527
153	0xbd8152a2	-0.06314589
154	0xbd3c6af6	-0.046000443
155	0xbd834e25	-0.06411389
156	0xbd6c90cc	-0.057755277
157	0xbd5dd81a	-0.05416117
158	0xbd644fed	-0.055740286
159	0xbd81a18b	-0.0632964
160	0xbd752868	-0.059852988
161	0xbd73ff4a	-0.059569634
162	0xbd613c4f	-0.054989155
163	0xbd4ec9c8	-0.050485402
164	0xbd9bb925	-0.07603673
165	0xbd4e4adc	-0.05036436
166	0xbd7bf495	-0.06151255
167	0xbd6e4faf	-0.05818146
168	0xbd61b251	-0.055101696
169	0xbd486f24	-0.048934117
170	0xbd7c557b	-0.061604958
171	0xbd6c86a6	-0.0577456
172	0xbd5e40f4	-0.054261163
173	0xbd92e1f9	-0.07172007
174	0xbd8045a2	-0.062632814
175	0xbd5214fe	-0.05128955
176	0xbd72a7ba	-0.059241988
177	0xbd517621	-0.051138047
178	0xbd9c20c3	-0.07623436
179	0xbd3e0f98	-0.04640159
180	0xbd72df35	-0.059294898
181	0xbd392c66	-0.045208357
182	0xbd7f5473	-0.062336396
183	0xbd689e87	-0.05679181
184	0xbd694266	-0.056948088
185	0xbda72846	-0.081619784
186	0xbd9bc693	-0.076062344
187	0xbd59e44d	-0.05319624
188	0xbd23dcd1	-0.04000551
189	0xbd647a5b	-0.05578075
190	0xbd5efe3d	-0.05444168
191	0xbd650969	-0.055917177
192	0xbd422c29	-0.047405396
193	0xbd3d616d	-0.04623549
194	0xbd4fb5cb	-0.05071048
195	0xbd5f8c7a	-0.05457733
196	0xbd44fa63	-0.04809035
197	0xbd72f9e8	-0.05932036
198	0xbd6db395	-0.05803259
199	0xbd424a42	-0.0474341
200	0xbd92f181	-0.071749695
201	0xbd62efe0	-0.055404544
202	0xbd6638e2	-0.05620659
203	0xbd8495ca	-0.064738825
204	0xbd75e569	-0.060033236
205	0xbd3e80ea	-0.04650966
206	0xbd644f9b	-0.05573998
207	0xbd5bf53b	-0.053700667
208	0xbda3ebd3	-0.08003964
209	0xbd63ecc4	-0.05564572
210	0xbd7d86ae	-0.06189602
211	0xbd775ff1	-0.06039423
212	0xbd97836c	-0.073981136
213	0xbd7ddf82	-0.06198073
214	0xbd81aa39	-0.063312955
215	0xbd9c1335	-0.07620851
216	0xbd89384c	-0.06700191
217	0xbd891c68	-0.06694871
218	0xbd5fa4f0	-0.054600656
219	0xbd9a184f	-0.07524168
220	0xbd79691f	-0.060891267
221	0xbd513172	-0.051072545
222	0xbd7af3e4	-0.06126775
223	0xbd886597	-0.06660002
224	0xbd2d3da1	-0.042295102
225	0xbd478810	-0.048713744
226	0xbd63f05d	-0.05564915
227	0xbd263dd4	-0.040586308
228	0xbd7cec62	-0.06174887
229	0xbd758c66	-0.059948348
230	0xbd48c3a6	-0.04901471
231	0xbd6e535e	-0.058184974
232	0xbd6639f3	-0.05620761
233	0xbd90435b	-0.07044097
234	0xbd3a3fe5	-0.04547109
235	0xbd728167	-0.05920544
236	0xbd6b0757	-0.057380047
237	0xbd84e830	-0.06489599
238	0xbd59737c	-0.05308865
239	0xbd88a88d	-0.066727735
240	0xbd8e275a	-0.069410995
241	0xbd7eedb7	-0.06223842
242	0xbd5d477d	-0.054023255
243	0xbd8c01e4	-0.06836298
244	0xbd4212fe	-0.047381394
245	0xbd85ddb8	-0.0653643
246	0xbd857b2d	-0.065176345
247	0xbd3cdd6d	-0.046109606
248	0xbd6eebc5	-0.058330316
249	0xbd815dd3	-0.06316724
250	0xbd7f7028	-0.06236282
251	0xbd99996a	-0.074999645
252	0xbd8f7886	-0.0700541
253	0xbd7ae15d	-0.06125008
254	0xbd821fd6	-0.063537285
255	0xbd53bbd0	-0.051692784

v_fcs.1.bias f4 [128]
0	0xbd88de25	-0.06682996
1	0xbd711a57	-0.05886301
2	0xbbe824c3	-0.0070844605
3	0x3f866673	1.0500015
4	0xbe129567	-0.14314805
5	0xbe238f89	-0.15972723
6	0xbd8c8a3d	-0.06862304
7	0xbd5f1123	-0.054459702
8	0xbd895b62	-0.06706883
9	0x3f1b7d4f	0.6073808
10	0xbd404d45	-0.04694869
11	0xbd4eea38	-0.050516337
12	0xbd547f9e	-0.051879518
13	0xbd9d5db0	-0.07683885
14	0xbd1ef952	-0.03881199
15	0xbe78ae72	-0.24285296
16	0xbed452f2	-0.41469532
17	0xbd8ecaa1	-0.06972242
18	0xbd960b01	-0.073263176
19	0xbd610bac	-0.05494277
20	0xbd50c22b	-0.050966423
21	0xbd4686b9	-0.048468325
22	0xbd93054d	-0.071787454
23	0xbf1862f2	-0.5952598
24	0xbd64214d	-0.05569582
25	0xbd7f28b9	-0.062294696
26	0xbd48c906	-0.049019836
27	0xbc68a335	-0.014199068
28	0xbd849e70	-0.06475532
29	0xbd60557a	-0.054769017
30	0xbd3136c7	-0.04326513
31	0xbda877bb	-0.08225962
32	0xbbef15d8	-0.007296305
33	0xbcdf57ff	-0.02726364
34	0xbd77b680	-0.06047678
35	0xbd7cb74a	-0.061698236
36	0xbd6e58ec	-0.05819027
37	0x3f652681	0.8951188
38	0xbba3a7b4	-0.004994357
39	0xbd670eae	-0.056410484
40	0xbd9758d5	-0.0738999
41	0xbd7de5b2	-0.061986633
42	0xbd600556	-0.05469259
43	0xbd5bbbbd	-0.053645838
44	0xbd183b5f	-0.037165996
45	0xbd3aca17	-0.045602884
46	0xbd9cecf3	-0.07662382
47	0xbd50412f	-0.050843414
48	0xbbd5a1ce	-0.0065195328
49	0xbd9339d5	-0.07188765
50	0xbd977897	-0.073960476
51	0xbf1f3e14	-0.622041
52	0xba93fd48	-0.0011290694
53	0xbd6a6262	-0.05722273
54	0xbd6ef5a4	-0.05833973
55	0xbd802e12	-0.06258787
56	0xbd4c5eef	-0.049895223
57	0xbec32862	-0.38116747
58	0xbc2360aa	-0.009971777
59	0xbcb5c31b	-0.02218776
60	0xbc89d1ec	-0.016823731
61	0xbd807615	-0.06272522
62	0xbd84e81f	-0.06489586
63	0xbd108d87	-0.03529122
64	0xbd78cc55	-0.06074174
65	0xbd86e980	-0.06587505
66	0xbbafd59b	-0.00536604
67	0xbd6f1ef0	-0.058379114
68	0xbc00ad55	-0.007853826
69	0xbd6bb611	-0.05754668
70	0x3f77b7cf	0.96764845
71	0x3f887152	1.0659583
72	0xbf30d69d	-0.69077474
73	0xbd8b99b0	-0.06816423
74	0xbd307191	-0.043077055
75	0xbd60c644	-0.05487658
76	0xbf47621c	-0.7788408
77	0xbd5e468f	-0.05426651
78	0xbc5676b3	-0.013089824
79	0x3f6b3a63	0.91885966
80	0xbc610f4d	-0.013736558
81	0xbc4f9af3	-0.01267122
82	0xbb68942f	-0.0035488715
83	0xbe045e95	-0.12926705
84	0xbd8a8dca	-0.06765325
85	0xbf847ef9	-1.0351249
86	0xbd5c804f	-0.053833302
87	0xbe9dd75d	-0.30828372
88	0xbda3d473	-0.07999506
89	0xbd2e7685	-0.042593498
90	0xbdc55b29	-0.09636528
91	0xbd7a2df9	-0.061079
92	0xbca2ccdf	-0.01987308
93	0x3f9e6070	1.237318
94	0xbd86e8a8	-0.065873444
95	0xbc5d7bd4	-0.013518292
96	0xbd815d3a	-0.0631661
97	0xbf483478	-0.7820506
98	0xbd559648	-0.052145272
99	0xbd61e60b	-0.055151027
100	0xbd84de54	-0.06487718
101	0xbd3e014b	-0.04638795
102	0xbccf1ee8	-0.025283292
103	0xbd8b0287	-0.067875914
104	0xbd24439b	-0.040103536
105	0xbd677586	-0.056508563
106	0xbf28391b	-0.65712136
107	0x3f8269ce	1.0188539
108	0xbd4ba280	-0.04971552
109	0xbd971d8e	-0.07378684
110	0xbd8887d9	-0.06666536
111	0xbd645a8a	-0.055750407
112	0xbd7c4582	-0.061589725
113	0xbd401888	-0.046898395
114	0xbc10bb27	-0.008833683
115	0xbd728606	-0.059209846
116	0xbd6be368	-0.05758992
117	0x3f2e84c5	0.6817134
118	0xbb0a6db7	-0.0021122524
119	0xbd4c0587	-0.04980996
120	0xbd671d6c	-0.056424543
121	0xbd9c5bdc	-0.07634708
122	0xbc91c109	-0.017792242
123	0xbd4c2275	-0.04983755
124	0x3d94b972	0.072619334
125	0xbe10ca08	-0.14139569
126	0x3ee2c39a	0.44289857
127	0xbd869f5d	-0.06573365

mu.weight f4 [12, 128]
0	0x3bfcf4de	0.00771962
1	0xbd8f7df7	-0.07006448
2	0xbd7020f3	-0.058625173
3	0x3d4bc3c6	0.04974725
4	0xbd40a14f	-0.047028836
5	0xbd0a4bdd	-0.033763755
6	0xbbc92f52	-0.006139674
7	0xbcaa2ba7	-0.020772768
8	0xbd1df3a1	-0.03856242
9	0x3e060530	0.13087916
10	0xbb3f39f7	-0.0029178837
11	0xbc935a6f	-0.017987458
12	0x3c24fe93	0.010070461
13	0x3db19978	0.0867185
14	0x3a929362	0.001118284
15	0x3c2eaa6a	0.010660747
16	0xbcf5c685	-0.030001888
17	0xbe4343ee	-0.19068882
18	0xbe6aa7f8	-0.22915637
19	0xbe1c00b9	-0.1523465
20	0xbca45946	-0.0200621
21	0xbabbd893	-0.0014331512
22	0x3de7a66c	0.11311039
23	0x3dc63a3f	0.09679078
24	0x3d14af03	0.036299717
25	0xbd086f45	-0.03330924
26	0xbe2930c7	-0.16522513
27	0x3dde47de	0.10853551
28	0xbe444622	-0.19167379
29	0xbb4a0eb7	-0.0030831525
30	0x3e5934fe	0.21211621
31	0x3d73dd8b	0.05953745
32	0x3b498348	0.0030748416
33	0x3ce81d2a	0.028334219
34	0x3d178c25	0.036998887
35	0xbe104631	-0.14089276
36	0x3d512077	0.05105635
37	0xbdfbede9	-0.12301237
38	0x3db14bcd	0.08657036
39	0xbdb82a86	-0.08992486
40	0x3c95a034	0.018264867
41	0x3d1c978d	0.038230468
42	0x3c92a87e	0.017902609
43	0xbd2480ea	-0.040162005
44	0xbd8052e4	-0.0626581
45	0x3d88f417	0.066871814
46	0xbe22b07f	-0.1588764
47	0x3deebfb6	0.1165766
48	0xbdcf3491	-0.10117448
49	0xbd342ba6	-0.04398694
50	0xbdbb3175	-0.091402926
51	0x3c5bc2ac	0.013413113
52	0x3e2534c0	0.16133404
53	0x3db394d8	0.08768624
54	0xbe3e2833	-0.18570022
55	0x3e188d9e	0.14897773
56	0x3c0eb605	0.008710389
57	0xbbefbb98	-0.007316064
58	0x3c33bf18	0.010970853
59	0xbb1873eb	-0.0023262452
60	0x3d9370b5	0.071992315
61	0xbdef1969	-0.116747685
62	0x3d975d3d	0.07390831
63	0x3c7e0d25	0.015506064
64	0x3b47fd13	0.0030515834
65	0x3e8cb21c	0.27479637
66	0xbc0df8c8	-0.008665271
67	0x3ba02b51	0.004887976
68	0x3cf4d1cf	0.0298852
69	0x3d2993b5	0.04140063
70	0x3d070872	0.03296704
71	0xbc74ac48	-0.014933653
72	0xbdcfaf7e	-0.10140894
73	0xbe82f6c3	-0.2557889
74	0x3acfbf30	0.0015849825
75	0xbc95ea69	-0.018300252
76	0x3cca8627	0.024722172
77	0xbbe49ad0	-0.006976463
78	0xbdc71868	-0.09721452
79	0x3dd4a928	0.103838265
80	0xbda00ee4	-0.0781534
81	0x3ddcf62a	0.107891396
82	0xbe11ca33	-0.14237289
83	0x3daa9b3a	0.08330388
84	0x3994c708	0.0002837705
85	0x3b884a4a	0.0041592466
86	0xb9699e80	-0.00022279657
87	0x3d8ec1f6	0.06970589
88	0xbd1b8e07	-0.037977245
89	0x3e14dc2e	0.14537117
90	0x3d19121b	0.037370782
91	0xbdd52090	-0.104066014
92	0x3bff553d	0.0077921436
93	0xbddf8730	-0.10914457
94	0x3cad6683	0.021167045
95	0xba1e22be	-0.00060323987
96	0xbc50c811	-0.012743012
97	0xbd62063d	-0.05518173
98	0x3c1084ae	0.008820696
99	0x3e21304c	0.1574108
100	0x3e18cfd8	0.14923036
101	0x3e21bced	0.15794726
102	0xbe054330	-0.13013911
103	0xb99cb116	-0.00029886578
104	0xbd840224	-0.06445721
105	0xbb5441c7	-0.003238784
106	0xbbe240c6	-0.0069046943
107	0x3e796f18	0.24358785
108	0x3da8e90a	0.08247574
109	0x3e142e46	0.14470777
110	0x3d3ce157	0.04611334
111	0x3ccf7230	0.025323004
112	0x3bd4bd82	0.0064923177
113	0xbd0e92a6	-0.034807824
114	0x3d7a4840	0.06110406
115	0x3dad4ecb	0.08462294
116	0xbdd0dcc5	-0.101983584
117	0x3c780122	0.015136989
118	0xbe066ea2	-0.1312814
119	0x3d638967	0.05555096
120	0x3bbb2fc8	0.005712483
121	0x3d8552de	0.06509946
122	0x3e12fdd8	0.14354646
123	0xbc1cb74a	-0.009565184
124	0xbae7bcd2	-0.0017680174
125	0x3861bf22	5.3822187e-05
126	0x3b214cd5	0.0024612446
127	0xbd973dd7	-0.07384842
128	0x3b4ae5e5	0.0030959782
129	0x3dadc257	0.08484333
130	0x3d5b6abc	0.053568587
131	0x3c936d65	0.0179965
132	0x3d2a2f6a	0.041549124
133	0x3b2f49cc	0.0026746867
134	0x3e50b324	0.20380837
135	0xbe43a519	-0.19105949
136	0x3da31ed8	0.07964867
137	0xbc820ca0	-0.01587516
138	0x3d312179	0.043244813
139	0xbd47eadf	-0.048807975
140	0x3df3a2c4	0.118962795
141	0x3e2bafdd	0.16766305
142	0xbb64dee5	-0.0034922895
143	0x3c7de6de	0.015496938
144	0x3dc7cf3a	0.09756322
145	0xbdb055ce	-0.08610116
146	0x3dd0a8a6	0.10188417
147	0x3ba2a7b9	0.0049638418
148	0xbce877ee	-0.0283775
149	0x3c502454	0.012703974
150	0xbd923c73	-0.07140436
151	0x3e23b322	0.15986302
152	0xbd85f33d	-0.06540535
153	0xbcc56a2b	-0.024098476
154	0x3de05f80	0.10955715
155	0xbcb64909	-0.022251623
156	0x3dbf5118	0.09341639
157	0xbd3c4703	-0.04596616
158	0xbdbc0d2d	-0.091822006
159	0x3d8386bc	0.06422183
160	0xbbf75c86	-0.0075488715
161	0x3d9f1d82	0.077693
162	0x3db96f6e	0.09054457
163	0x3d10a552	0.03531391
164	0xbdd918dd	-0.106004454
165	0x3d76ebff	0.060283657
166	0xbce795bd	-0.028269643
167	0xbddbb6ec	-0.10728249
168	0x3d45c5ce	0.048284344
169	0xbcca630e	-0.024705436
170	0x3e357e8f	0.1772406
171	0xbc47c2ca	-0.012192437
172	0xbd1ef91b	-0.038811784
173	0xbe24a5d6	-0.16078886
174	0xbd256a6c	-0.040384695
175	0x3e0454e9	0.12923016
176	0xbc3e5d08	-0.01161886
177	0xbd9a0a58	-0.07521504
178	0x3e7a97c6	0.2447196
179	0x3dbb3e50	0.091427445
180	0xbd34e209	-0.044160876
181	0x3d6204e9	0.055180464
182	0xbe455b4d	-0.1927311
183	0xbe0381be	-0.12842461
184	0x3c00f801	0.007871629
185	0xbb90cd40	-0.004418999
186	0xbd3d62ca	-0.04623679
187	0x3c6d7353	0.0144928275
188	0xbdcc03eb	-0.09961685
189	0xbe0dfd0f	-0.13866065
190	0x3dcad4e7	0.09903889
191	0xbc16f722	-0.0092141945
192	0x3b4d3e47	0.0031317638
193	0x3e13d363	0.14436106
194	0xbc3d1ecf	-0.01154299
195	0xbabed127	-0.0014558182
196	0xbddf39a3	-0.10899665
197	0xbd9cfd91	-0.076655515
198	0x3dbd8147	0.09253173
199	0x3c8383af	0.016054003
200	0x3d83d8cf	0.06437837
201	0xbe29bfcd	-0.16577072
202	0xbb40a44e	-0.0029394808
203	0xbe8e5f78	-0.27807212
204	0x3dfe874d	0.1242815
205	0xbbe8b208	-0.007101301
206	0xbb717ece	-0.0036849263
207	0xbdf894b1	-0.12137736
208	0xbd8f43db	-0.06995364
209	0x3dd04720	0.10169816
210	0x3da00bc3	0.07814743
211	0x3cd955f4	0.026530243
212	0x3c56de73	0.013114559
213	0x3da6f530	0.081522346
214	0xbd7ae16a	-0.061250128
215	0xbd2985ce	-0.04138737
216	0xbe1dbf3c	-0.15404981
217	0xbd4ecfac	-0.05049102
218	0xbda05fa6	-0.078307435
219	0xbe4ceff5	-0.20013411
220	0xbc5995ab	-0.0132803125
221	0x3de36962	0.111040846
222	0x3d1050ce	0.03523331
223	0xbc417d32	-0.011809634
224	0xbdab58aa	-0.08366521
225	0xbdf3c489	-0.119027205
226	0x3cb7196b	0.022350987
227	0x3c263335	0.010144045
228	0xbcf99ee2	-0.030471269
229	0xbd92191e	-0.07133697
230	0x3db54293	0.08850589
231	0xba0bdc1c	-0.0005335228
232	0xbc0a3331	-0.008435057
233	0x3e29b7e2	0.16574052
234	0x3e1d0a9f	0.15336083
235	0xbecf3d78	-0.40476584
236	0xbe706ab8	-0.2347821
237	0xbda6e6a5	-0.08149461
238	0xbc1b7d27	-0.009490288
239	0x3e001877	0.12509333
240	0xbd24f118	-0.040268987
241	0x3d27b547	0.040944364
242	0xbe499063	-0.19683985
243	0x3da6c3b6	0.08142798
244	0x3cdb789a	0.026790906
245	0xbcfe3c69	-0.031034665
246	0x3d261690	0.04054886
247	0xbdaaf5ee	-0.083476886
248	0xbe87c63f	-0.26518437
249	0xbe2c6dda	-0.1683878
250	0xbe4b5b01	-0.19858934
251	0x3ce9094b	0.028446814
252	0x3b4adc0b	0.003095391
253	0xbd4bfc34	-0.049801067
254	0xbb7c08d4	-0.003845741
255	0x3da44df0	0.08022678

mu.bias f4 [12]
0	0xbbc67f3a	-0.006057647
1	0xbc0abd07	-0.008467919
2	0x3d88d076	0.06680386
3	0x3d43d816	0.047813497
4	0xbbcaa9d7	-0.0061847973
5	0x3bae6491	0.005322047
6	0xbca1d170	-0.019753188
7	0x3c47989d	0.012182382
8	0x3cb62594	0.022234716
9	0xbbe8c937	-0.007104065
10	0x3c33dfed	0.010978681
11	0x3d828016	0.06372087
