stats/test/iter6999.pt (torch, 183486 bytes, 12 tensors)

log_std f4 [12]
000000 00 00 00 00 00 00 00 00 00 00 00 00 00 00 00 00
       0.0 0.0 0.0 0.0
000010 00 00 00 00 00 00 00 00 00 00 00 00 00 00 00 00
       0.0 0.0 0.0 0.0
000020 00 00 00 00 00 00 00 00 00 00 00 00 00 00 00 00
       0.0 0.0 0.0 0.0

p_fcs.0.weight f4 [128, 39]
000000 dd 65 07 3c 20 b5 f7 3b ab a1 95 bf 68 60 83 3e
       0.008264032 0.0075594336 -1.1689962 0.2565949
000010 df 5f 4b 3f a6 53 6f 3e 41 e6 38 bd 04 2d 66 bd
       0.7944316 0.23371753 -0.045141462 -0.056195274
000020 0b 53 df be 2e 4f df 3d 3b 44 7c 3d af 0c 78 3c
       -0.43618044 0.10903774 0.061588507 0.015139743
000030 dd 9d 10 bd 2c e2 ae 3c 09 fb 90 3d a6 46 94 3c
       -0.0353068 0.021348082 0.07079131 0.018100094
000040 ce f1 01 bc 10 b4 cb 3d f2 d1 09 3f 8b 00 75 3e
       -0.007931186 0.099464536 0.53835976 0.23925988
000050 d6 85 f7 bb 9c 89 3d 3d 36 1d 82 3e 1c cd 1e 3d
       -0.0075537963 0.046273813 0.2541291 0.038769826
000060 55 62 08 3d 0d 9b 0b 3c 3f e9 be bb cf 72 07 3b
       0.0332969 0.008520854 -0.005826145 0.0020667796
000070 07 ff 8f bb 05 55 18 bd 28 2e d0 3c d4 dc 67 3c
       -0.0043944153 -0.037190456 0.025412634 0.014151771
000080 dc a0 e5 3c d9 4d b4 bc 04 49 be bc ba 17 84 be
       0.028030805 -0.022009777 -0.023228176 -0.25799352
000090 1b 26 2e 3d 8c e5 d2 3e 8a c6 22 3d 16 7f 39 3d
       0.04251681 0.41190755 0.039740123 0.045287214
0000a0 71 9a 2e 3d 74 89 5b bf 13 37 bb 3c d2 71 19 be
       0.042627756 -0.8575661 0.02285341 -0.14984825
0000b0 77 fc c2 be 48 04 f1 3d 20 c5 f0 3c 1c 4d bb be
       -0.3808324 0.11768395 0.029390872 -0.36582267
0000c0 91 24 80 3d b2 33 72 bd cf dd f4 3c cd 47 91 bc
       0.062569745 -0.05913133 0.029890923 -0.017734433
0000d0 dd 32 ed 3c fa a5 9b be e1 02 a0 3d 89 d0 82 bc
       0.028954918 -0.30400068 0.07813049 -0.015968578
0000e0 52 ad 1d 3d a8 f9 78 3e ef 8d a7 be ea 44 63 ba
       0.03849537 0.24313986 -0.32725474 -0.0008669632
0000f0 9b a4 89 be 84 03 af bd 63 52 f8 bc 41 ff ca 3c
       -0.26883397 -0.085455924 -0.030312723 0.024779918
000100 37 2d 37 3c 74 84 ac bc 49 76 13 3d bb 30 a7 bc
       0.011180214 -0.021059252 0.036001477 -0.020408979
000110 46 66 bc ba 90 cf db 3c b6 70 c6 bc 05 06 80 3a
       -0.0014373742 0.026832372 -0.024223667 0.0009767419
000120 85 af a0 3c 5f cc 21 bb 12 0a d8 bd 6e 6f e4 bd
       0.019614944 -0.0024688465 -0.10548796 -0.11154066
000130 4a 7a 64 3e cc 65 19 3d 63 f5 1b bd d0 c6 5a bd
       0.22312275 0.037450597 -0.038075816 -0.05341226
000140 97 2b 0f bf 41 9b ea bd b4 aa 8a 3d 6f 09 6e 3e
       -0.5592589 -0.114553936 0.0677084 0.23245786
000150 88 b6 ca bd 9c bb 94 3d 09 e9 cf 3c 50 8f 21 be
       -0.09898096 0.07262346 0.025379675 -0.15777326
000160 73 cb 5d 3d 42 67 f2 be 67 12 8a bd 77 8a 8b 3d
       0.054149102 -0.47344404 -0.06741791 0.068135194
000170 52 69 8f bd 78 10 29 be 8b 5a 03 3d 1f 7e 61 be
       -0.0700251 -0.16510189 0.03206877 -0.22020768
000180 8a a8 19 3e 6f eb 9e bd 9c 5b 10 be fb b0 11 be
       0.15005699 -0.07759749 -0.14097446 -0.14227669
000190 27 e8 53 3e 29 07 05 3e c0 62 be 3c f6 0e a3 3c
       0.20694028 0.12991013 0.023240447 0.019904595
0001a0 fd 98 67 bc 7d 4a ff bc e5 3d 18 bd d8 d8 02 be
       -0.014135596 -0.031163448 -0.037168402 -0.12778032
0001b0 d6 f8 d2 3b 3b c2 83 3d 5a 2e 84 3d 40 2e 30 bd
       0.006438355 0.06433531 0.06454153 -0.043012857
0001c0 b7 85 95 bd b0 fa a0 3d ac c0 11 3d 9e 21 99 bd
       -0.07300895 0.07860315 0.035584137 -0.07477115
0001d0 93 57 b4 bd a0 6c 71 bb 3d d2 18 3c 08 aa ac 3e
       -0.08805766 -0.0036838427 0.009327468 0.33723474
0001e0 77 c4 ec be 9e 2c 91 3e 27 ed fb bb f5 da 08 be
       -0.4624364 0.28354353 -0.007688183 -0.13364775
0001f0 0e eb 1a bc 5d 89 7f 3e 82 1b 0c 3d 30 25 76 bd
       -0.0094554555 0.24954744 0.03420592 -0.06009406
000200 9a f2 e5 be 0f f9 8d bc 21 d3 59 bd 3d d7 98 39
       -0.44911653 -0.017330674 -0.053179864 0.00029152064
000210 e2 90 51 bd 85 d1 88 bd a5 c1 b7 be 91 88 81 bd
       -0.05116356 -0.06680588 -0.35889927 -0.06324876
000220 30 c6 02 bf d2 37 a8 3d 5f e8 b0 3d 67 11 a4 3e
       -0.5108366 0.08213772 0.08638071 0.32044527
000230 99 c4 14 3c d2 6a e7 3b e7 be eb 3b 64 1a f3 3c
       0.009080076 0.0070622945 0.007194388 0.02967567
000240 10 44 9f 3c 99 63 0b 3c 57 40 3a bd 89 44 6a bc
       0.019441634 0.008507633 -0.045471516 -0.014298567
000250 da ff 99 3c 6e a2 30 3c 54 0d b1 3b d6 74 20 3c
       0.018798757 0.010780914 0.0054032 0.009793481
000260 86 af 4f 3e c5 61 c8 be ec 61 80 3d aa 3c af be
       0.202818 -0.39137092 0.06268677 -0.3422597
000270 8e 23 cd bd f9 df 48 bd ee 9d 07 3f 9b 0b 35 be
       -0.10016547 -0.049041722 0.52975357 -0.17680208
000280 d3 7f 58 3f f7 7f 5f bd 1d 31 0a be a0 57 d3 bc
       0.84570044 -0.054565396 -0.13495298 -0.025798619
000290 52 98 c3 be 06 c7 e1 3c 8c f6 b4 3c 77 58 b4 3e
       -0.3820215 0.027560722 0.022090219 0.35223743
0002a0 82 a9 94 bd b3 25 ca 3b b6 e2 85 bd 18 e9 b2 3c
       -0.072588935 0.006169045 -0.06537382 0.021839663
0002b0 a6 41 2d 3d e9 07 ab bd 7e 1e 5e be 8b d4 9c be
       0.042298935 -0.08351118 -0.2169132 -0.30630907
0002c0 a9 c5 08 bd d4 92 29 3e 37 d4 f2 3e cf 9d 18 3b
       -0.03339163 0.16559917 0.47427532 0.002328742
0002d0 55 8d 70 3d a9 2b 90 bc 41 7e 40 bd 2e 6b 27 bd
       0.058728535 -0.017598944 -0.046995405 -0.0408737
0002e0 f3 be f2 3b af 6a db 3c 57 be 3c 3b 73 8a cf ba
       0.007408017 0.02678427 0.0028799975 -0.0015834108
0002f0 1e 46 6a bd 14 3b c9 3d f7 ac fa 3b 8f 11 e4 bd
       -0.057195775 0.098257214 0.0076500135 -0.111361615
000300 60 79 c1 3d 17 56 90 3e b3 96 17 be f9 6e 96 3b
       0.094469786 0.2819068 -0.14803581 0.0045908657
000310 0b ca 7d 3c 78 38 56 bf 06 6c dc 3e ed c7 3e bf
       0.015490065 -0.83679914 0.43051165 -0.7452381
000320 82 25 7a bd 6a 4a 01 3e c8 26 7d 3d f0 5d 7a 3e
       -0.061070926 0.12626043 0.061804563 0.24449897
000330 1e 09 1b 3e 72 81 09 3d e6 98 45 3e c1 66 c5 3d
       0.15140197 0.033570714 0.19296607 0.096387394
000340 4d f8 c4 3c 51 ce 30 bd bf e3 02 3e a4 54 33 3d
       0.02404418 -0.04316551 0.1278219 0.04378189
000350 14 48 e2 3e 4f a6 84 3e db ae 83 bd ff ee 39 3d
       0.44195616 0.25908133 -0.064298354 0.04539394
000360 46 ea 40 3e 16 2c 03 bf 5b f6 6a bc 9f eb 6f ba
       0.18839368 -0.51239145 -0.014340962 -0.0009152237
000370 4b 32 e7 3a 78 d8 51 3c 0d 90 e8 3c 36 03 6c bb
       0.001763889 0.012807958 0.028389001 -0.0036012656
000380 ff a6 18 3d 99 35 53 bd 24 4d 8a 3a 34 e8 1c bd
       0.037268635 -0.051564787 0.0010551554 -0.038307384
000390 f6 8c 5e 3b d8 8c fb ba 3e e6 39 be d3 07 c9 3c
       0.003395853 -0.0019191755 -0.18154237 0.024539864
0003a0 85 f0 a9 3d fa 41 10 3d 76 d7 b7 3c d3 6a 0a 3d
       0.082978286 0.03521917 0.022441607 0.03379328
0003b0 68 ba 8c be a7 70 11 3d 81 d5 0d be c9 12 58 3e
       -0.27485967 0.035507824 -0.13850977 0.21100916
0003c0 ad ff 44 bd 06 7f a2 3d 6f 98 cd be 59 d0 b9 3d
       -0.048095394 0.07934384 -0.4015536 0.09072942
0003d0 7f af c9 3c 39 52 01 3e 6a 9c da bc 1f f6 b0 3b
       0.024619816 0.12629022 -0.026685912 0.0054004337
0003e0 0b 76 f8 3e b8 01 85 3d bd 87 e6 3c 2f d7 5d 3e
       0.4852756 0.064944685 0.028140897 0.21664117
0003f0 0a 14 07 bd d0 68 01 3e 66 19 0b 3e b5 37 94 bb
       -0.032978095 0.12637639 0.13583907 -0.0045232424

p_fcs.0.bias f4 [128]
000000 15 3d f0 3b bf a8 84 3d 02 18 67 bd c2 65 32 3c
       0.0073315003 0.06477498 -0.05641938 0.010888519
000010 a3 a2 8b bd 1d 8b cd 3a 02 d6 82 3c 6b d3 1b 3c
       -0.0681813 0.0015681718 0.015971188 0.009510855
000020 63 b9 8b bc e7 32 0b bd e1 69 24 bc ac 1b 3c 3d
       -0.017056173 -0.03398409 -0.010035009 0.045924827
000030 c0 4e ed b8 33 48 bf bc 24 3c 8d bc e8 44 7f bd
       -0.00011315709 -0.023349857 -0.017240591 -0.062321573
000040 03 00 40 bd e6 08 31 3d 25 9e 6d 3d 12 fc 14 bd
       -0.04687501 0.043221377 0.058012147 -0.036373205
000050 7c 39 e3 3c c4 c9 d2 bc bd cf 48 3d ba c3 23 bb
       0.027737372 -0.025730975 0.04902624 -0.0024988488
000060 5a 1c bf bd 94 f3 36 bc 71 6e 80 bc fa 70 1e bd
       -0.093315795 -0.011166472 -0.015677663 -0.03868196
000070 22 af 0a 3b 6a 00 80 bc 14 20 dc 3c 92 0f e8 bc
       0.0021161516 -0.015625197 0.026870765 -0.028327737
000080 f2 83 97 bc 1d 7f 62 3b 3d 7b 4c 3d 7c 19 4d bc
       -0.018495534 0.0034560629 0.049922217 -0.012518283
000090 84 94 06 3c 4c 73 09 3d df af 95 3c 67 06 8f 3d
       0.00821412 0.03355722 0.018272338 0.06983643
0000a0 2e a0 b3 bc ba 9d 25 bc 7c c3 32 bc 06 70 32 bc
       -0.021926966 -0.010108406 -0.010910865 -0.010890966
0000b0 1a 26 3b bd 82 26 9b bc bd cd 68 bc 4a 22 59 3c
       -0.045690633 -0.01893926 -0.014209208 0.013252804
0000c0 96 ae f2 bb 3e 3b 49 bd ee c0 42 bb 38 c9 2a bc
       -0.007406066 -0.049128763 -0.0029717046 -0.010423951
0000d0 6d af b5 bb 92 19 83 bd 24 06 b6 bd c6 0d 9c 3c
       -0.005544594 -0.064013615 -0.0888789 0.019049536
0000e0 98 e4 35 3d 0b ad a1 3c c0 ea 17 3d 3b f7 b3 bb
       0.044407457 0.019735834 0.03708911 -0.0054921187
0000f0 bb 1a aa ba a0 8c 49 bd 0c f0 4a 3c 67 16 31 3d
       -0.0012977937 -0.049206376 0.012386333 0.043234255
000100 c0 92 d9 bc a4 f3 9e 3c c4 3d 8f 3c a4 bb 59 bd
       -0.026559234 0.019403286 0.017485507 -0.053157464
000110 95 54 67 3d 45 c3 b7 bc 5c a9 00 bb 20 c5 0b bd
       0.056477148 -0.022431979 -0.0019632196 -0.03412354
000120 ce 43 52 bc f1 53 00 bd f6 20 37 3c 84 68 2a bd
       -0.012833549 -0.031330053 0.011177292 -0.04160358
000130 da 28 86 bb 8f 18 52 bd e9 a3 09 bd 6f 81 7a 3c
       -0.0040942254 -0.051292952 -0.033603583 0.015289648
000140 01 74 88 3c 2f 57 59 3c c7 2a 22 bd b6 cb 07 3c
       0.016656877 0.013265415 -0.039591577 0.008288315
000150 0a 61 4f bd 19 14 af 3c 95 9a e7 39 02 81 d7 bc
       -0.050629653 0.021371888 0.00044174926 -0.026306633
000160 0e df 09 bc 18 42 07 3d 9a 9c 58 3c 1d 65 bb ba
       -0.008414997 0.033022016 0.0132209305 -0.0014297102
000170 c7 c7 69 bd 9a 59 af bc 66 ca 2a 3b dd 99 d3 bc
       -0.05707529 -0.02140503 0.002606058 -0.025830204
000180 f9 ea 68 3c 23 58 75 bd 42 51 ef 3c a4 83 cc 3c
       0.014216178 -0.059898507 0.029213551 0.024965115
000190 1c 85 0e bd db 4d d2 3c 5d 02 2e bd 1d 40 7b 3c
       -0.03479491 0.02567189 -0.042482723 0.01533511
0001a0 04 fb 73 bc e6 8d d8 3c ee 5b dc 3c 6d b9 23 3c
       -0.01489139 0.02643485 0.026899304 0.009992939
0001b0 15 00 0d 3c c2 db b9 3c a4 57 44 3d fe 86 a1 3b
       0.008605977 0.022687797 0.047935143 0.0049294224
0001c0 27 50 08 3d 58 94 9a 3c 41 98 c9 3c f3 68 43 bd
       0.033279564 0.018869564 0.024608733 -0.04770751
0001d0 ec b8 90 3c 8f 15 33 bd 5c 80 df bc eb f0 30 3d
       0.017666303 -0.04372173 -0.027282886 0.043198507
0001e0 6e 84 5b bd 4e 94 90 3d a8 68 bd bd 5a fb 32 bc
       -0.05359309 0.07059537 -0.09248477 -0.010924185
0001f0 db a3 03 3d 37 2f 6c bd dc 25 04 bd ea 7e 2c bd
       0.032138687 -0.057662215 -0.032262668 -0.042113222

p_fcs.1.weight f4 [128, 128]
000000 c6 3e 4b bc 4c 30 cd bb 34 60 88 bc c6 ae a0 bb
       -0.012405103 -0.006261861 -0.016647436 -0.004903647
000010 68 9d be bb a0 8a 9f bb 48 52 9e bc 2f eb 7c 3c
       -0.005817104 -0.0048688203 -0.019326344 0.0154369315
000020 0c 86 d7 3b 46 4e 1b bc 57 83 02 3b 4a 2e f9 bb
       0.006577259 -0.009479111 0.001991471 -0.007604395
000030 57 b8 c8 bb 51 42 96 bb fd 2a 19 3b 6e 21 54 bb
       -0.0061254906 -0.0045855423 0.002337157 -0.0032368558
000040 98 30 8f bb 75 13 0e 3c fb 2e fa ba 49 39 17 3b
       -0.0043698065 0.008671631 -0.0019087488 0.0023074916
000050 f8 1c 9c bc 32 fb 4e bb b5 d5 86 bb 91 d8 49 bb
       -0.019056782 -0.003158283 -0.0041148313 -0.003079925
000060 ee f0 22 3c c8 9e c1 bc d2 7a 2b 3a 64 8f 01 bb
       0.009945137 -0.023635283 0.0006541434 -0.0019769305
000070 3a a3 86 bc 78 ff 69 bc 99 65 9c ba aa 31 8f 3c
       -0.016435254 -0.0142821 -0.0011932134 0.017479736
000080 be 1d 72 bc fa d3 eb 3b d7 b6 4b 38 18 ec b1 3b
       -0.014777599 0.0071969004 4.8569254e-05 0.005429756
000090 f3 7b 3b bc dc 5d 6d ba 26 f9 11 3c b9 dd 1e bc
       -0.011443126 -0.00090548187 0.008909499 -0.0096964175
0000a0 8a 04 d5 ba d9 71 16 bc 8f 0a 4a 39 56 8b 06 3c
       -0.0016251963 -0.009182417 0.00019268155 0.008211931
0000b0 7e 19 27 bc 35 55 22 3b 2e 12 9b b9 36 3f a1 bc
       -0.010198949 0.0024770026 -0.0002957745 -0.019683462
0000c0 9f 58 de bb 32 00 a1 bc c1 80 76 bb b8 cf 6e ba
       -0.006785467 -0.019653413 -0.0037613364 -0.0009109932
0000d0 f2 34 b6 bc 70 07 26 bc 4c 65 7a bb aa 20 98 bb
       -0.022242043 -0.010133609 -0.003820735 -0.0046425657
0000e0 32 b6 57 bb f1 a1 bc bc 79 3f 0d bc 7b 3e 08 bc
       -0.0032914993 -0.023026438 -0.00862109 -0.008315678
0000f0 be 32 01 bc f3 4e ee 3b 9f 64 f5 3b 5e ee 22 bc
       -0.007885633 0.007272595 0.0074888016 -0.0099445265
000100 fd 67 0d bc cb e4 bd bb b3 c4 01 bd a0 df be bb
       -0.00863075 -0.0057950965 -0.031681728 -0.005824998
000110 95 16 94 bb 4c cd 2e bc 68 28 6a bc 8c 0a 65 3c
       -0.0045192936 -0.010669064 -0.01429186 0.013979565
000120 64 bb 98 bb 08 43 7d bb 1a 2b 31 bc c4 55 63 3b
       -0.0046610106 -0.003864469 -0.010813499 0.0034688571
000130 00 b7 70 b9 fd 76 8f bc 0d 5f 4d bc a3 62 3a bc
       -0.00022956356 -0.017512793 -0.012534869 -0.011376056
000140 13 5c 83 bc 5e 74 bb ba 35 41 85 3b 21 3c 13 bc
       -0.016035115 -0.0014301648 0.004066611 -0.008986504
000150 05 be 2c 3c 04 00 b8 bb 2a 2b 6f bb df 4b fa 3b
       0.010543351 -0.0056152362 -0.0036494234 0.007638439
000160 6f c4 b3 bb f7 0e bc bc 1e 15 52 bb 84 0d ae bb
       -0.005486063 -0.022956355 -0.0032056044 -0.00531167
000170 0f 97 e4 bb 41 fd 7e bb 48 0b 26 bb 3b a4 54 3b
       -0.0069760154 -0.0038908275 -0.0025336314 0.0032446522
000180 27 05 0e bc 8f a2 4b 3c 1b 7d 52 bc bc 8a 78 bc
       -0.008668221 0.012428894 -0.01284721 -0.015169796
000190 2d 62 2a bc c7 5d 70 bc 17 44 27 bc a4 3b 8c b9
       -0.0103993835 -0.014670796 -0.010209105 -0.00026747317
0001a0 98 fa 87 bb 70 da 2e bb 2b 1d a1 bb 9c ec 6a bc
       -0.004149746 -0.0026680492 -0.004916807 -0.014338639
0001b0 06 4d cf 3a a6 d6 83 bb 8f 18 18 bc 96 3b 80 bb
       0.0015815801 -0.004023391 -0.009283199 -0.003913353
0001c0 1a 20 7a bc 65 63 c9 bc 00 22 97 bc 0e 5a b6 bb
       -0.015266443 -0.024583528 -0.01844883 -0.0055649346
0001d0 49 42 79 bc 47 c5 c1 bc 92 e1 0b bc c4 68 54 bb
       -0.0152135575 -0.02365364 -0.008537667 -0.0032411078
0001e0 11 4c e2 bb 40 3f 96 bb 5f ce 39 bc 4e 66 63 bc
       -0.0069060405 -0.0045851767 -0.011340707 -0.013879372
0001f0 25 70 da bb 5c 40 3e bc 2f dc 30 3c 51 03 57 3b
       -0.0066662007 -0.011612024 0.010794683 0.0032808373
000200 c2 57 25 bc b0 5f 18 3d d1 d7 1e bd 08 c3 92 3d
       -0.010091724 0.03720063 -0.038780037 0.071661055
000210 27 c3 24 3d 3e e9 80 3c 67 9d db 3d 43 f5 12 bd
       0.040225174 0.015736219 0.107233815 -0.03587843
000220 76 d8 5b bd 0e fa 1c 3d 19 2a 01 3e db f6 70 3d
       -0.05367323 0.03832441 0.12613715 0.05882917
000230 07 b4 f9 bc 80 86 d1 bc b0 00 7c bd d3 79 a9 bd
       -0.030481352 -0.02557683 -0.061524093 -0.08275189
000240 70 55 89 bd 1a 2d 9e bd 15 ac 1f 3d 34 b4 8a bd
       -0.06705749 -0.07723446 0.03898247 -0.06772652
000250 38 3c 87 bd 07 10 38 be 46 5a ab bd a6 3d 09 3d
       -0.06603283 -0.17974864 -0.08366828 0.03350606
000260 f5 11 61 bd 8f 88 f6 bd 4c 45 0b 3c cc a1 59 3d
       -0.054948766 -0.12037765 0.008500408 0.053132817
000270 fa 27 cd bd 13 a4 9f 3b ee d9 ae bd 03 b9 96 3d
       -0.100173905 0.004871854 -0.085376605 0.07359507
000280 45 60 bd bc 7c 47 3a 3b fe 24 85 3d b7 b8 31 3e
       -0.023117194 0.0028423956 0.06501196 0.1735562
000290 bd 67 3e be 2f 00 32 3d 2e 94 ce 3d 95 5b 67 3d
       -0.1859426 0.043457206 0.10086857 0.056483824
0002a0 43 c2 36 3d d1 63 3c 3e b7 d7 8e bd 76 96 41 bd
       0.044618856 0.18397452 -0.06974738 -0.04726263
0002b0 96 c1 f7 ba 02 ca a2 bd cb cb d0 bc 35 46 84 3b
       -0.0018902298 -0.07948686 -0.025487801 0.0040366896
0002c0 9a 2f 29 3c 54 c2 c1 3d cb f1 ed bd db 7f 92 bb
       0.0103262905 0.09460893 -0.11618384 -0.004470808
0002d0 3b 58 71 bc 34 87 ff bc 8d f4 08 bd 41 e2 a3 bc
       -0.014730508 -0.0311924 -0.033436347 -0.020005347
0002e0 96 3d 0d 3d bb d0 56 be d6 ad ee bc b5 6c ed bb
       0.03448256 -0.20978062 -0.029135626 -0.007245625
0002f0 bb b1 99 bd 04 3f ac bb 92 ba 24 3d 22 0a 41 3c
       -0.075046025 -0.0052565355 0.04021699 0.011782201
000300 74 b3 2c 3e 4c 8b 3a 3d bf f4 9d bd 7e ba 3e be
       0.16865331 0.045543 -0.07712697 -0.18625829
000310 2a 7a 97 bd bb fc 01 ba a3 5a 8e 3d f3 06 e8 bb
       -0.07396348 -0.0004958619 0.06950881 -0.0070809065
000320 0f 0a 6f bd b9 56 52 be ba 96 aa 3d ff f3 c2 3d
       -0.058359202 -0.20540895 0.0832953 0.09519195
000330 3e 0d ea bc ba cc b2 3d 27 0d e0 3d 7c ee fd 3d
       -0.028570767 0.08730455 0.109400086 0.12399003
000340 e1 cf 62 3d 2b 34 8e bd b1 c8 2b 3e 02 19 41 bd
       0.05537403 -0.06943544 0.16775776 -0.04714299
000350 10 6f df 3c 42 96 fd 3c 7f f2 b6 3d 75 c0 49 bd
       0.027274638 0.030955438 0.08932971 -0.049255807
000360 06 b9 3e bd a9 9b b1 bd 14 e7 98 3c 01 52 68 be
       -0.04656317 -0.08672268 0.018664874 -0.22687532
000370 06 79 05 3e c1 82 c2 3d 5d 85 e3 3d 3e c3 f4 bc
       0.13034448 0.094975956 0.111094214 -0.029878255
000380 ee ae 8f bd d5 8a 29 be 3b 98 83 3d 43 4a 46 3d
       -0.07015787 -0.16556866 0.0642552 0.048410665
000390 b4 d8 21 be 9f 3e 24 bd 74 66 b1 bc 18 f3 99 3c
       -0.15805322 -0.040098783 -0.021655299 0.018792674
0003a0 6b 44 3c bd f6 0f ad bd 7f 33 a4 3d 2f 72 89 bc
       -0.045963686 -0.0845031 0.080176346 -0.01677808
0003b0 b9 3d 84 3d 93 ac 13 bd 80 c7 0d 3b e1 6f bb 3d
       0.06457085 -0.03605325 0.0021633804 0.091521986
0003c0 e6 c6 c9 bd 50 8f 0d bd 7a c9 90 3d 9a 99 c0 3d
       -0.0985239 -0.0345605 0.070696786 0.09404297
0003d0 3f 29 9b bc 04 00 a2 3c cb e4 ad 3d 85 3a 94 bd
       -0.018940566 0.019775398 0.084909044 -0.07237724
0003e0 fe aa 95 bc b3 c4 a4 bc e2 af ff b9 fe f9 60 3d
       -0.018270012 -0.020113325 -0.00048768433 0.05492591
0003f0 fa bb 02 bc f9 03 42 bd b7 07 c9 bd a7 59 4d bc
       -0.007979387 -0.04736707 -0.098159246 -0.012533582

p_fcs.1.bias f4 [128]
000000 4b f0 2d bc e2 32 cd 3d 62 a6 61 3d b1 d2 86 3d
       -0.010616372 0.10019471 0.055090316 0.06583155
000010 17 d1 79 3d 28 e4 ae bb da 75 81 3c f4 e2 98 3d
       0.06099042 -0.005337257 0.015803266 0.07465163
000020 e1 3d 53 3d a7 bf 83 3d a9 4d cb 3d 2d 17 ab 3b
       0.051572684 0.06433039 0.09926922 0.0052212686
000030 56 cf 86 3d ea 38 09 3d 1f 42 2f 3a a2 1d fa 3b
       0.06582515 0.033501543 0.0006685573 0.007632927
000040 fc 49 b3 3c 54 bd 19 3b fd 45 1f 3c 01 53 96 3c
       0.021885864 0.0023458796 0.009721276 0.018350126
000050 15 e4 0e 3d d0 ea 8a bc 9d ed 45 bc 81 20 74 3d
       0.034885485 -0.01695767 -0.012080577 0.05960131
000060 1f 20 95 3c 36 70 55 bc d9 10 98 3d 7e 21 21 3d
       0.018203793 -0.013027241 0.074250884 0.03933858
000070 d8 13 8b 3d ea c6 2f 3d b7 d2 ad 3c ff 86 ca 3c
       0.06790894 0.04291431 0.02121864 0.024722574
000080 40 c1 0b bc 83 31 6a 3d 3d 44 b9 3a ad e9 b2 3c
       -0.008529961 0.057176124 0.0014134716 0.02183994
000090 c0 d8 ab 3d 6b 76 c4 bc eb 97 38 3d 73 2c be 3c
       0.08390951 -0.023982247 0.045066755 0.023214554
0000a0 2c 9a 83 3d 99 9c 2e 3d ab c3 85 3d 9f 2b 91 ba
       0.0642589 0.042629812 0.06531461 -0.0011075622
0000b0 78 ca bb 3c b0 57 6a 3c eb 3b f1 b9 7a 9a 90 3d
       0.022923693 0.014303133 -0.00046011744 0.07060714
0000c0 5e 16 02 3d d5 73 4b 3d c3 2c 58 3d 45 11 08 3d
       0.031759612 0.049671013 0.052777063 0.033219595
0000d0 94 f6 72 3d a5 fc f4 3c 2d c1 87 3d 40 f0 81 3c
       0.059317186 0.029905627 0.06628642 0.01586163
0000e0 44 bc 55 bc b1 5b 07 bc 2d a0 26 bd d3 84 90 bc
       -0.013045374 -0.008261607 -0.0406801 -0.01764146
0000f0 b6 46 d3 3c 15 a7 c1 3c cf 09 a6 3d 9f 57 da bc
       0.025790554 0.023639241 0.081073396 -0.02665311
000100 b9 7b 9d bc 81 f7 4d 3d 60 21 6a bc 75 73 f2 bb
       -0.019224035 0.050284866 -0.014290184 -0.0073990175
000110 9d c8 b6 3d cf 22 0a bb 27 73 4c 3d 1d 86 a1 3d
       0.08924983 -0.0021077876 0.049914505 0.07886908
000120 35 8f b5 3d d9 b0 0b 3c dc 5f a2 bc e1 b4 87 3d
       0.08865205 0.0085260505 -0.0198211 0.06626297
000130 97 3e 94 3d e1 83 30 bc 99 cd 67 3b 5b 1d 86 3d
       0.072385006 -0.01077363 0.0035370348 0.06548568
000140 3d 10 82 ba 46 ba 5d 3b 29 d5 18 3d 7f e6 54 3d
       -0.0009923052 0.0033832951 0.03731266 0.05197763
000150 3a 5c 23 bc 79 0e 8a 3d 59 53 31 3d 01 3f 2a 3d
       -0.009970719 0.06741042 0.043292377 0.04156399
000160 20 ec 6a 3d 57 78 9f 3d ff d2 58 3d 99 ea a4 3c
       0.057354093 0.07786625 0.052935597 0.020131396
000170 1a 15 39 bc ed 7f 59 3d e8 95 4a 3d 4d 2f 32 bc
       -0.011296535 0.053100515 0.049459368 -0.010875535
000180 47 38 ff 3c f4 b3 26 3d d7 de 42 3d ad b9 57 3d
       0.031154765 0.04069896 0.047575798 0.05266731
000190 bd 50 b8 3c ad b7 0d 3c d0 1c b0 3c cf db 15 bc
       0.022499437 0.008649749 0.021498114 -0.009146645
0001a0 3f 76 9b 3c 69 02 1d 3d 2f 27 7e 3c bd 7b 3f 3d
       0.018977283 0.038332377 0.015512272 0.046748865
0001b0 e5 70 82 3d f2 53 de 3c e6 f8 18 3d fb 9b 80 3c
       0.06369189 0.027139638 0.037346743 0.015699377
0001c0 db 20 8c 3b 52 3c d2 3b 33 6f 2e 3d e5 84 49 3d
       0.0042763776 0.006415882 0.042586517 0.049199004
0001d0 36 b5 fe 3c cc 6a eb bc fe c5 ed 3c fb 4b a7 3d
       0.031092267 -0.028737448 0.029025074 0.08168789
0001e0 db e6 33 bd bc a5 9e 3d 73 f4 9c 3b fd cb 03 3d
       -0.043921333 0.07746455 0.004789883 0.03217696
0001f0 8e 74 a3 bc 66 d5 5a 3d f7 df 27 bc ce f8 1c 3d
       -0.019953039 0.05342617 -0.0102462685 0.038323216

v_fcs.0.weight f4 [128, 39]
000000 95 62 5d be e4 31 5f be 3a ac aa 3d 33 71 9a 3e
       -0.21619637 -0.21796376 0.08333631 0.3016449
000010 0f 76 4a 3e d6 11 68 be 20 c2 73 be 3d ff 81 3e
       0.19771598 -0.22663054 -0.23804522 0.25390044
000020 c3 44 bc bc dc f7 71 be e9 41 6f 3e 7b b4 98 be
       -0.022982007 -0.23629707 0.23364986 -0.29825196
000030 a2 60 64 be 20 a4 78 3e 88 19 2b 3e 4f e0 78 be
       -0.22302487 0.24281359 0.16708958 -0.24304317
000040 5e a2 75 3e 24 c0 80 3d 0c ee 6e be 16 95 4c 3e
       0.2398772 0.06286648 -0.23332995 0.19978747
000050 0c 54 ef 3c 33 f3 11 3e 6e 60 08 3e 86 f9 a1 bc
       0.029214881 0.1425293 0.13318035 -0.019772302
000060 3e e0 cb 3c 72 30 ce 3c e1 8f ce bc 69 dc 7b bb
       0.0248872 0.025169585 -0.025215091 -0.0038430935
000070 23 8f c8 bc e2 79 14 bd 21 b8 ce 3c f6 44 33 ba
       -0.024482315 -0.03624905 0.025234284 -0.0006838584
000080 fd 21 93 bc be 9b 95 bb 8b 16 55 bc 0c 33 5e 3d
       -0.017960543 -0.004565685 -0.013005863 0.0542479
000090 38 ed 3a be 23 de 68 3c b2 c6 4d bd 47 9e d2 bd
       -0.18254554 0.014213118 -0.05023832 -0.10284095
0000a0 ed 0d ce be d8 31 81 bf 21 f2 55 3d ef a3 06 bf
       -0.40245 -1.0093336 0.052232865 -0.5259389
0000b0 c8 e2 cd bf af a2 1b bf 68 40 3f 3f dd de 02 bd
       -1.6084833 -0.6079511 0.7470765 -0.03195082
0000c0 a3 7a 0d bf 38 3f 19 3f 17 6f 13 bf 8a db 15 bf
       -0.55265254 0.5986209 -0.57591385 -0.58538115
0000d0 f8 87 06 3f d8 8c 6d 3f 58 1e b7 be 2a 70 44 3f
       0.5255122 0.92793036 -0.35765338 0.7673365
0000e0 ef e3 10 3f 56 8c 59 bd cc 7f 0d 3e a2 f3 06 be
       0.565978 -0.05311235 0.13818282 -0.13178876
0000f0 ee 34 9d 3e 82 64 05 3e 32 b3 03 bd 41 89 1f 3e
       0.30704445 0.13026622 -0.032153316 0.15579702
000100 e8 d1 5b 3d 16 cb 5f bd c7 40 9b 3d ec 36 05 3d
       0.05366698 -0.054637037 0.07580715 0.03252308
000110 1c 7f ab bd 25 89 17 3e c8 ae 94 3d de 99 f7 3c
       -0.083738536 0.1479841 0.072598994 0.030224737
000120 02 03 56 be 00 b5 d4 bd be f6 84 be 01 7e 9b bf
       -0.20899585 -0.103860855 -0.259695 -1.2147828
000130 46 93 a7 be 6e 40 96 be b3 2a b1 be 49 59 bf be
       -0.32729548 -0.2934603 -0.3460289 -0.37372807
000140 c1 e7 72 3e 85 1a a1 3e 55 e9 ce 3e 42 9c be be
       0.2372122 0.31465545 0.40412393 -0.3722859
000150 2b 2a b0 be cb 7d c6 3e 43 0a a1 3e 94 49 c0 be
       -0.34407172 0.38767847 0.31453142 -0.37556136
000160 bc 21 d0 3e 68 cb a1 be 8f 79 c3 be af 38 be 3e
       0.40650737 -0.316005 -0.3817868 0.3715262
000170 c2 c8 d8 3e a1 8b bd be 82 68 cd 3e af 69 fb 3c
       0.42340666 -0.3702059 0.40118796 0.030690042
000180 92 13 1d be 67 d3 71 3e 11 dd c3 bd 5f 95 d5 3c
       -0.15339497 0.236158 -0.095636494 0.026072202
000190 5d fe 85 3e 42 3f fd 3d cc 04 c6 bd a0 38 0b bd
       0.26170626 0.12365581 -0.09668884 -0.03398955
0001a0 16 2a 9f 3b ec 55 f4 37 3f 2b fd 3b fb 55 14 be
       0.004857312 2.9127077e-05 0.0077261026 -0.14485924
0001b0 d4 98 8f 3d f0 de c1 bb a2 d1 02 bd 62 6b f9 bc
       0.070115715 -0.005916469 -0.031938203 -0.030446712
0001c0 2e 3d 22 bd e8 7e 96 be a1 e8 f4 be 10 a4 72 be
       -0.039609127 -0.29393697 -0.47833732 -0.23695397
0001d0 cb 5f bf be be c4 97 be 98 61 ae be 6d 52 ed be
       -0.37377772 -0.2964229 -0.34058833 -0.46351948
0001e0 69 52 e8 3e 40 06 90 3f 14 01 3d bc 90 53 cf be
       0.45375374 1.1251907 -0.011535902 -0.4049344
0001f0 54 9a a4 3e 00 5e a0 3d 82 34 98 be 04 78 9a 3e
       0.32148993 0.07830429 -0.2972756 0.3016969
000200 08 56 d4 bd 37 51 97 be 06 50 8f 3e 82 9a 22 3e
       -0.10367972 -0.2955415 0.2799074 0.15879253
000210 be 04 b9 be 1f 69 bc 3e 16 7b 07 3d 1b b2 ab 3d
       -0.3613643 0.3679895 0.03307637 0.0838358
000220 8a 28 ea 3d 4f a9 3c be 57 8c 52 3e ee 42 0e 3e
       0.114335135 -0.18423961 0.20561348 0.13892719
000230 85 02 54 ba 13 f0 88 3c 4b 5c 54 bb f0 0c 86 bc
       -0.00080875336 0.016716039 -0.0032403644 -0.016363591
000240 25 5a b9 3c 10 69 6c 39 69 8a 26 bd 3e 2d e2 bd
       0.022625992 0.00022545853 -0.040659342 -0.110437855
000250 4f 3e 71 bd 5c 63 a2 bd ac 6f ce 3d a0 f5 2a 3d
       -0.058897313 -0.079291075 0.100798935 0.041738153
000260 3c 18 09 bf 3e c8 e9 be 8c f6 7c bd 76 b4 99 3e
       -0.53552604 -0.45660585 -0.061758563 0.30020493
000270 2c eb 6e be f0 90 8a be ee 54 05 bd 35 4e 58 3e
       -0.23331898 -0.27063704 -0.0325517 0.21123584
000280 15 a7 fc 3d c7 d3 79 be f3 0d 8d be e6 99 8e 3e
       0.12336556 -0.24397193 -0.27549705 0.2785179
000290 5b 44 04 3c d5 06 7f be 57 d8 87 3e 5c 9c 94 3d
       0.008072938 -0.2490495 0.26532242 0.07256386
0002a0 52 2a 83 be dc c2 90 3e 4c 70 20 3e 42 90 8c be
       -0.25618225 0.28273666 0.15667838 -0.2745381
0002b0 3b fa 88 3e 85 a1 08 3e 47 3f 1a 3d 5c da 2f 3e
       0.2675341 0.13342865 0.037658002 0.17173141
0002c0 00 55 ee bc b7 90 7b 3d 6d 99 10 3e 7e 86 a7 3c
       -0.029093266 0.061417308 0.14121027 0.020449873
0002d0 7e 4e 03 3d 6e a2 1f 3d 76 d2 6d 3b 5f ed 82 3c
       0.032057278 0.038973264 0.0036288775 0.015982328
0002e0 9e db 04 3d d1 36 90 bd 5b 57 e6 3b 26 cb 09 bd
       0.032436006 -0.070417054 0.0070294566 -0.033641003
0002f0 4e ba 18 3d 20 2c 8d bc 42 1f 74 bc ac d3 6b bd
       0.03728705 -0.017232955 -0.014900031 -0.057574913
000300 c7 32 c4 bd de 52 7e bd d0 0f 67 bc f4 80 80 be
       -0.095799975 -0.062090747 -0.014102891 -0.25098383
000310 4c db 01 bf 4e e0 07 40 76 3c 19 40 0f ce 48 40
       -0.50725245 2.1230655 2.3943152 3.1375768
000320 b8 16 39 3f 0e e9 01 be 52 d6 22 3f a7 0a 6a 3e
       0.7230029 -0.1268656 0.63608277 0.22855626
000330 36 dd 35 3e a5 40 49 3f 5d 43 ff 3f 3f ee 0b be
       0.17760167 0.78614265 1.9942433 -0.13665102
000340 00 d2 49 3f aa db ac bf 9e fd 8c bf 16 0e 10 3f
       0.7883606 -1.3504536 -1.1014898 0.56271493
000350 fb 79 d2 3e 0d f7 74 be 54 b5 97 3d cb 2c af 3e
       0.4110869 -0.23922367 0.074076325 0.34213862
000360 67 50 84 3e 05 64 dc bd 41 ba 4c 3d d4 51 d3 3c
       0.25842592 -0.10761265 0.049982313 0.025795855
000370 48 2b df 3c cc 0e 12 3e 44 d0 25 bc 97 bb 60 bd
       0.027242318 0.14263457 -0.010120455 -0.0548664
000380 cc 69 88 3d 99 33 1b bc f7 3d 2b ba 81 27 fd 3c
       0.06660804 -0.009472751 -0.0006532366 0.030902626
000390 ab f1 76 3b 9f bf 4a bb cd 0d 0c 3f fb 8f 5e bf
       0.0037680666 -0.003093697 0.5470856 -0.86938447
0003a0 e8 71 0b 3f 64 5f 2c 3f 24 2c 39 be 3f 59 4d be
       0.5447068 0.67333055 -0.18083245 -0.20053576
0003b0 30 f3 9e 3d a2 06 e9 3d f0 0b 5a 3d 97 55 a0 bd
       0.07761228 0.11378218 0.05323404 -0.07828825
0003c0 89 fd 38 be 7d 31 3f 3e ee b8 09 3d 14 41 4a be
       -0.18065466 0.18671222 0.03362363 -0.19751388
0003d0 89 c3 24 3e c1 b0 c8 bd 2e e8 37 be 0a 91 2b 3e
       0.16090216 -0.09799338 -0.17959663 0.16754547
0003e0 2b 27 28 3e 7c 53 50 be b8 9d 29 3e ca 27 90 3d
       0.16421191 -0.20344347 0.16564071 0.07038839
0003f0 3f 6d 1b bd 37 3c b1 3d b0 6d 01 3d da 49 f2 3d
       -0.037945982 0.08654063 0.031598747 0.11830492

v_fcs.0.bias f4 [128]
000000 ee a0 6f be af 84 e4 be b3 f1 c1 be 0f 3e aa be
       -0.23401234 -0.4463248 -0.37879714 -0.33250472
000010 88 f1 91 be 84 25 09 bf d4 ef 37 be a0 a5 06 bf
       -0.28504586 -0.5357287 -0.17962581 -0.52596474
000020 62 8f 0e bf 5b 62 f1 be 3c 33 02 bf 6d bb 47 bf
       -0.55687535 -0.47145352 -0.5085943 -0.78020364
000030 7f 01 b8 bd d7 84 c6 be 2b b4 a3 bd d6 67 1f be
       -0.0898466 -0.38773224 -0.07993349 -0.15566954
000040 36 5b 8a bf 8d c9 32 bf a1 fb bb be 02 06 7a bf
       -1.0809085 -0.6983879 -0.36715415 -0.9766542
000050 d3 e2 20 bf bb 70 05 3f b5 6b 52 be a1 3f 09 bf
       -0.62846106 0.5212514 -0.205489 -0.53612715
000060 5a 7b 1c bf a8 0b 2b bf d2 92 64 bf 79 e4 50 bf
       -0.6112572 -0.6681466 -0.8928653 -0.8159862
000070 40 cd b1 be 2c e5 c9 be 1c 0c 95 be da 6c 4f bf
       -0.34726906 -0.39432657 -0.291108 -0.8102547
000080 79 4b 16 bf 9c ed 83 bf 54 fc d0 be e4 c6 4c bf
       -0.5870891 -1.0306888 -0.4081751 -0.79990983
000090 05 36 4f bf de 0e 30 bf 6a 31 12 3f dd fe 40 bf
       -0.809418 -0.68772686 0.5710665 -0.7538889
0000a0 10 06 ba be fd 4e 29 bf 90 3f 4c be f3 b5 20 bf
       -0.3633275 -0.6613615 -0.19946122 -0.6277763
0000b0 11 63 ec be df 72 1c bf 3c 3d fe be c0 f0 b4 bf
       -0.46169332 -0.6111278 -0.49656093 -1.4135971
0000c0 60 05 42 be 9a 2c 38 bf 52 57 d0 be 90 78 81 bf
       -0.18947363 -0.71943057 -0.4069162 -1.0114918
0000d0 e7 cd 43 bf e8 e9 ce be bf 02 91 be eb da 11 bf
       -0.7648606 -0.4041283 -0.28322408 -0.5697467
0000e0 77 a0 22 bf 04 c2 b5 be 33 53 aa be cb 25 65 be
       -0.635261 -0.35499585 -0.332666 -0.22377698
0000f0 3e b9 34 bf 09 6e 84 be 29 43 24 be 30 5b 1b bf
       -0.7059516 -0.258652 -0.16041245 -0.60686016
000100 32 a6 3e bf 08 0f b8 be 28 bf f5 be 46 f3 37 bf
       -0.74472344 -0.35948968 -0.47997403 -0.7185558
000110 27 26 3d be b3 2c a6 be 8c 8c 09 bf 44 88 07 bf
       -0.18471585 -0.32455978 -0.5373008 -0.529423
000120 b0 ce 5b bf dc 88 20 bf c3 07 2b bf b7 a5 24 bf
       -0.85862255 -0.6270883 -0.6680872 -0.6431536
000130 02 3d 55 bf 60 48 09 bf 6d c7 77 bf ed dc 05 bf
       -0.83296216 -0.5362606 -0.96788675 -0.5229023
000140 46 89 3a be 8f 1e 63 be ad 02 33 bd 20 be 3c bf
       -0.18216428 -0.22179626 -0.043703724 -0.7372761
000150 82 fd 1c be f7 ef 4f bf 3f 4f 41 bf 72 20 11 be
       -0.1533108 -0.8122553 -0.75511545 -0.14172533
000160 cf 9e a2 be a4 63 d3 be 1b 6b c2 be 7f 7c 10 bf
       -0.31761786 -0.41286957 -0.3797234 -0.56439966
000170 2b 3a 45 bf 3e ed 42 bf 95 14 96 be 04 49 2d 3d
       -0.7704188 -0.7614325 -0.29312578 0.04230596
000180 03 23 6d be 12 f8 01 bf d9 60 3b bf 7e 3c 71 bf
       -0.23157887 -0.5076915 -0.7319465 -0.9423293
000190 e4 97 a0 be fc e0 a6 bf a2 92 f2 be 89 fb 63 be
       -0.31365883 -1.303741 -0.47377497 -0.22263922
0001a0 59 25 fe be 1a 2f 20 bf 62 f1 2b bf e4 2c 4f be
       -0.4963787 -0.6257187 -0.67165196 -0.20231968
0001b0 3e ea 72 bf e2 25 63 bf c5 34 d3 be 36 e3 85 3e
       -0.94888675 -0.8872968 -0.41251197 0.2614991
0001c0 7d 20 13 bf 8d 3c 87 be 05 4b 63 be b0 ca 73 be
       -0.5747145 -0.26413384 -0.22196586 -0.23807788
0001d0 2b 83 71 be c9 a1 dd 3d 3c c2 af be 4c 93 fd be
       -0.23585193 0.10821874 -0.34327877 -0.4952644
0001e0 f5 8a 1a bf 3f 8f 93 be 87 ba 4e bf fe bd 19 bf
       -0.6036828 -0.28820226 -0.8075337 -0.6005553
0001f0 43 8d e8 be 92 9e 39 bf d4 6f b1 be bb d3 33 bf
       -0.45420274 -0.72507584 -0.3465563 -0.7024495

v_fcs.1.weight f4 [128, 128]
000000 be c0 00 bd 1b 49 24 bd 52 e7 54 bd 9e 98 4f bd
       -0.031433813 -0.04010878 -0.051978417 -0.050682656
000010 16 c5 92 bd 01 78 6f bd 96 8e 6a bd 55 17 70 bd
       -0.071664974 -0.058464054 -0.057264887 -0.058616
000020 c5 66 87 bd 3e d8 3e bd d0 82 36 bd de e0 59 bd
       -0.066113986 -0.046592943 -0.044558346 -0.053192966
000030 77 9e 85 bd 6a 14 3f bd 72 4a 68 bd b6 cb 08 3c
       -0.065243654 -0.046650328 -0.05671162 0.00834935
000040 29 79 47 bd cc 15 38 bd f1 3b 44 bd 7a eb 40 bd
       -0.04869953 -0.044942662 -0.047908727 -0.047099568
000050 2c 29 4f bd 10 00 4f bd 7a 71 82 bd 0a b8 81 bd
       -0.050576374 -0.05053717 -0.063693 -0.06333931
000060 5d 91 48 bd 26 8a 73 bd ab f5 4a bd c6 00 8f bd
       -0.048966754 -0.05945792 -0.049550693 -0.069825694
000070 5f 7e 3c bd 29 b2 67 bd ff e1 13 bd 6c 22 07 bd
       -0.046018954 -0.05656639 -0.0361042 -0.03299181
000080 4a 04 23 bd 2b 3c 68 bd 30 ac 29 bd 01 4d 5e bd
       -0.039799012 -0.056698006 -0.041423976 -0.054272655
000090 6d f4 32 bd df 36 56 bd 0e 86 64 bd 8b ff 75 bd
       -0.043690134 -0.052298423 -0.055791907 -0.060058158
0000a0 53 c0 4a bd c6 95 52 bd f4 74 7d bd 8f db 21 bd
       -0.04949982 -0.051412366 -0.061879113 -0.039516028
0000b0 dd 37 43 3c 93 25 15 bd e6 06 41 bc 1f f2 35 bc
       0.011915174 -0.036412787 -0.01178143 -0.011105089
0000c0 68 0c 78 bd 84 7f 62 bd 30 c0 3e bd d8 dc 55 bd
       -0.060558707 -0.05529739 -0.046570003 -0.052212566
0000d0 5b 9b 82 bd a3 a4 89 bd b7 10 65 bd e8 9a 65 bd
       -0.06377288 -0.06720855 -0.055924144 -0.056055933
0000e0 a5 ca d1 bc dc 68 4a bd a7 bf 7c bd 22 ca 41 bd
       -0.025609324 -0.049416408 -0.06170621 -0.04731191
0000f0 23 7e 44 bd b3 d4 80 bd ae c3 a8 bc 7f d1 45 bd
       -0.047971856 -0.06290569 -0.02060112 -0.048295494
000100 af 2b 6b bd 1c c9 5b bd 57 66 83 bd 26 f1 15 bd
       -0.057414707 -0.05365859 -0.06416004 -0.03660693
000110 fe 84 68 bd 33 e8 64 bd 04 01 54 bd ad 43 37 bd
       -0.056767456 -0.055885505 -0.05175878 -0.044742275
000120 b5 b9 46 bd 0c 20 53 bd 02 1a 45 bd cf 49 3d bd
       -0.048516948 -0.051544234 -0.048120506 -0.046212967
000130 23 4e 35 bd 29 8c 73 bd 12 1a 4f bd 2c c7 be bc
       -0.04426397 -0.05945984 -0.050561972 -0.023288332
000140 e7 e3 23 bd 1d c4 81 bd 48 5a 6b bd d2 d7 8d bd
       -0.040012266 -0.06336234 -0.057459146 -0.0692593
000150 29 88 73 bd 1a 9d 28 bd 5c 77 20 bd b5 99 71 bd
       -0.059456024 -0.04116545 -0.03917633 -0.058984477
000160 5a da 70 bd 22 78 3f bd 8a 52 4d bd 40 ad 63 bd
       -0.058801986 -0.046745427 -0.050127544 -0.055585146
000170 05 0b 5f bd 0f ad 20 bc 0a fa 6a bd 0f 20 65 bd
       -0.05445387 -0.009806885 -0.057367362 -0.055938777
000180 24 d8 72 bd 83 e0 5b bd 1b 60 21 bd 8b 80 8d bd
       -0.05928816 -0.053680908 -0.039398294 -0.06909283
000190 b0 e0 6d bd 89 12 54 bd e5 e6 83 bd 1a cb a4 bc
       -0.058075607 -0.05177549 -0.06440524 -0.020116378
0001a0 ee 02 c9 bc ae e7 55 bd cb 16 45 bd 24 8f 4a bd
       -0.02453753 -0.0522229 -0.04811744 -0.049452916
0001b0 20 5e 5d bd f5 63 91 bd 83 ed 70 bd af 55 35 bd
       -0.054044843 -0.070991434 -0.05882026 -0.044271167
0001c0 1e 67 40 bd 37 d3 50 bd 09 76 54 bd 6d ea 8b bd
       -0.04697334 -0.05098268 -0.05187038 -0.068318225
0001d0 6f f8 38 bd d1 23 64 bd 4d 9a 85 bd 70 af 1c bc
       -0.0451588 -0.05569822 -0.06523571 -0.009563312
0001e0 17 0e 5b bd 75 d1 68 bd 91 66 70 3b 02 2f 22 bd
       -0.053480234 -0.05684038 0.0036682228 -0.03959561
0001f0 1d de 7e bd cd 13 2a bd 00 80 cd bc 14 79 5f bd
       -0.062223542 -0.04152279 -0.02508545 -0.05455883
000200 d2 37 4e bd 38 d7 9e bd 5b ec 64 bd 51 ad 82 bd
       -0.050346203 -0.077558935 -0.05588947 -0.06380714
000210 ce 8d 8f bd 2b 03 69 bd 09 4e 56 bd 5e 5e 7a bd
       -0.07009469 -0.056887787 -0.052320514 -0.06112515
000220 55 fd 5a bd 9b 1a 46 bd 4b e3 61 bd a1 0e 7e bd
       -0.053464253 -0.048365217 -0.055148404 -0.06202567
000230 57 69 5e bd 89 60 93 bd e3 b4 37 bd 2f ae 44 bd
       -0.05429968 -0.07196147 -0.04485024 -0.048017677
000240 00 bc 5e bd c6 91 7c bd ae 6e 4c bd 18 80 6a bd
       -0.05437851 -0.061662458 -0.04991024 -0.057251066
000250 a4 73 24 bd e9 8d 68 bd 71 cf 66 bd eb e5 88 bd
       -0.040149346 -0.05677596 -0.056350175 -0.06684478
000260 43 a3 4d bd a2 52 81 bd f6 6a 3c bd 25 4e 83 bd
       -0.050204527 -0.06314589 -0.046000443 -0.06411389
000270 cc 90 6c bd 1a d8 5d bd ed 4f 64 bd 8b a1 81 bd
       -0.057755277 -0.05416117 -0.055740286 -0.0632964
000280 68 28 75 bd 4a ff 73 bd 4f 3c 61 bd c8 c9 4e bd
       -0.059852988 -0.059569634 -0.054989155 -0.050485402
000290 25 b9 9b bd dc 4a 4e bd 95 f4 7b bd af 4f 6e bd
       -0.07603673 -0.05036436 -0.06151255 -0.05818146
0002a0 51 b2 61 bd 24 6f 48 bd 7b 55 7c bd a6 86 6c bd
       -0.055101696 -0.048934117 -0.061604958 -0.0577456
0002b0 f4 40 5e bd f9 e1 92 bd a2 45 80 bd fe 14 52 bd
       -0.054261163 -0.07172007 -0.062632814 -0.05128955
0002c0 ba a7 72 bd 21 76 51 bd c3 20 9c bd 98 0f 3e bd
       -0.059241988 -0.051138047 -0.07623436 -0.04640159
0002d0 35 df 72 bd 66 2c 39 bd 73 54 7f bd 87 9e 68 bd
       -0.059294898 -0.045208357 -0.062336396 -0.05679181
0002e0 66 42 69 bd 46 28 a7 bd 93 c6 9b bd 4d e4 59 bd
       -0.056948088 -0.081619784 -0.076062344 -0.05319624
0002f0 d1 dc 23 bd 5b 7a 64 bd 3d fe 5e bd 69 09 65 bd
       -0.04000551 -0.05578075 -0.05444168 -0.055917177
000300 29 2c 42 bd 6d 61 3d bd cb b5 4f bd 7a 8c 5f bd
       -0.047405396 -0.04623549 -0.05071048 -0.05457733
000310 63 fa 44 bd e8 f9 72 bd 95 b3 6d bd 42 4a 42 bd
       -0.04809035 -0.05932036 -0.05803259 -0.0474341
000320 81 f1 92 bd e0 ef 62 bd e2 38 66 bd ca 95 84 bd
       -0.071749695 -0.055404544 -0.05620659 -0.064738825
000330 69 e5 75 bd ea 80 3e bd 9b 4f 64 bd 3b f5 5b bd
       -0.060033236 -0.04650966 -0.05573998 -0.053700667
000340 d3 eb a3 bd c4 ec 63 bd ae 86 7d bd f1 5f 77 bd
       -0.08003964 -0.05564572 -0.06189602 -0.06039423
000350 6c 83 97 bd 82 df 7d bd 39 aa 81 bd 35 13 9c bd
       -0.073981136 -0.06198073 -0.063312955 -0.07620851
000360 4c 38 89 bd 68 1c 89 bd f0 a4 5f bd 4f 18 9a bd
       -0.06700191 -0.06694871 -0.054600656 -0.07524168
000370 1f 69 79 bd 72 31 51 bd e4 f3 7a bd 97 65 88 bd
       -0.060891267 -0.051072545 -0.06126775 -0.06660002
000380 a1 3d 2d bd 10 88 47 bd 5d f0 63 bd d4 3d 26 bd
       -0.042295102 -0.048713744 -0.05564915 -0.040586308
000390 62 ec 7c bd 66 8c 75 bd a6 c3 48 bd 5e 53 6e bd
       -0.06174887 -0.059948348 -0.04901471 -0.058184974
0003a0 f3 39 66 bd 5b 43 90 bd e5 3f 3a bd 67 81 72 bd
       -0.05620761 -0.07044097 -0.04547109 -0.05920544
0003b0 57 07 6b bd 30 e8 84 bd 7c 73 59 bd 8d a8 88 bd
       -0.057380047 -0.06489599 -0.05308865 -0.066727735
0003c0 5a 27 8e bd b7 ed 7e bd 7d 47 5d bd e4 01 8c bd
       -0.069410995 -0.06223842 -0.054023255 -0.06836298
0003d0 fe 12 42 bd b8 dd 85 bd 2d 7b 85 bd 6d dd 3c bd
       -0.047381394 -0.0653643 -0.065176345 -0.046109606
0003e0 c5 eb 6e bd d3 5d 81 bd 28 70 7f bd 6a 99 99 bd
       -0.058330316 -0.06316724 -0.06236282 -0.074999645
0003f0 86 78 8f bd 5d e1 7a bd d6 1f 82 bd d0 bb 53 bd
       -0.0700541 -0.06125008 -0.063537285 -0.051692784

v_fcs.1.bias f4 [128]
000000 25 de 88 bd 57 1a 71 bd c3 24 e8 bb 45 a3 2b 3d
       -0.06682996 -0.05886301 -0.0070844605 0.041903753
000010 f9 9b d9 be 89 8f 23 be 3d 8a 8c bd 23 11 5f bd
       -0.4250181 -0.15972723 -0.06862304 -0.054459702
000020 62 5b 89 bd 3c ac 17 3f 45 4d 40 bd 38 ea 4e bd
       -0.06706883 0.59247184 -0.04694869 -0.050516337
000030 9e 7f 54 bd 10 4c 68 bd 40 29 89 be d4 4b 33 be
       -0.051879518 -0.056713164 -0.26789284 -0.17509395
000040 06 00 ca bf a1 ca 8e bd 01 0b 96 bd ac 0b 61 bd
       -1.5781257 -0.06972242 -0.073263176 -0.05494277
000050 2b c2 50 bd b9 86 46 bd 4d 05 93 bd 64 27 aa be
       -0.050966423 -0.048468325 -0.071787454 -0.33233178
000060 4d 21 64 bd b9 28 7f bd 06 c9 48 bd 35 a3 68 bc
       -0.05569582 -0.062294696 -0.049019836 -0.014199068
000070 70 9e 84 bd 7a 55 60 bd c7 36 31 bd df 32 95 bd
       -0.06475532 -0.054769017 -0.04326513 -0.072850935
000080 d8 15 ef bb ff 57 df bc 80 b6 77 bd 4a b7 7c bd
       -0.007296305 -0.02726364 -0.06047678 -0.061698236
000090 ec 58 6e bd 4a 7a 0c 3f b4 a7 a3 bb ae 0e 67 bd
       -0.05819027 0.548741 -0.004994357 -0.056410484
0000a0 d5 58 97 bd b2 e5 7d bd 56 05 60 bd 84 a5 da be
       -0.0738999 -0.061986633 -0.05469259 -0.42704403
0000b0 5f 3b 18 bd 17 ca 3a bd f3 ec 9c bd 2f 41 50 bd
       -0.037165996 -0.045602884 -0.07662382 -0.050843414
0000c0 ce a1 d5 bb d5 39 93 bd 97 78 97 bd 37 f3 28 bf
       -0.0065195328 -0.07188765 -0.073960476 -0.65996116
0000d0 48 fd 93 ba 62 62 6a bd 62 55 85 bd 12 2e 80 bd
       -0.0011290694 -0.05722273 -0.06510426 -0.06258787
0000e0 ef 5e 4c bd d0 38 d6 be aa 60 23 bc 1b c3 b5 bc
       -0.049895223 -0.4184022 -0.009971777 -0.02218776
0000f0 ec d1 89 bc 15 76 80 bd 1f e8 84 bd 87 8d 10 bd
       -0.016823731 -0.06272522 -0.06489586 -0.03529122
000100 55 cc 78 bd 80 e9 86 bd 9b d5 af bb f0 1e 6f bd
       -0.06074174 -0.06587505 -0.00536604 -0.058379114
000110 55 ad 00 bc 11 b6 6b bd 96 6d 4a 3f 3e d3 65 3f
       -0.007853826 -0.05754668 0.79073465 0.89775455
000120 84 f1 4d bf b0 99 8b bd 91 71 30 bd 44 c6 60 bd
       -0.8044665 -0.06816423 -0.043077055 -0.05487658
000130 3a 0d 82 3f 8f 46 5e bd fb fa d1 bb 1f 01 60 3f
       1.0160286 -0.05426651 -0.006408093 0.8750171
000140 4d 0f 61 bc f3 9a 4f bc 2f 94 68 bb 0d 71 4f be
       -0.013736558 -0.01267122 -0.0035488715 -0.20257969
000150 ca 8d 8a bd 54 21 63 bf 4f 80 5c bd 5d d7 9d be
       -0.06765325 -0.8872273 -0.053833302 -0.30828372
000160 73 d4 a3 bd 85 76 2e bd 29 5b c5 bd f9 2d 7a bd
       -0.07999506 -0.042593498 -0.09636528 -0.061079
000170 df cc a2 bc b3 07 86 3f a8 e8 86 bd d4 7b 5d bc
       -0.01987308 1.04711 -0.065873444 -0.013518292
000180 3a 5d 81 bd 8b 92 51 bf 48 96 55 bd 0b e6 61 bd
       -0.0631661 -0.8186423 -0.052145272 -0.055151027
000190 54 de 84 bd 4b 01 3e bd e8 1e cf bc 87 02 8b bd
       -0.06487718 -0.04638795 -0.025283292 -0.067875914
0001a0 9b 43 24 bd 86 75 67 bd 47 52 29 bf 33 57 57 3f
       -0.040103536 -0.056508563 -0.6614117 0.8411743
0001b0 80 a2 4b bd 8e 1d 97 bd d9 87 88 bd 8a 5a 64 bd
       -0.04971552 -0.07378684 -0.06666536 -0.055750407
0001c0 82 45 7c bd 88 18 40 bd 27 bb 10 bc 06 86 72 bd
       -0.061589725 -0.046898395 -0.008833683 -0.059209846
0001d0 68 e3 6b bd 03 b8 bd 3e b7 6d 0a bb 87 05 4c bd
       -0.05758992 0.37054452 -0.0021122524 -0.04980996
0001e0 6c 1d 67 bd dc 5b 9c bd 09 c1 91 bc 75 22 4c bd
       -0.056424543 -0.07634708 -0.017792242 -0.04983755
0001f0 28 7c 2b bf 5f 1e 4f 3e 42 71 29 3e 5d 9f 86 bd
       -0.6698632 0.2022643 0.1654711 -0.06573365

mu.weight f4 [12, 128]
000000 de f4 fc 3b 92 b0 88 bd d9 34 cb bd f2 b1 f3 3d
       0.00771962 -0.06674303 -0.09922189 0.11899175
000010 0e 54 8b bd c7 81 76 bd 87 24 0a bb da ab b6 bd
       -0.068031415 -0.06018236 -0.00210789 -0.08919497
000020 83 c5 95 bd 1a db db 3d 4f ce 44 3c 9c ec 0c 3c
       -0.07313063 0.1073515 0.012012078 0.008601334
000030 45 b1 6f 3b e5 d9 02 3e 2c 7c e3 3c d3 20 8a 3d
       0.0036574167 0.12778433 0.02776917 0.06744542
000040 ad 55 4f bd 07 7a 4a be a9 f2 69 be 12 f0 f0 bd
       -0.050618816 -0.19773112 -0.22846474 -0.1176454
000050 4d b0 1a 3c 93 d8 bb ba 7a 87 d0 3d df fe be 3d
       0.009441447 -0.0014331512 0.1018209 0.093259566
000060 e5 18 98 3d 7e 47 95 bd 73 e0 27 be 15 a7 ae 3d
       0.07426623 -0.07289027 -0.16394214 0.08527962
000070 30 76 41 be ac 78 38 bc 66 6b 07 3e b2 7d 7d 3d
       -0.18892741 -0.011259239 0.13224563 0.06188745
000080 48 83 49 3b b2 68 e8 bc dc b1 15 3d 0e f0 82 bd
       0.0030748416 -0.028370235 0.036546573 -0.06393443
000090 75 76 49 3d c9 5f b1 bd 74 3e cf 3d f0 3a 9c bd
       0.049185235 -0.08660848 0.10119334 -0.07628429
0000a0 e3 ef 5c 3c 8d 19 12 3d 79 7a 32 3d e2 f6 80 bc
       0.013484928 0.0356689 0.04357383 -0.015742723
0000b0 da 94 20 bd 22 d2 9c 3d 14 9b 55 be c1 d0 ee 3d
       -0.039204456 0.07657267 -0.20859939 0.116609104
0000c0 19 65 cc bd 4a 9a 07 be 25 9d b4 bd a0 f5 c8 bc
       -0.0998022 -0.1324245 -0.088190354 -0.024531186
0000d0 c8 aa 3b 3e 9c 8d 48 3d cd 99 46 be f3 a6 1b 3e
       0.18326867 0.048963174 -0.19394608 0.15200405
0000e0 05 b6 0e 3c 98 bb ef bb c0 c2 9d 3b eb 73 18 bb
       0.008710389 -0.007316064 0.004814476 -0.0023262452
0000f0 a8 9c ff 3c c3 25 c5 bd cf 53 80 3d 25 0d 7e 3c
       0.03120263 -0.09626343 0.06265985 0.015506064
000100 13 fd 47 3b 96 75 b3 3e c8 f8 0d bc 51 2b a0 3b
       0.0030515834 0.35050648 -0.008665271 0.004887976
000110 2b 30 26 bc 3e 9d a4 3d b4 6a 8f 3d e6 50 9d bb
       -0.01014332 0.08037804 0.07002774 -0.0048009036
000120 ee 6f b7 bd 98 91 92 be 30 bf cf 3a a6 5a a3 bd
       -0.08956896 -0.28626704 0.0015849825 -0.07976274
000130 99 14 7d 3d d0 9a e4 bb 80 41 4a bd 0a 25 f8 3d
       0.06178722 -0.006976463 -0.049378872 0.1211644
000140 f8 42 97 bd 2f 12 a1 3d a7 d9 33 be 5d 70 d4 3d
       -0.0738582 0.07864796 -0.17563497 0.10372994
000150 08 c7 94 39 4f 28 5d 3d 4e eb 12 bc 4a 19 03 3e
       0.0002837705 0.05399352 -0.008967234 0.12802616
000160 b5 5d 2d bd 0c 94 12 3e e3 25 56 3d 9a b8 dd bd
       -0.042325694 0.14314288 0.052282225 -0.108262256
000170 70 a1 f2 3b c6 a7 f1 bd 90 7e 45 3d be 22 1e ba
       0.0074044988 -0.11799578 0.048216403 -0.00060323987
000180 dc cc 18 bd 41 32 af bd 06 01 9c bc a2 be 33 3e
       -0.037304744 -0.08554507 -0.019043457 0.1755319
000190 e5 77 f3 3d 0f 75 23 3e 8c 79 1b be 16 b1 9c b9
       0.118881024 0.15962623 -0.15183085 -0.00029886578
0001a0 50 e0 bb bd 70 d9 7c 3c ee fe 07 bd 4f 73 2b 3e
       -0.091736436 0.0154327005 -0.033202104 0.16743205
0001b0 32 25 a4 3d 0a 9b e5 3d c2 09 a6 3d 26 9c a6 bc
       0.08014907 0.11211212 0.0810733 -0.02033813
0001c0 49 c8 ca bc 60 16 ec bc 64 6a 9b 3d c9 d5 16 3e
       -0.024753707 -0.028819263 0.07588652 0.1472999
0001d0 d4 a3 ce bd 22 01 78 3c d0 48 1a be 97 b9 e5 3c
       -0.100898415 0.015136989 -0.15066838 0.028042598
0001e0 42 6b 2c bc 54 c4 87 3d d4 98 27 3e 8c 2d 8c bc
       -0.010523619 0.066292435 0.16366893 -0.017111562
0001f0 d7 bb 12 bb 70 d9 db bb d5 4c 21 3b 09 7a c8 bc
       -0.0022389793 -0.00670927 0.0024612446 -0.024472253
000200 e5 e5 4a 3b 0b d6 a4 3d b9 ad 51 3d 8a eb b8 3c
       0.0030959782 0.08048638 0.051191065 0.022573251
000210 af 41 1f 3d 4b a9 99 3b 1d d5 60 3e 12 c3 55 be
       0.038881 0.0046893707 0.21956296 -0.20875195
000220 6c 62 96 3d c6 58 b1 bc 41 c4 24 3d 17 2e 46 bd
       0.07342991 -0.021648776 0.040226225 -0.0483838
000230 11 f4 c7 3d 97 aa 40 3e 2a d3 5f 3c 18 f4 47 3d
       0.09763349 0.18815075 0.013661185 0.04881677
000240 2b a7 ed 3d 0b 55 ae 3c c7 3f cd 3d 1b e5 53 37
       0.116041504 0.021280786 0.1002193 1.2629923e-05
000250 a5 bc dd bc 54 24 50 3c d3 1c e5 bc e5 08 2c 3e
       -0.027067492 0.012703974 -0.027967846 0.16800268
000260 8b 93 0d bd 71 ed 10 3d c2 8f 42 3e 44 f5 96 bd
       -0.034564536 0.03538269 0.19000152 -0.073709995
000270 8d 99 29 3e ce 36 d0 bc b5 f1 99 bd 4e 06 b5 3d
       0.16562481 -0.025416758 -0.07516805 0.08839093
000280 86 5c f7 bb 6c bb ae 3d 7d 28 c9 3d ba 59 fc 3c
       -0.0075488715 0.08531842 0.09822176 0.030804504
000290 8e 84 b4 bd 66 c0 9d 3d c3 20 2e bd 46 77 05 be
       -0.08814345 0.07702713 -0.042511713 -0.1303378
0002a0 b3 b9 0e 3d 04 62 e2 3b d0 c1 22 3e 8f ef 92 3b
       0.034845065 0.006908657 0.15894246 0.004484124
0002b0 c3 54 44 bc bb 01 3a be 84 2b b4 bd 2f bc fd 3d
       -0.011983099 -0.18164723 -0.087973624 0.12389409
0002c0 85 7f 02 bd 22 c0 c6 bd 89 29 69 3e 93 df c8 3d
       -0.031859893 -0.09704615 0.2276975 0.098082684
0002d0 d3 6c 7b 3c c2 d7 33 3d b9 c8 5d be 6e 3e fb bd
       0.01534577 0.043906935 -0.21658601 -0.12267767
0002e0 01 f8 00 3c 40 cd 90 bb 9b 35 a8 bd 53 73 6d 3c
       0.007871629 -0.004418999 -0.082133494 0.0144928275
0002f0 3e 35 ff bc 37 5e 1c be a2 c5 b7 3d 22 f7 16 bc
       -0.031153318 -0.15270315 0.08973242 -0.0092141945
000300 47 3e 4d 3b c4 be 2a 3e cf 1e 3d bc 27 d1 be ba
       0.0031317638 0.16674334 -0.01154299 -0.0014558182
000310 c1 21 a9 bc b2 b7 3e bd 20 d2 1c 3e e7 7e 17 3d
       -0.020645978 -0.046561904 0.15314531 0.036986258
000320 bb 04 5e 3d 9c 53 5b be 4e a4 40 bb 76 39 84 be
       0.05420373 -0.21418613 -0.0029394808 -0.2582509
000330 76 89 07 3e 08 b2 e8 bb 5f 89 27 bc 72 1c e7 bd
       0.13236031 -0.007101301 -0.010225623 -0.112847224
000340 1a 24 60 bd e6 a8 84 3d bf 1c e0 3d e0 31 bf 3c
       -0.05472193 0.06477527 0.10942983 0.023339212
000350 73 de 56 3c 86 86 2e 3e b2 08 86 bd eb 34 68 3c
       0.013114559 0.17043504 -0.06544627 0.014172773
000360 d7 f2 09 be cf 8a 33 bd 03 18 bd bd 28 59 5d be
       -0.13471542 -0.04383355 -0.092330955 -0.21616042
000370 e9 87 61 bc f7 9b d7 3d c4 a2 b3 3d 32 7d 41 bc
       -0.013765314 0.10527795 0.087712795 -0.011809634
000380 e3 8e ee bd a5 f4 1b be 13 ee 66 3d 5f 37 87 bb
       -0.11648347 -0.15230043 0.05637939 -0.004126474
000390 ed 90 30 bc ba ca 62 bd dd 8c ac 3d 1c dc 0b ba
       -0.0107767405 -0.055369116 0.08425305 -0.0005335228
0003a0 f0 8d aa bc c4 e1 0c 3e 6a 68 0b 3e 09 a0 fc be
       -0.020819634 0.13757998 0.1361405 -0.49340847
0003b0 02 0d 83 be f7 cb 43 bd 68 d1 38 bd b8 1f 2f 3e
       -0.25595862 -0.047801938 -0.04512158 0.17101943
0003c0 70 38 45 bd 0d 65 df 3c 3f e8 83 be 9f 73 16 3e
       -0.048149526 0.027269864 -0.25763127 0.14692543
0003d0 f4 5a c4 3d 69 3c fe bc db 18 7b 3d 48 13 b6 bd
       0.095876604 -0.031034665 0.061303 -0.08890396
0003e0 f5 55 81 be 57 be a3 bd 64 af 41 be ee 7a 3a 3d
       -0.25260893 -0.07995289 -0.18914562 0.04552739
0003f0 06 cd 2a 3b 0d 1c 73 bd d4 08 7c bb f9 f6 ee 3d
       0.0026062145 -0.059352923 -0.003845741 0.116682
