stats/test/iter4999.pt (torch, 183486 bytes, 12 tensors)

log_std f4 [12]
0.0 0.0 0.0 0.0 0.0 0.0 0.0 0.0
0.0 0.0 0.0 0.0
00000000: 0000 0000 0000 0000 0000 0000 0000 0000
00000010: 0000 0000 0000 0000 0000 0000 0000 0000
00000020: 0000 0000 0000 0000 0000 0000 0000 0000

p_fcs.0.weight f4 [128, 39]
0.01897288 0.022221599 -1.0346425 0.13615204 0.7831393 0.19018212 -0.012120222 -0.057409003
-0.44177502 0.10307532 0.037456997 0.0054122326 -0.0037724115 -0.00063703774 0.06111051 0.01615826
-0.01019809 0.062857434 0.46585318 0.19007505 0.010227347 0.024849469 0.25872123 0.051287476
0.015102518 -0.021414485 -0.040502753 -0.010036879 0.025043834 -0.037543867 -0.0073059467 0.018109648
0.016229669 -0.019925674 -0.022491354 -0.2249023 0.029943919 0.3814229 0.032844037 0.044381954
0.03973609 -0.75172883 -0.051165704 -0.074268855 -0.30371368 0.1047846 0.024875365 -0.36597493
0.0490706 -0.047347367 -0.004405143 -0.004158831 0.020739945 -0.34325024 0.07277117 -0.012920394
0.07883633 0.25019544 -0.28557485 0.00987093 -0.24531803 -0.08020586 -0.018216351 0.026473332
0.006745763 -0.009810733 0.033506498 0.018584287 0.00022375036 0.022097541 -0.013162144 -0.009509231
0.0071732844 0.0060687107 -0.06592513 -0.08743295 0.25574324 0.050591152 -0.021223368 -0.0390093
-0.4470964 -0.070889644 0.109010965 0.18081182 -0.11133348 0.051335298 0.009672209 -0.12648559
0.039869063 -0.35495913 -0.06278927 0.042951927 -0.08084647 -0.14020549 0.01645105 -0.11937632
0.091155425 -0.054008245 -0.13076977 -0.10186718 0.19620562 0.11274786 0.033310976 0.005875737
-0.035312258 -0.0756327 -0.046716098 -0.10676547 -0.050483555 0.0510114 0.05522866 -0.06871701
-0.08095469 0.16750264 0.05574873 -0.06633007 -0.13766465 0.00087179564 0.006535725 0.41387257
-0.5149525 0.20628296 -0.02670979 -0.10366703 -0.004220064 0.22038844 0.026642263 -0.029802036
-0.33662537 0.01160766 -0.03715634 0.050722197 -0.044003796 -0.0642131 -0.31197038 -0.14977796
-0.42242986 0.06727106 0.036546048 0.23597574 -0.013225047 -0.019444749 0.019657567 0.06059137
0.014550018 0.01739328 -0.04860285 -0.012487729 0.005446381 -0.0008204044 0.012577175 0.028090224
0.19005963 -0.3221125 0.06720235 -0.37431535 -0.10121384 -0.054262552 0.43302456 -0.16328354
0.78514844 -0.031594004 -0.111661345 -0.022133028 -0.3550368 0.010842996 0.039116297 0.4114107
-0.06754274 0.007731844 -0.079509415 -0.0052314103 0.052415047 -0.11526044 -0.24983917 -0.29498655
-0.019462125 0.09393421 0.4365061 -0.0037886435 0.03536163 -0.019481737 -0.02729421 -0.029021557
-0.028446585 -0.0063546863 0.026769795 0.0104657 -0.02244801 0.07952468 0.012907262 -0.16409667
0.09604842 0.30551878 -0.11693411 0.021552414 0.028344901 -0.76614267 0.47113776 -0.64926183
-0.034521747 0.12006481 0.0317903 0.13580507 0.14395103 0.007884255 0.1445553 0.080888934
0.015933445 -0.11115781 0.11244025 0.020191882 0.40240464 0.28562954 -0.06576334 0.036415573
0.19324012 -0.4826901 -0.019738106 -0.00414255 0.0025540153 0.0057020006 0.018982938 0.0019579092
0.015583055 -0.04963712 -0.008442757 -0.013097102 0.014495346 -0.009163681 -0.1649943 0.02007927
0.1020055 0.0468513 0.0041357917 0.017830765 -0.23632647 0.13137853 -0.1064257 0.20174493
-0.054416914 0.09100187 -0.3774373 0.055479582 0.024739973 0.19744745 -0.04391394 0.01408292
0.378988 0.051360194 0.04715649 0.16656536 -0.050228104 0.13672638 0.08597763 -0.047988996
00000000: 036d 9b3c 120a b63c 2a6f 84bf 716b 0b3e
00000010: d17b 483f 1abf 423e e593 46bc b425 6bbd
00000020: 5630 e2be 2719 d33d 826c 193d 1959 b13b
00000030: 903a 77bb e1fe 26ba 044f 7a3d 545e 843c
00000040: e415 27bc 66bb 803d 4f84 ee3e 09a3 423e
00000050: 9a90 273c 1d91 cb3c 1c77 843e d112 523d
00000060: 8d70 773c 6e6d afbc 37e6 25bd b971 24bc
00000070: ba28 cd3c 99c7 19bd b966 efbb af5a 943c
00000080: 15f4 843c 2b3b a3bc ca3f b8bc ca4c 66be
00000090: f34c f53c dd49 c33e 7887 063d dac9 353d
000000a0: 4fc2 223d 4d71 40bf 2193 51bd 451a 98bd
000000b0: 5c80 9bbe 4f99 d63d 6cc7 cb3c 1161 bbbe
000000c0: 41fe 483d 50ef 41bd 0559 90bb ce46 88bb
000000d0: d1e6 a93c 7fbe afbe 0d09 953d 0fb0 53bc
000000e0: f174 a13d 9e19 803e de36 92be aeb9 213c
000000f0: a634 7bbe f842 a4bd 753a 95bc 9ade d83c
00000100: 900b dd3b 32bd 20bc 1c3e 093d 133e 983c
00000110: 889e 6a39 e705 b53c 09a6 57bc 9bcc 1bbc
00000120: df0d eb3b 09dc c63b c103 87bd 0c10 b3bd
00000130: c7f0 823e ab38 4f3d a1dc adbc 37c8 1fbd
00000140: d2e9 e4be 972e 91bd 2441 df3d bc26 393e
00000150: cf02 e4bd f644 523d 2f78 1e3c 7085 01be
00000160: be4d 233d 34bd b5be a997 80bd 5cee 2f3d
00000170: d692 a5bd 0792 0fbe 5ac4 863c 927b f4bd
00000180: b2af ba3d c037 5dbd 83e8 05be bd9f d0bd
00000190: 20ea 483e 5ae8 e63d 1771 083d 4189 c03b
000001a0: 96a3 10bd 51e5 9abd 6159 3fbd dba7 dabd
000001b0: d8c7 4ebd 54f1 503d 7337 623d 81bb 8cbd
000001c0: 93cb a5bd d085 2b3e c858 643d 0fd8 87bd
000001d0: f6f7 0cbe 3789 643a a329 d63b 1be7 d33e
000001e0: edd3 03bf d73b 533e 7dce dabc 614f d4bd
000001f0: 7648 8abb 82ad 613e e040 da3c 6623 f4bc
00000200: 295a acbe 0e2e 3e3c 3f31 18bd 14c2 4f3d
00000210: 533d 34bd 2882 83bd 95ba 9fbe 655f 19be
00000220: ba48 d8be 69c5 893d 4fb1 153d a0a3 713e
00000230: dead 58bc 984a 9fbc e808 a13c a82e 783d
00000240: 3363 6e3c 5a7c 8e3c c813 47bd 5599 4cbc
00000250: 8e77 b23b 6810 57ba 7f10 4e3c 781d e63c
00000260: fe9e 423e eeeb a4be 63a1 893d 43a6 bfbe
00000270: 3449 cfbd 6942 5ebd 65b5 dd3e cd33 27be
00000280: 7dff 483f b768 01bd b4ae e4bd 5350 b5bc
00000290: 62c7 b5be d2a6 313c 6938 203d 6ca4 d23e
000002a0: d953 8abd 695b fd3b d5d5 a2bd 406c abbb
000002b0: 29b1 563d aa0d ecbd d7d5 7fbe 7a08 97be
000002c0: 096f 9fbc 9460 c03d ba7d df3e e44a 78bb
000002d0: 5bd7 103d 2a98 9fbc 1b98 dfbc 9ebe edbc
000002e0: d008 e9bc f93a d0bb 544c db3c 5478 2b3c
000002f0: e4e4 b7bc d6dd a23d fb78 533c f508 28be
00000300: 09b5 c43d f56c 9c3e 277b efbd b08e b03c
00000310: 9133 e83c ed21 44bf f838 f13e 0636 26bf
00000320: ad66 0dbd 8ae4 f53d 8c36 023d 7c10 0b3e
00000330: e667 133e f62c 013c 4e06 143e 19a9 a53d
00000340: db86 823c b5a6 e3bd 1347 e63d 7269 a53c
00000350: fb07 ce3e 093e 923e eeae 86bd 7f28 153d
00000360: bde0 453e 2823 f7be cfb1 a1bc 3abe 87bb
00000370: 4461 273b d9d7 ba3b 1b82 9b3c 4450 003b
00000380: 1250 7f3c 4b50 4bbd 7d53 0abc 3a95 56bc
00000390: e37d 6d3c 4423 16bc 44f4 28be 487d a43c
000003a0: 42e8 d03d 26e7 3f3d 8985 873b d311 923c
000003b0: 91ff 71be 1888 063e b8f5 d9bd 3996 4e3e
000003c0: 45e4 5ebd 305f ba3d 763f c1be 8f3e 633d
000003d0: 7cab ca3c aa2f 4a3e 1bdf 33bd 0cbc 663c
000003e0: b70a c23e 115f 523d 2a27 413d 1c90 2a3e
000003f0: fcbb 4dbd 0002 0c3e 0a15 b03d 1c90 44bd

p_fcs.0.bias f4 [128]
0.022089763 0.061649717 -0.041929934 0.008060247 -0.07338448 0.014370577 8.436204e-05 -0.001868965
-0.023613816 -0.016684461 -0.01160272 0.04578703 0.016875606 -0.01885695 -0.011836293 -0.07561266
-0.05428196 0.043107186 0.038005825 -0.024263883 0.02563408 -0.0122701125 0.045533556 -0.0016697702
-0.061282948 -0.0175618 0.003339721 -0.054224268 0.0067056785 -0.01624322 0.024356201 -0.025085377
-0.026917566 0.017929778 0.044187024 -0.011262353 0.0064487117 0.036154184 0.013529799 0.064363316
-0.017511068 -0.012476867 -0.010439572 -0.0115598645 -0.037717696 -0.020422991 -0.021440867 0.008552312
0.0065973564 -0.012857433 -0.008635032 -0.008669578 -0.0003517381 -0.04179364 -0.1080663 -0.0010309799
0.016883759 0.018212143 0.018824136 -0.011732108 0.011408621 -0.04298527 0.021916447 0.033908058
-0.0464065 0.018814975 0.019491086 -0.08344322 0.048560165 -0.024980137 -0.0070740813 -0.022084685
-0.005212075 -0.01957479 0.025816882 -0.03821069 -0.018378057 -0.036046837 -0.027912145 0.01826037
0.0042791013 0.024280153 -0.0684815 0.00990073 -0.039446764 0.015087429 -0.015114735 -0.021372287
0.0142528005 0.037453044 0.013799865 0.020407762 -0.032464467 -0.024855614 -0.004312822 -0.024528947
-0.00500742 -0.055716153 0.035107505 0.0143674305 -0.029682096 0.025091127 -0.03447818 0.016160307
-0.014887259 0.02813911 0.02010387 -0.026919644 0.017600788 0.025777591 0.03353606 -0.013331322
0.025779765 0.016321182 0.023550121 -0.031148016 0.025356287 -0.02263798 -0.030461356 0.032292724
-0.03211837 0.05058513 -0.045869213 -0.0046107024 0.023425128 -0.068192475 -0.030107202 -0.03368579
00000000: 97f5 b43c 6a84 7c3d b9be 2bbd 200f 043c
00000010: 9a4a 96bd 9272 6b3c 86eb b038 0ff8 f4ba
00000020: c371 c1bc daad 88bc 5619 3ebc 2e8b 3b3d
00000030: b63e 8a3c e479 9abc 03ed 41bc cfda 9abd
00000040: c356 5ebd 2991 303d ffab 1b3d 0dc5 c6bc
00000050: 90fe d13c 9508 49bc 6581 3a3d 31dc daba
00000060: d403 7bbd c4dd 8fbc 38df 5a3b 441a 5ebd
00000070: 4fbb db3b 8010 85bc a886 c73c d97f cdbc
00000080: 3a82 dcbc 78e1 923c 74fd 343d bb85 38bc
00000090: b74f d33b 6916 143d 17ac 5d3c ead0 833d
000000a0: 5f73 8fbc c66b 4cbc bd0a 2bbc 9665 3dbc
000000b0: df7d 1abd 1e4e a7bc c2a4 afbc ff1e 0c3c
000000c0: a32e d83b fca7 52bc f379 0dbc d80a 0ebc
000000d0: 7d69 b8b9 cf2f 2bbd dd51 ddbd f221 87ba
000000e0: cf4f 8a3c a231 953c 1335 9a3c 0738 40bc
000000f0: 3aeb 3a3c 5311 30bd 1f8a b33c 2de3 0a3d
00000100: be14 3ebd dd21 9a3c c5ab 9f3c 47e4 aabd
00000110: 06e7 463d 25a3 ccbc b2cd e7bb f1ea b4bc
00000120: 0eca aabb 4f5b a0bc ed7d d33c d082 1cbd
00000130: 948d 96bc d9a5 13bd 03a8 e4bc c596 953c
00000140: b437 8c3b 2ce7 c63c 0740 8cbd ac36 223c
00000150: ee92 21bd 4431 773c cba3 77bc ef14 afbc
00000160: 9484 693c 5d68 193d d418 623c 2e2e a73c
00000170: 76f9 04bd 009e cbbc 9352 8dbb eef0 c8bc
00000180: 4915 a4bb 9f36 64bd e3cc 0f3d 5f65 6b3c
00000190: de27 f3bc e88b cd3c fe38 0dbd 9f62 843c
000001a0: b1e9 73bc fe83 e63c dfb0 a43c 9686 dcbc
000001b0: 872f 903c 872b d33c 1c5d 093d 9e6b 5abc
000001c0: 1630 d33c 00b4 853c 2fec c03c 202a ffbc
000001d0: fdb7 cf3c 4973 b9bc 188a f9bc 6045 043d
000001e0: 8d8e 03bd 5a32 4f3d 5be1 3bbd 6015 97bb
000001f0: 0ee6 bf3c 7fa8 8bbd 61a3 f6bc 1cfa 09bd

p_fcs.1.weight f4 [128, 128]
-0.012405103 -0.006261861 -0.016647436 -0.004903647 -0.005817104 -0.0048688203 -0.019326344 0.0154369315
0.006577259 -0.009479111 0.001991471 -0.007604395 -0.0061254906 -0.0045855423 0.002337157 -0.0032368558
-0.0043698065 0.008671631 -0.0019087488 0.0023074916 -0.019056782 -0.003158283 -0.0041148313 -0.003079925
0.009945137 -0.023635283 0.0006541434 -0.0019769305 -0.016435254 -0.0142821 -0.0011932134 0.017479736
-0.014777599 0.0071969004 4.8569254e-05 0.005429756 -0.011443126 -0.00090548187 0.008909499 -0.0096964175
-0.0016251963 -0.009182417 0.00019268155 0.008211931 -0.010198949 0.0024770026 -0.0002957745 -0.019683462
-0.006785467 -0.019653413 -0.0037613364 -0.0009109932 -0.022242043 -0.010133609 -0.003820735 -0.0046425657
-0.0032914993 -0.023026438 -0.00862109 -0.008315678 -0.007885633 0.007272595 0.0074888016 -0.0099445265
-0.00863075 -0.0057950965 -0.031681728 -0.005824998 -0.0045192936 -0.010669064 -0.01429186 0.013979565
-0.0046610106 -0.003864469 -0.010813499 0.0034688571 -0.00022956356 -0.017512793 -0.012534869 -0.011376056
-0.016035115 -0.0014301648 0.004066611 -0.008986504 0.010543351 -0.0056152362 -0.0036494234 0.007638439
-0.005486063 -0.022956355 -0.0032056044 -0.00531167 -0.0069760154 -0.0038908275 -0.0025336314 0.0032446522
-0.008668221 0.012428894 -0.01284721 -0.015169796 -0.0103993835 -0.014670796 -0.010209105 -0.00026747317
-0.004149746 -0.0026680492 -0.004916807 -0.014338639 0.0015815801 -0.004023391 -0.009283199 -0.003913353
-0.015266443 -0.024583528 -0.01844883 -0.0055649346 -0.0152135575 -0.02365364 -0.008537667 -0.0032411078
-0.0069060405 -0.0045851767 -0.011340707 -0.013879372 -0.0066662007 -0.011612024 0.010794683 0.0032808373
-0.009687462 0.060801513 -0.08436213 -0.010913175 0.01678877 0.043874007 0.078905515 -0.055643044
-0.11973782 0.0076891463 0.030575737 0.004336269 -0.005994866 0.020398675 -0.060393292 -0.08469226
-0.055211343 -0.10260972 0.030552506 -0.049919024 -0.078649305 -0.26716366 -0.10436926 -0.00703933
-0.07745795 -0.08288825 -0.06927144 0.009549187 -0.12834977 0.011941279 -0.079101905 0.026193146
0.016368933 0.0059229624 0.076923445 0.14959429 -0.11254759 0.0367065 0.03552007 0.050516795
0.021573255 0.19384469 -0.015112292 -0.03943796 -0.011491579 -0.06711427 -0.0662524 0.01928217
0.052806843 0.09833783 -0.079027794 -0.05395473 -0.04533724 0.03708447 -0.010090609 -0.04347054
0.038146395 -0.25216165 -0.037364505 0.03043894 -0.055838645 -0.08667455 0.069194615 0.0030640408
0.10156066 0.024435928 -0.131147 -0.22091144 -0.034126 -0.019906785 0.026944796 -0.0061610434
-0.021169426 -0.18909107 0.07268469 0.06592728 -0.031529322 0.10067391 0.113697186 0.1107203
-0.03785021 -0.12485901 0.14845225 -0.031421196 0.0044779344 -0.00029851057 0.024010597 -0.11757687
-0.07678078 0.014564774 0.01116581 -0.23784529 0.08104032 0.04995402 0.078392185 -0.01535895
-0.08274839 -0.21694271 0.07205964 0.026975516 -0.16173938 -0.034027442 -0.018437332 0.03812063
-0.06530488 -0.1151075 0.088644765 -0.02659496 0.04564787 -0.045384966 -0.03283916 0.045863777
-0.09733667 -0.03641615 0.06663811 0.026951056 -0.0022466704 0.06543091 0.085310556 -0.0753509
-0.016263437 -0.024936656 0.011783269 0.014789175 -0.07891858 -0.010795693 -0.12619242 -0.028232591
00000000: c63e 4bbc 4c30 cdbb 3460 88bc c6ae a0bb
00000010: 689d bebb a08a 9fbb 4852 9ebc 2feb 7c3c
00000020: 0c86 d73b 464e 1bbc 5783 023b 4a2e f9bb
00000030: 57b8 c8bb 5142 96bb fd2a 193b 6e21 54bb
00000040: 9830 8fbb 7513 0e3c fb2e faba 4939 173b
00000050: f81c 9cbc 32fb 4ebb b5d5 86bb 91d8 49bb
00000060: eef0 223c c89e c1bc d27a 2b3a 648f 01bb
00000070: 3aa3 86bc 78ff 69bc 9965 9cba aa31 8f3c
00000080: be1d 72bc fad3 eb3b d7b6 4b38 18ec b13b
00000090: f37b 3bbc dc5d 6dba 26f9 113c b9dd 1ebc
000000a0: 8a04 d5ba d971 16bc 8f0a 4a39 568b 063c
000000b0: 7e19 27bc 3555 223b 2e12 9bb9 363f a1bc
000000c0: 9f58 debb 3200 a1bc c180 76bb b8cf 6eba
000000d0: f234 b6bc 7007 26bc 4c65 7abb aa20 98bb
000000e0: 32b6 57bb f1a1 bcbc 793f 0dbc 7b3e 08bc
000000f0: be32 01bc f34e ee3b 9f64 f53b 5eee 22bc
00000100: fd67 0dbc cbe4 bdbb b3c4 01bd a0df bebb
00000110: 9516 94bb 4ccd 2ebc 6828 6abc 8c0a 653c
00000120: 64bb 98bb 0843 7dbb 1a2b 31bc c455 633b
00000130: 00b7 70b9 fd76 8fbc 0d5f 4dbc a362 3abc
00000140: 135c 83bc 5e74 bbba 3541 853b 213c 13bc
00000150: 05be 2c3c 0400 b8bb 2a2b 6fbb df4b fa3b
00000160: 6fc4 b3bb f70e bcbc 1e15 52bb 840d aebb
00000170: 0f97 e4bb 41fd 7ebb 480b 26bb 3ba4 543b
00000180: 2705 0ebc 8fa2 4b3c 1b7d 52bc bc8a 78bc
00000190: 2d62 2abc c75d 70bc 1744 27bc a43b 8cb9
000001a0: 98fa 87bb 70da 2ebb 2b1d a1bb 9cec 6abc
000001b0: 064d cf3a a6d6 83bb 8f18 18bc 963b 80bb
000001c0: 1a20 7abc 6563 c9bc 0022 97bc 0e5a b6bb
000001d0: 4942 79bc 47c5 c1bc 92e1 0bbc c468 54bb
000001e0: 114c e2bb 403f 96bb 5fce 39bc 4e66 63bc
000001f0: 2570 dabb 5c40 3ebc 2fdc 303c 5103 573b
00000200: 29b8 1ebc 020b 793d 0dc6 acbd 2ccd 32bc
00000210: 9a88 893c 3bb5 333d 3799 a13d f6e9 63bd
00000220: 1a39 f5bd 3cf5 fb3b f879 fa3c 4317 8e3b
00000230: 9570 c4bb 1f1b a73c f55e 77bd 2373 adbd
00000240: 4a25 62bd 0b25 d2bd 4049 fa3c e477 4cbd
00000250: e312 a1bd adc9 88be 8dbf d5bd 2eaa e6bb
00000260: 46a2 9ebd 51c1 a9bd 2fde 8dbd 3174 1c3c
00000270: 1f6e 03be 5ba5 433c 2e00 a2bd 0293 d63c
00000280: 2418 863c 6915 c23b 0a8a 9d3d 3f2f 193e
00000290: 5a7f e6bd 8e59 163d 7e7d 113d b3ea 4e3d
000002a0: 65ba b03c 397f 463e 8c99 77bc b389 21bd
000002b0: 2d47 3cbc 3573 89bd 57af 87bd a4f5 9d3c
000002c0: fd4b 583d 5865 c93d 53d9 a1bd a3ff 5cbd
000002d0: 8bb3 39bd e3e5 173d 1553 25bc 2a0e 32bd
000002e0: 653f 1c3d 551b 81be 860b 19bd 155b f93c
000002f0: 10b7 64bd 6d82 b1bd e8b5 8d3d 13ce 483b
00000300: 09ff cf3d db2d c83c 664b 06be 9c36 62be
00000310: b4c7 0bbd 8e13 a3bc 55bb dc3c 94e2 c9bb
00000320: 816b adbc 17a1 41be b6db 943d e204 873d
00000330: e424 01bd 1f2e ce3d 12da e83d 53c1 e23d
00000340: d208 1bbd 15b6 ffbd de03 183e 83b3 00bd
00000350: a3bb 923b 6981 9cb9 dfb1 c43c 24cc f0bd
00000360: 3e3f 9dbd 17a1 6e3c cdf0 363c b78d 73be
00000370: 78f8 a53d 969c 4c3d 158c a03d 1ba4 7bbc
00000380: fd77 a9bd 3b26 5ebe 0194 933d c2fb dc3c
00000390: 029f 25be 5c60 0bbd e309 97bc 6124 1c3d
000003a0: 91be 85bd 7bbd ebbd 638b b53d acdd d9bc
000003b0: 43f9 3a3d 96e5 39bd 5b82 06bd a8db 3b3d
000003c0: 7358 c7bd 1a29 15bd 9079 883d 76c8 dc3c
000003d0: e03c 13bb a400 863d 4db7 ae3d 9351 9abd
000003e0: e63a 85bc f547 ccbc 9d0e 413c 4c4e 723c
000003f0: 11a0 a1bd 6be0 30bc 9638 01be 0948 e7bc

p_fcs.1.bias f4 [128]
-0.010616372 0.08632022 0.072825514 0.039393134 0.075832084 -0.0063468344 0.012852918 0.07190273
0.048311654 0.06493608 0.0779669 0.004171858 0.047593947 0.030767472 -0.015788654 0.014737642
0.028692868 0.021699999 0.0049179355 0.021941276 0.04261926 -0.01695767 -0.019581595 0.05345253
0.026404664 -0.0120588215 0.08116474 0.045289442 0.06398836 0.041640777 0.014564961 0.01703227
-0.008529961 0.03672956 -0.0053336835 0.022663375 0.08357701 -0.024716124 0.040919036 0.025626287
0.07211085 0.04119033 0.070304185 -0.00467154 0.028804617 0.013705159 0.0049777133 0.06981306
0.036864758 0.04909822 0.05471034 0.052558497 0.068570845 0.031315118 0.073644675 0.022352098
-0.013045374 -0.008261607 -0.036406975 -0.01764146 0.017545247 0.020540388 0.0820778 -0.02665311
-0.019224035 0.050585642 -0.014290184 -0.0073990175 0.11239799 0.0026190032 0.04907432 0.06707013
0.08726455 0.0010900268 -0.0198211 0.07594861 0.07668959 -0.01077363 0.0060492647 0.05809464
0.0023364637 0.009072057 0.052844416 0.038398374 -0.009970719 0.061857503 0.044154875 0.027492668
0.049351517 0.07533621 0.059019465 0.017906247 -0.011296535 0.05129285 0.053134803 -0.010875535
0.024338212 0.039028127 0.055481665 0.046419915 0.033091556 0.028414087 0.012529146 -0.009146645
0.021052234 0.040004812 0.02673503 0.031031491 0.057412777 0.015470924 0.048131086 0.003018617
0.019446317 -0.00037508475 0.049260344 0.04266685 0.03646178 -0.028737448 0.029124038 0.0750899
-0.04068552 0.080624886 -0.0058582253 0.028771644 -0.019953039 0.056856822 -0.0102462685 0.04185464
00000000: 4bf0 2dbc a8c8 b03d 8b25 953d b25a 213d
00000010: da4d 9b3d 1bf9 cfbb 0c95 523c bd41 933d
00000020: 71e2 453d 35fd 843d 1cad 9f3d 15b4 883b
00000030: dff1 423d 110c fc3c 3557 81bc 2776 713c
00000040: 4e0d eb3c 32c4 b13c a226 a13b 31be b33c
00000050: 8891 2e3d d0ea 8abc 9569 a0bc 0af1 5a3d
00000060: 984e d83c 5d92 45bc b339 a63d 6c81 393d
00000070: 540c 833d 858f 2a3d e0a1 6e3c 4287 8b3c
00000080: 40c1 0bbc bc71 163d 2ec6 aebb 8ba8 b93c
00000090: 6c2a ab3d 7879 cabc b89a 273d 38ee d13c
000000a0: daae 933d 31b7 283d a4fb 8f3d b813 99bb
000000b0: a9f7 eb3c 9a8b 603c 161c a33b 26fa 8e3d
000000c0: 80ff 163d 371b 493d f317 603d 9447 573d
000000d0: df6e 8c3d 4844 003d 05d3 963d bf1b b73c
000000e0: 44bc 55bc b15b 07bc 7b1f 15bd d384 90bc
000000f0: 0dbb 8f3c 5144 a83c 6818 a83d 9f57 dabc
00000100: b97b 9dbc e432 4f3d 6021 6abc 7573 f2bb
00000110: eb30 e63d 95a3 2b3b 2702 493d 105c 893d
00000120: c2b7 b23d 3bdf 8e3a dc5f a2bc f28a 9b3d
00000130: 6f0f 9d3d e183 30bc e938 c63b a5f4 6d3d
00000140: 5b1f 193b f7a2 143c 6373 583d 9d47 1d3d
00000150: 3a5c 23bc 4b5e 7d3d bedb 343d 4e38 e13c
00000160: d124 4a3d df49 9a3d 65be 713d 1fb0 923c
00000170: 1a15 39bc 7418 523d e1a3 593d 4d2f 32bc
00000180: ee60 c73c f5db 1f3d be40 633d cf22 3e3d
00000190: 038b 073d a9c4 e83c 0c47 4d3c cfdb 15bc
000001a0: bc75 ac3c 16dc 233d 6c03 db3c c135 fe3c
000001b0: a929 6b3d c279 7d3c 1a25 453d fdd3 453b
000001c0: e24d 9f3c 06a7 c4b9 37c5 493d 6fc3 2e3d
000001d0: f358 153d cc6a ebbc 8995 ee3c bcc8 993d
000001e0: dca5 26bd a91e a53d 5bf6 bfbb 83b2 eb3c
000001f0: 8e74 a3bc b3e2 683d f7df 27bc c56f 2b3d

v_fcs.0.weight f4 [128, 39]
-0.21005766 -0.2114354 0.06877427 0.29985908 0.19900955 -0.18965694 -0.23025155 0.24734049
-0.023641279 -0.22892122 0.22933215 -0.28668427 -0.21643136 0.23775168 0.18528539 -0.23584881
0.2358884 0.049338933 -0.24091987 0.19314453 0.028455043 0.13829859 0.14636488 -0.014715428
0.025523067 0.017375598 -0.019863281 0.002911526 -0.028611366 -0.011065456 0.032991063 -0.009732879
-0.014544021 -0.0129381 0.0071261744 0.040909972 -0.18254554 0.024596408 -0.05351448 -0.09518401
-0.39478934 -1.0039084 0.045167785 -0.5195894 -1.6160781 -0.6002917 0.73941576 -0.024546962
-0.54499227 0.5909597 -0.5685564 -0.5777214 0.51785135 0.9354772 -0.34999582 0.7596762
0.5583231 -0.05647829 0.13053088 -0.124160856 0.29938394 0.13791981 -0.039816845 0.1634608
0.06132689 -0.046976116 0.08347124 0.04018714 -0.07607735 0.15564798 0.08026313 0.037887495
-0.21665971 -0.0961975 -0.267352 -1.2147828 -0.3349536 -0.3011202 -0.35320598 -0.38102216
0.23067015 0.32176784 0.39778572 -0.37824145 -0.35136062 0.39497265 0.3076557 -0.38281655
0.4137773 -0.3087871 -0.3759071 0.37880665 0.43047678 -0.3773766 0.40850577 0.037991636
-0.15992054 0.22912064 -0.10298214 0.033386417 0.25436014 0.116297714 -0.08932586 -0.026638495
0.012220958 -0.007328024 0.015069716 -0.13749696 0.06275677 0.0014399567 -0.024586823 -0.023098392
-0.046968706 -0.28671163 -0.47833732 -0.22976138 -0.366487 -0.29137224 -0.33544558 -0.46853024
0.45860767 1.1297517 -0.0066554626 -0.39985523 0.3163174 0.0831649 -0.29215822 0.2968882
-0.10735009 -0.29042748 0.27473012 0.1636859 -0.35627535 0.362873 0.038230337 0.08890885
0.10923188 -0.18943378 0.21077003 0.1439501 -0.0060124733 0.011509251 -0.008450908 -0.011169826
0.027835613 -0.0049871155 -0.035516042 -0.10523154 -0.06410978 -0.08449619 0.10600201 0.04694235
-0.5304439 -0.45145765 -0.05662073 0.30528706 -0.23331898 -0.27063704 -0.0325517 0.21123584
0.12336556 -0.24397193 -0.27549705 0.2785179 0.008072938 -0.2490495 0.26532242 0.07256386
-0.25618225 0.28273666 0.15667838 -0.2745381 0.2675341 0.13342865 0.037658002 0.17173141
-0.029093266 0.061417308 0.14121027 0.020449873 0.032057278 0.038973264 0.0036288775 0.015982328
0.032436006 -0.070417054 0.0070294566 -0.033641003 0.03728705 -0.017232955 -0.014900031 -0.057574913
-0.095799975 -0.062090747 -0.014102891 -0.25098383 -0.50725245 2.1230655 2.3943152 3.1375768
0.7230029 -0.1268656 0.63608277 0.22855626 0.17760167 0.78614265 1.9942433 -0.13665102
0.7883606 -1.3504536 -1.1014898 0.56271493 0.4110869 -0.23922367 0.074076325 0.34213862
0.25842592 -0.10761265 0.049982313 0.025795855 0.027242318 0.14263457 -0.010120455 -0.0548664
0.06660804 -0.009472751 -0.0006532366 0.030902626 0.0037680666 -0.003093697 0.5470856 -0.86938447
0.5447068 0.67333055 -0.17506549 -0.1947021 0.08187461 0.11725967 0.0535483 -0.08337941
-0.17493883 0.18086292 0.028686495 -0.19181672 0.15506823 -0.103359684 -0.17381068 0.16169369
0.15876101 -0.19766252 0.15980092 0.07615832 -0.043117493 0.08074725 0.02574114 0.123942465
00000000: 5b19 57be 8682 58be 86d9 8c3d 2187 993e
00000010: 29c9 4b3e 6e35 42be 10c7 6bbe d346 7d3e
00000020: 5bab c1bc 536a 6abe 0cd6 6a3e 48c8 92be
00000030: 2fa0 5dbe 2d75 733e 74bb 3d3e 5a82 71be
00000040: bb8c 713e 9f17 4a3d b3b3 76be aec7 453e
00000050: 8d1a e93c 259e 0d3e ade0 153e fb18 71bc
00000060: c015 d13c 4557 8e3c 52b8 a2bc 4dcf 3e3b
00000070: 6262 eabc e34b 35bc a321 073d a776 1fbc
00000080: 0c4a 6ebc 53fa 53bc af82 e93b 3791 273d
00000090: 38ed 3abe 687e c93c 0032 5bbd d6ef c2bd
000000a0: d421 cabe 1280 80bf db01 393d d003 05bf
000000b0: a6db cebf b8ac 19bf 5a4a 3d3f b616 c9bc
000000c0: 9d84 0bbf 2349 173f ea8c 11bf 8de5 13bf
000000d0: e891 043f 6f7b 6f3f a732 b3be 247a 423f
000000e0: 43ee 0e3f c855 67bd e3a9 053e 0c48 febd
000000f0: da48 993e da3a 0d3e fd16 23bd 4562 273e
00000100: e831 7b3d 076a 40bd f8f2 aa3d 459b 243d
00000110: 71ce 9bbd 2f62 1f3e ff60 a43d eb2f 1b3d
00000120: 0bdc 5dbe 3203 c5bd 5de2 88be 017e 9bbf
00000130: 0a7f abbe 6d2c 9abe 6ad7 b4be 5615 c3be
00000140: cc34 6c3e c1be a43e 92aa cb3e dda8 c1be
00000150: 8ae5 b3be db39 ca3e 0c85 9d3e 8800 c4be
00000160: 9eda d33e 5819 9ebe e576 c0be f2f2 c13e
00000170: 7467 dc3e 8137 c1be ab27 d13e 1e9d 1b3d
00000180: 36c2 23be 9a9e 6a3e 4de8 d2bd 32c0 083d
00000190: 7e3b 823e 7f2d ee3d 7af0 b6bd f938 dabc
000001a0: 6a3a 483c ec1f f0bb f8e6 763c 01cc 0cbe
000001b0: 9f86 803d eebc bc3a 4e6a c9bc d738 bdbc
000001c0: 4262 40bd decb 92be a1e8 f4be 9146 6bbe
000001d0: 2fa4 bbbe be2e 95be 86bf abbe 32e3 efbe
000001e0: a0ce ea3e b49b 903f 1116 dabb d3b9 ccbe
000001f0: 5bf4 a13e 5c52 aa3d c395 95be bb01 983e
00000200: 5dda dbbd e9b2 94be 6da9 8c3e 479d 273e
00000210: b969 b6be 7dca b93e 6a97 1c3d d815 b63d
00000220: f7b4 df3d eefa 41be 19d4 573e a867 133e
00000230: 4804 c5bb 4c91 3c3c ad75 0abc a501 37bc
00000240: 8307 e43c f56a a3bb 4579 11bd a283 d7bd
00000250: fd4b 83bd 570c adbd 9517 d93d 9f46 403d
00000260: 2ccb 07bf 7525 e7be 23eb 67bd 964e 9c3e
00000270: 2ceb 6ebe f090 8abe ee54 05bd 354e 583e
00000280: 15a7 fc3d c7d3 79be f30d 8dbe e699 8e3e
00000290: 5b44 043c d506 7fbe 57d8 873e 5c9c 943d
000002a0: 522a 83be dcc2 903e 4c70 203e 4290 8cbe
000002b0: 3bfa 883e 85a1 083e 473f 1a3d 5cda 2f3e
000002c0: 0055 eebc b790 7b3d 6d99 103e 7e86 a73c
000002d0: 7e4e 033d 6ea2 1f3d 76d2 6d3b 5fed 823c
000002e0: 9edb 043d d136 90bd 5b57 e63b 26cb 09bd
000002f0: 4eba 183d 202c 8dbc 421f 74bc acd3 6bbd
00000300: c732 c4bd de52 7ebd d00f 67bc f480 80be
00000310: 4cdb 01bf 4ee0 0740 763c 1940 0fce 4840
00000320: b816 393f 0ee9 01be 52d6 223f a70a 6a3e
00000330: 36dd 353e a540 493f 5d43 ff3f 3fee 0bbe
00000340: 00d2 493f aadb acbf 9efd 8cbf 160e 103f
00000350: fb79 d23e 0df7 74be 54b5 973d cb2c af3e
00000360: 6750 843e 0564 dcbd 41ba 4c3d d451 d33c
00000370: 482b df3c cc0e 123e 44d0 25bc 97bb 60bd
00000380: cc69 883d 9933 1bbc f73d 2bba 8127 fd3c
00000390: abf1 763b 9fbf 4abb cd0d 0c3f fb8f 5ebf
000003a0: e871 0b3f 645f 2c3f 5e44 33be fd5f 47be
000003b0: e0ad a73d d625 f03d 7655 5b3d d3c2 aabd
000003c0: 2a23 33be 2134 393e f1ff ea3c 9a6b 44be
000003d0: 35ca 1e3e 3eae d3bd 6dfb 31be 0893 253e
000003e0: 3f92 223e 0b68 4abe daa2 233e e5f8 9b3d
000003f0: f89b 30bd d05e a53d 15df d23c 8cd5 fd3d

v_fcs.0.bias f4 [128]
-0.22748345 -0.43866414 -0.38609472 -0.32735652 -0.28504586 -0.5357287 -0.17379211 -0.51640874
-0.55687535 -0.46290505 -0.5085943 -0.46353936 -0.099558525 -0.38773224 -0.10410404 -0.15566954
-1.090777 -0.68525714 -0.36715415 -0.9416772 -0.32394555 0.5853491 -0.20266987 -0.27974117
-0.6096527 -0.6476006 -0.88740844 -0.7278286 -0.35781702 -0.38765225 -0.29004318 -0.79590434
-0.5870891 -1.0299706 -0.40167934 -0.79990983 -0.7922711 -0.66213506 0.54675573 -0.43943045
-0.36465037 -0.48896837 -0.19732195 -0.40761778 -0.4562968 -0.60004014 -0.49300963 -1.3077236
-0.18947363 -0.5495054 -0.4069162 -0.9997028 -0.7009515 -0.28632352 -0.28322408 -0.58709043
-0.3188548 -0.3492176 -0.32762986 -0.21599825 -0.67714363 -0.258652 -0.16041245 -0.6598861
-0.74472344 -0.35738236 -0.4323472 -0.7185558 -0.18471585 -0.32455978 -0.16812627 -0.43081522
-0.85862255 -0.59435827 -0.6616756 -0.62268466 -0.37921906 -0.52517086 -0.93219686 -0.3563341
-0.17892595 -0.22179626 0.24102573 -0.7372761 -0.028107313 -0.6844165 -0.8024125 -0.14172533
-0.15894572 -0.41286957 -0.37450758 -0.5100262 -0.76337725 -0.7699355 -0.29073372 -0.13844869
-0.23157887 -0.4465708 -0.7231544 -0.9273936 -0.3107447 -0.9457122 -0.47044358 -0.22263922
-0.51714575 -0.6257187 -0.5466364 -0.20231968 -0.7028672 -0.866423 -0.4075407 0.2878636
-0.5747145 -0.2512393 -0.2071441 -0.095008455 -0.23585193 -0.10582894 -0.33917794 -0.46712524
-0.60263664 -0.28820226 -0.7010014 -0.62761503 -0.47794154 -0.6664102 -0.3465563 -0.60096884
00000000: 6cf1 68be 9698 e0be 35ae c5be 469b a7be
00000010: 88f1 91be 8425 09bf 8ff6 31be 5d33 04bf
00000020: 628f 0ebf e401 edbe 3c33 02bf 0855 edbe
00000030: 57e5 cbbd d784 c6be 8034 d5bd d667 1fbe
00000040: 959e 8bbf 036d 2fbf a1fb bbbe c211 71bf
00000050: 31dc a5be 70d9 153f b188 4fbe 3c3a 8fbe
00000060: 3312 1cbf 27c9 25bf 332d 63bf fa52 3abf
00000070: cb33 b7be 5b7a c6be 8a80 94be 63c0 4bbf
00000080: 794b 16bf 14d6 83bf eaa8 cdbe e4c6 4cbf
00000090: 47d2 4abf af81 29bf 2ff8 0b3f 07fd e0be
000000a0: 74b3 babe 105a fabe c40e 4abe 47b3 d0be
000000b0: bc9f e9be 3b9c 19bf c26b fcbe 7d63 a7bf
000000c0: 6005 42be 63ac 0cbf 5257 d0be 86ec 7fbf
000000d0: 8f71 33bf ff98 92be bf02 91be 8f4b 16bf
000000e0: f040 a3be a6cc b2be 1abf a7be a52e 5dbe
000000f0: 4959 2dbf 096e 84be 2943 24be 4cee 28bf
00000100: 32a6 3ebf d2fa b6be 9d5c ddbe 46f3 37bf
00000110: 2726 3dbe b32c a6be 4b29 2cbe d093 dcbe
00000120: b0ce 5bbf dd27 18bf 9263 29bf 4368 1fbf
00000130: 0029 c2be 9971 06bf 74a4 6ebf 6c71 b6be
00000140: 5d38 37be 8f1e 63be 73cf 763e 20be 3cbf
00000150: 4f41 e6bc eb35 2fbf e86a 4dbf 7220 11be
00000160: abc2 22be a463 d3be 75bf bfbe 1491 02bf
00000170: b16c 43bf 7e1a 45bf 0ddb 94be 7ec5 0dbe
00000180: 0323 6dbe eea4 e4be a620 39bf ab69 6dbf
00000190: ee19 9fbe 321a 72bf fbdd f0be 89fb 63be
000001a0: aa63 04bf 1a2f 20bf 5df0 0bbf e42c 4fbe
000001b0: 1bef 33bf e6cd 5dbf 2da9 d0be dc62 933e
000001c0: 7d20 13bf 70a2 80be 951d 54be cb93 c2bd
000001d0: 2b83 71be d8bc d8bd bba8 adbe 0a2b efbe
000001e0: 6546 1abf 3f8f 93be d474 33bf 61ab 20bf
000001f0: c1b4 f4be dc99 2abf d46f b1be 18d9 19bf

v_fcs.1.weight f4 [128, 128]
-0.031433813 -0.04010878 -0.051978417 -0.050682656 -0.071664974 -0.058464054 -0.057264887 -0.058616
-0.066113986 -0.046592943 -0.044558346 -0.053192966 -0.065243654 -0.046650328 -0.05671162 0.00834935
-0.04869953 -0.044942662 -0.047908727 -0.047099568 -0.050576374 -0.05053717 -0.063693 -0.06333931
-0.048966754 -0.05945792 -0.049550693 -0.069825694 -0.046018954 -0.05656639 -0.0361042 -0.03299181
-0.039799012 -0.056698006 -0.041423976 -0.054272655 -0.043690134 -0.052298423 -0.055791907 -0.060058158
-0.04949982 -0.051412366 -0.061879113 -0.039516028 0.011915174 -0.036412787 -0.01178143 -0.011105089
-0.060558707 -0.05529739 -0.046570003 -0.052212566 -0.06377288 -0.06720855 -0.055924144 -0.056055933
-0.025609324 -0.049416408 -0.06170621 -0.04731191 -0.047971856 -0.06290569 -0.02060112 -0.048295494
-0.057414707 -0.05365859 -0.06416004 -0.03660693 -0.056767456 -0.055885505 -0.05175878 -0.044742275
-0.048516948 -0.051544234 -0.048120506 -0.046212967 -0.04426397 -0.05945984 -0.050561972 -0.023288332
-0.040012266 -0.06336234 -0.057459146 -0.0692593 -0.059456024 -0.04116545 -0.03917633 -0.058984477
-0.058801986 -0.046745427 -0.050127544 -0.055585146 -0.05445387 -0.009806885 -0.057367362 -0.055938777
-0.05928816 -0.053680908 -0.039398294 -0.06909283 -0.058075607 -0.05177549 -0.06440524 -0.020116378
-0.02453753 -0.0522229 -0.04811744 -0.049452916 -0.054044843 -0.070991434 -0.05882026 -0.044271167
-0.04697334 -0.05098268 -0.05187038 -0.068318225 -0.0451588 -0.05569822 -0.06523571 -0.009563312
-0.053480234 -0.05684038 0.0036682228 -0.03959561 -0.062223542 -0.04152279 -0.02508545 -0.05455883
-0.050346203 -0.077558935 -0.05588947 -0.06380714 -0.07009469 -0.056887787 -0.052320514 -0.06112515
-0.053464253 -0.048365217 -0.055148404 -0.06202567 -0.05429968 -0.07196147 -0.04485024 -0.048017677
-0.05437851 -0.061662458 -0.04991024 -0.057251066 -0.040149346 -0.05677596 -0.056350175 -0.06684478
-0.050204527 -0.06314589 -0.046000443 -0.06411389 -0.057755277 -0.05416117 -0.055740286 -0.0632964
-0.059852988 -0.059569634 -0.054989155 -0.050485402 -0.07603673 -0.05036436 -0.06151255 -0.05818146
-0.055101696 -0.048934117 -0.061604958 -0.0577456 -0.054261163 -0.07172007 -0.062632814 -0.05128955
-0.059241988 -0.051138047 -0.07623436 -0.04640159 -0.059294898 -0.045208357 -0.062336396 -0.05679181
-0.056948088 -0.081619784 -0.076062344 -0.05319624 -0.04000551 -0.05578075 -0.05444168 -0.055917177
-0.047405396 -0.04623549 -0.05071048 -0.05457733 -0.04809035 -0.05932036 -0.05803259 -0.0474341
-0.071749695 -0.055404544 -0.05620659 -0.064738825 -0.060033236 -0.04650966 -0.05573998 -0.053700667
-0.08003964 -0.05564572 -0.06189602 -0.06039423 -0.073981136 -0.06198073 -0.063312955 -0.07620851
-0.06700191 -0.06694871 -0.054600656 -0.07524168 -0.060891267 -0.051072545 -0.06126775 -0.06660002
-0.042295102 -0.048713744 -0.05564915 -0.040586308 -0.06174887 -0.059948348 -0.04901471 -0.058184974
-0.05620761 -0.07044097 -0.04547109 -0.05920544 -0.057380047 -0.06489599 -0.05308865 -0.066727735
-0.069410995 -0.06223842 -0.054023255 -0.06836298 -0.047381394 -0.0653643 -0.065176345 -0.046109606
-0.058330316 -0.06316724 -0.06236282 -0.074999645 -0.0700541 -0.06125008 -0.063537285 -0.051692784
00000000: bec0 00bd 1b49 24bd 52e7 54bd 9e98 4fbd
00000010: 16c5 92bd 0178 6fbd 968e 6abd 5517 70bd
00000020: c566 87bd 3ed8 3ebd d082 36bd dee0 59bd
00000030: 779e 85bd 6a14 3fbd 724a 68bd b6cb 083c
00000040: 2979 47bd cc15 38bd f13b 44bd 7aeb 40bd
00000050: 2c29 4fbd 1000 4fbd 7a71 82bd 0ab8 81bd
00000060: 5d91 48bd 268a 73bd abf5 4abd c600 8fbd
00000070: 5f7e 3cbd 29b2 67bd ffe1 13bd 6c22 07bd
00000080: 4a04 23bd 2b3c 68bd 30ac 29bd 014d 5ebd
00000090: 6df4 32bd df36 56bd 0e86 64bd 8bff 75bd
000000a0: 53c0 4abd c695 52bd f474 7dbd 8fdb 21bd
000000b0: dd37 433c 9325 15bd e606 41bc 1ff2 35bc
000000c0: 680c 78bd 847f 62bd 30c0 3ebd d8dc 55bd
000000d0: 5b9b 82bd a3a4 89bd b710 65bd e89a 65bd
000000e0: a5ca d1bc dc68 4abd a7bf 7cbd 22ca 41bd
000000f0: 237e 44bd b3d4 80bd aec3 a8bc 7fd1 45bd
00000100: af2b 6bbd 1cc9 5bbd 5766 83bd 26f1 15bd
00000110: fe84 68bd 33e8 64bd 0401 54bd ad43 37bd
00000120: b5b9 46bd 0c20 53bd 021a 45bd cf49 3dbd
00000130: 234e 35bd 298c 73bd 121a 4fbd 2cc7 bebc
00000140: e7e3 23bd 1dc4 81bd 485a 6bbd d2d7 8dbd
00000150: 2988 73bd 1a9d 28bd 5c77 20bd b599 71bd
00000160: 5ada 70bd 2278 3fbd 8a52 4dbd 40ad 63bd
00000170: 050b 5fbd 0fad 20bc 0afa 6abd 0f20 65bd
00000180: 24d8 72bd 83e0 5bbd 1b60 21bd 8b80 8dbd
00000190: b0e0 6dbd 8912 54bd e5e6 83bd 1acb a4bc
000001a0: ee02 c9bc aee7 55bd cb16 45bd 248f 4abd
000001b0: 205e 5dbd f563 91bd 83ed 70bd af55 35bd
000001c0: 1e67 40bd 37d3 50bd 0976 54bd 6dea 8bbd
000001d0: 6ff8 38bd d123 64bd 4d9a 85bd 70af 1cbc
000001e0: 170e 5bbd 75d1 68bd 9166 703b 022f 22bd
000001f0: 1dde 7ebd cd13 2abd 0080 cdbc 1479 5fbd
00000200: d237 4ebd 38d7 9ebd 5bec 64bd 51ad 82bd
00000210: ce8d 8fbd 2b03 69bd 094e 56bd 5e5e 7abd
00000220: 55fd 5abd 9b1a 46bd 4be3 61bd a10e 7ebd
00000230: 5769 5ebd 8960 93bd e3b4 37bd 2fae 44bd
00000240: 00bc 5ebd c691 7cbd ae6e 4cbd 1880 6abd
00000250: a473 24bd e98d 68bd 71cf 66bd ebe5 88bd
00000260: 43a3 4dbd a252 81bd f66a 3cbd 254e 83bd
00000270: cc90 6cbd 1ad8 5dbd ed4f 64bd 8ba1 81bd
00000280: 6828 75bd 4aff 73bd 4f3c 61bd c8c9 4ebd
00000290: 25b9 9bbd dc4a 4ebd 95f4 7bbd af4f 6ebd
000002a0: 51b2 61bd 246f 48bd 7b55 7cbd a686 6cbd
000002b0: f440 5ebd f9e1 92bd a245 80bd fe14 52bd
000002c0: baa7 72bd 2176 51bd c320 9cbd 980f 3ebd
000002d0: 35df 72bd 662c 39bd 7354 7fbd 879e 68bd
000002e0: 6642 69bd 4628 a7bd 93c6 9bbd 4de4 59bd
000002f0: d1dc 23bd 5b7a 64bd 3dfe 5ebd 6909 65bd
00000300: 292c 42bd 6d61 3dbd cbb5 4fbd 7a8c 5fbd
00000310: 63fa 44bd e8f9 72bd 95b3 6dbd 424a 42bd
00000320: 81f1 92bd e0ef 62bd e238 66bd ca95 84bd
00000330: 69e5 75bd ea80 3ebd 9b4f 64bd 3bf5 5bbd
00000340: d3eb a3bd c4ec 63bd ae86 7dbd f15f 77bd
00000350: 6c83 97bd 82df 7dbd 39aa 81bd 3513 9cbd
00000360: 4c38 89bd 681c 89bd f0a4 5fbd 4f18 9abd
00000370: 1f69 79bd 7231 51bd e4f3 7abd 9765 88bd
00000380: a13d 2dbd 1088 47bd 5df0 63bd d43d 26bd
00000390: 62ec 7cbd 668c 75bd a6c3 48bd 5e53 6ebd
000003a0: f339 66bd 5b43 90bd e53f 3abd 6781 72bd
000003b0: 5707 6bbd 30e8 84bd 7c73 59bd 8da8 88bd
000003c0: 5a27 8ebd b7ed 7ebd 7d47 5dbd e401 8cbd
000003d0: fe12 42bd b8dd 85bd 2d7b 85bd 6ddd 3cbd
000003e0: c5eb 6ebd d35d 81bd 2870 7fbd 6a99 99bd
000003f0: 8678 8fbd 5de1 7abd d61f 82bd d0bb 53bd

v_fcs.1.bias f4 [128]
-0.06682996 -0.05886301 -0.0070844605 0.6836975 -0.4213693 -0.15972723 -0.06862304 -0.054459702
-0.06706883 0.6809929 -0.04694869 -0.050516337 -0.051879518 -0.07683885 -0.019092135 -0.23951845
-0.9446816 -0.06972242 -0.073263176 -0.05494277 -0.050966423 -0.048468325 -0.071787454 -0.5594832
-0.05569582 -0.062294696 -0.049019836 -0.014199068 -0.06475532 -0.054769017 -0.04326513 -0.072850935
-0.007296305 -0.02726364 -0.06047678 -0.061698236 -0.05819027 0.59211767 -0.004994357 -0.056410484
-0.0738999 -0.061986633 -0.05469259 -0.066267036 -0.037165996 -0.045602884 -0.07662382 -0.050843414
-0.0065195328 -0.07188765 -0.073960476 -0.7331369 -0.0011290694 -0.05722273 -0.06510426 -0.06258787
-0.049895223 -0.57900065 -0.009971777 -0.02218776 -0.016823731 -0.06272522 -0.06489586 -0.03529122
-0.06074174 -0.06587505 -0.00536604 -0.058379114 -0.007853826 -0.05754668 0.94537395 1.0530379
-0.8133948 -0.06816423 -0.043077055 -0.05487658 0.14100824 -0.05426651 -0.21185817 0.6305396
-0.013736558 -0.01267122 -0.0035488715 -0.3288887 -0.06765325 -0.99394226 -0.053833302 -0.30828372
-0.07999506 -0.042593498 -0.09636528 -0.061079 -0.01987308 1.2042167 -0.065873444 -0.013518292
-0.0631661 -0.7936596 -0.052145272 -0.055151027 -0.06487718 -0.04638795 -0.025283292 -0.067875914
-0.040103536 -0.056508563 -0.69177514 0.9898598 -0.04971552 -0.07378684 -0.06666536 -0.055750407
-0.061589725 -0.046898395 -0.008833683 -0.059209846 -0.05758992 0.38134277 -0.0021122524 -0.04980996
-0.056424543 -0.07634708 -0.017792242 -0.04983755 0.11285729 -0.4450481 0.39912203 -0.06573365
00000000: 25de 88bd 571a 71bd c324 e8bb cd06 2f3f
00000010: b8bd d7be 898f 23be 3d8a 8cbd 2311 5fbd
00000020: 625b 89bd 8d55 2e3f 454d 40bd 38ea 4ebd
00000030: 9e7f 54bd b05d 9dbd 1c67 9cbc 5344 75be
00000040: a7d6 71bf a1ca 8ebd 010b 96bd ac0b 61bd
00000050: 2bc2 50bd b986 46bd 4d05 93bd 4a3a 0fbf
00000060: 4d21 64bd b928 7fbd 06c9 48bd 35a3 68bc
00000070: 709e 84bd 7a55 60bd c736 31bd df32 95bd
00000080: d815 efbb ff57 dfbc 80b6 77bd 4ab7 7cbd
00000090: ec58 6ebd 0695 173f b4a7 a3bb ae0e 67bd
000000a0: d558 97bd b2e5 7dbd 5605 60bd 03b7 87bd
000000b0: 5f3b 18bd 17ca 3abd f3ec 9cbd 2f41 50bd
000000c0: cea1 d5bb d539 93bd 9778 97bd dcae 3bbf
000000d0: 48fd 93ba 6262 6abd 6255 85bd 122e 80bd
000000e0: ef5e 4cbd 6339 14bf aa60 23bc 1bc3 b5bc
000000f0: ecd1 89bc 1576 80bd 1fe8 84bd 878d 10bd
00000100: 55cc 78bd 80e9 86bd 9bd5 afbb f01e 6fbd
00000110: 55ad 00bc 11b6 6bbd 0704 723f f2c9 863f
00000120: a43a 50bf b099 8bbd 9171 30bd 44c6 60bd
00000130: 7764 103e 8f46 5ebd 59f1 58be 0b6b 213f
00000140: 4d0f 61bc f39a 4fbc 2f94 68bb 1a64 a8be
00000150: ca8d 8abd 0073 7ebf 4f80 5cbd 5dd7 9dbe
00000160: 73d4 a3bd 8576 2ebd 295b c5bd f92d 7abd
00000170: dfcc a2bc c623 9a3f a8e8 86bd d47b 5dbc
00000180: 3a5d 81bd 472d 4bbf 4896 55bd 0be6 61bd
00000190: 54de 84bd 4b01 3ebd e81e cfbc 8702 8bbd
000001a0: 9b43 24bd 8675 67bd 2d18 31bf 7467 7d3f
000001b0: 80a2 4bbd 8e1d 97bd d987 88bd 8a5a 64bd
000001c0: 8245 7cbd 8818 40bd 27bb 10bc 0686 72bd
000001d0: 68e3 6bbd 5c3f c33e b76d 0abb 8705 4cbd
000001e0: 6c1d 67bd dc5b 9cbd 09c1 91bc 7522 4cbd
000001f0: b921 e73d 58dd e3be b959 cc3e 5d9f 86bd

mu.weight f4 [12, 128]
0.00771962 -0.06443734 -0.06579948 0.06249368 -0.06305903 -0.058764268 -0.014308487 -0.04904139
-0.070848875 0.13528118 0.015316603 -0.015605393 -0.0016005484 0.103772685 0.001620348 0.050649066
-0.031299878 -0.18565696 -0.22924048 -0.14019497 -0.00043727085 -0.0014331512 0.11783477 0.110746264
0.061483227 -0.099775895 -0.18052547 0.08533961 -0.22052298 -0.030977728 0.18372716 0.064472355
0.0030748416 0.034131106 0.050219562 -0.10187205 0.061509196 -0.11955477 0.0827188 -0.09867249
0.020822471 0.017497893 0.031293 -0.02969494 -0.054738995 0.070490874 -0.19255787 0.115720056
-0.09923525 -0.0899893 -0.09357437 0.021954544 0.1775136 0.06613232 -0.19787338 0.15528862
0.008710389 -0.007316064 0.011577772 -0.0023262452 0.05674174 -0.10864307 0.084291935 0.015506064
0.0030515834 0.32043144 -0.008665271 0.004887976 0.022672974 0.0683447 0.031730436 -0.016130308
-0.09738776 -0.2900895 0.0015849825 -0.021234006 0.023364022 -0.006976463 -0.07194525 0.1025902
-0.07437775 0.10612496 -0.12774698 0.07112082 0.0002837705 0.02399396 -0.010775813 0.06192748
-0.036726743 0.16095181 0.053772267 -0.101302825 0.0074044988 -0.110823885 0.08895251 -0.00060323987
-0.020507094 -0.085632 0.013927861 0.16951102 0.12815265 0.15328823 -0.14643556 -0.00029886578
-0.073972814 -0.04233702 -0.0009965834 0.20628814 0.083811894 0.13989098 0.054032765 0.0060297
0.00035196476 -0.03150611 0.054685097 0.09578302 -0.08818864 0.015136989 -0.14212738 0.056499284
-0.026889266 0.04550173 0.1515973 -0.027409092 -0.0022389793 0.012091352 0.0024612446 -0.024528878
0.0030959782 0.09701141 0.0408626 0.013769231 0.04153986 -0.025384886 0.19409898 -0.2139189
0.05719001 -0.022074115 0.054651882 -0.043773517 0.11785835 0.13083784 -0.0039709904 0.05576235
0.099746935 -0.045647405 0.09920195 0.005245757 -0.020764047 0.012703974 -0.06212583 0.14050175
-0.031196065 -0.005163118 0.14104997 -0.047324892 0.14396963 -0.021930771 -0.1127853 0.08125669
-0.0075488715 0.1256475 0.058986858 0.019974278 -0.105180606 0.053160388 -0.04806776 -0.10812621
0.045957476 -0.031595778 0.16006655 -0.009183886 -0.032021556 -0.14423941 -0.08457931 0.11494059
-0.040122464 -0.0934347 0.23556645 0.1132365 -0.016160402 0.04560956 -0.21534929 -0.13234212
0.007871629 -0.004418999 -0.047205493 0.0144928275 -0.06691488 -0.15023248 0.0905899 -0.0092141945
0.0031317638 0.121633254 -0.01154299 -0.0014558182 -0.06562259 -0.0418348 0.109877676 -0.0058407667
0.047709 -0.16546647 -0.0029394808 -0.24847157 0.13627028 -0.007101301 0.01905144 -0.11988583
-0.056012493 0.074829526 0.10717128 0.013439065 0.013114559 0.13038428 -0.045507498 -0.009767517
-0.15446779 -0.04113762 -0.09218903 -0.20348607 -0.013765314 0.097388424 0.04993377 -0.011809634
-0.09307742 -0.13767275 0.04513684 0.024973953 -0.04073904 -0.07371798 0.08304534 -0.0005335228
-0.011278809 0.1550151 0.10907668 -0.40871906 -0.23968571 -0.081647806 -0.02624263 0.13222463
-0.028452089 0.035303988 -0.227221 0.094308056 0.064636715 -0.031034665 0.051181443 -0.057777774
-0.2515604 -0.16276118 -0.19633494 0.025416521 0.0026062145 -0.06654553 -0.003845741 0.07319113
00000000: def4 fc3b b9f7 83bd e1c1 86bd 5ff9 7f3d
00000010: 1825 81bd cdb2 70bd 256e 6abc a0df 48bd
00000020: 3719 91bd 2687 0a3e 7df2 7a3c c3ad 7fbc
00000030: 7ec9 d1ba c686 d43d db61 d43a 6575 4f3d
00000040: 4d34 00bd dc1c 3ebe 04be 6abe 458f 0fbe
00000050: 8041 e5b9 93d8 bbba 5b53 f13d f0ce e23d
00000060: d6d5 7b3d 4e57 ccbd abdb 38be 89c6 ae3d
00000070: c7d0 61be 01c5 fdbc f922 3c3e 150a 843d
00000080: 4883 493b 0fcd 0b3d 07b3 4d3d 4ba2 d0bd
00000090: 11f1 7b3d 22d9 f4bd 7968 a93d cd14 cabd
000000a0: e393 aa3c be57 8f3c 172d 003d ce42 f3bc
000000b0: ff35 60bd 855d 903d e42d 45be a3fe ec3d
000000c0: da3b cbbd 4f4c b8bd eba3 bfbd 04da b33c
000000d0: 20c6 353e 6270 873d 529f 4abe fb03 1f3e
000000e0: 05b6 0e3c 98bb efbb b2b0 3d3c eb73 18bb
000000f0: 076a 683d 4280 debd 40a1 ac3d 250d 7e3c
00000100: 13fd 473b 970f a43e c8f8 0dbc 512b a03b
00000110: acbc b93c 4ef8 8b3d c6f7 013d b523 84bc
00000120: 3c73 c7bd 9c86 94be 30bf cf3a f0f2 adbc
00000130: e865 bf3c d09a e4bb 0858 93bd d01a d23d
00000140: 5d53 98bd 0b58 d93d 1bd0 02be cba7 913d
00000150: 08c7 9439 fb8e c43c 098d 30bc aba7 7d3d
00000160: c86e 16bd 8dd0 243e 4f40 5c3d db77 cfbd
00000170: 70a1 f23b a2f7 e2bd bc2c b63d be22 1eba
00000180: 7efe a7bc d45f afbd af31 643c 4c94 2d3e
00000190: 733a 033e 97f7 1c3e 34f3 15be 16b1 9cb9
000001a0: 0f7f 97bd 9569 2dbd ca9f 82ba 333d 533e
000001b0: 92a5 ab3d 953f 0f3e 7651 5d3d ca94 c53b
000001c0: e987 b839 8d0c 01bd 7bfd 5f3d e329 c43d
000001d0: 3f9c b4bd 2201 783c d789 11be cb6b 673d
000001e0: e146 dcbc 0660 3a3d 533c 1b3e 0889 e0bc
000001f0: d7bb 12bb ce1a 463c d54c 213b c9f0 c8bc
00000200: e5e5 4a3b ebad c63d 8b5f 273d 5798 613c
00000210: b325 2a3d f7f3 cfbc e2c1 463e 8e0d 5bbe
00000220: 1240 6a3d c6d4 b4bc a7da 5f3d dc4b 33bd
00000230: b85f f13d 5bfa 053e 151f 82bb 1067 643d
00000240: 1f48 cc3d c6f8 3abd 642a cb3d 99e4 ab3b
00000250: 5d19 aabc 5424 503c a877 7ebd b1df 0f3e
00000260: e48e ffbc 5f2f a9bb 676f 103e bfd7 41bd
00000270: c66c 133e 29a8 b3bc fbfb e6bd e869 a63d
00000280: 865c f7bb bda9 003e 349c 713d 19a1 a33c
00000290: ee68 d7bd b5be 593d b3e2 44bd 4671 ddbd
000002a0: e83d 3c3d 936a 01bd 7ce8 233e 0378 16bc
000002b0: 0929 03bd 7fb3 13be eb37 adbd f965 eb3d
000002c0: 7457 24bd b15a bfbd 5538 713e 8ae8 e73d
000002d0: d262 84bc 17d1 3a3d 8684 5cbe b184 07be
000002e0: 01f8 003c 40cd 90bb 8c5a 41bd 5373 6d3c
000002f0: ab0a 89bd 8bd6 19be 3387 b93d 22f7 16bc
00000300: 473e 4d3b db1a f93d cf1e 3dbc 27d1 beba
00000310: 2365 86bd f85a 2bbd 8c07 e13d e763 bfbb
00000320: 836a 433d 0b70 29be 4ea4 40bb 556f 7ebe
00000330: 708a 0b3e 08b2 e8bb c411 9c3c b486 f5bd
00000340: 5b6d 65bd 3940 993d 9e7c db3d 862f 5c3c
00000350: 73de 563c 7583 053e 1266 3abd f007 20bc
00000360: ce2c 1ebe ec7f 28bd 9acd bcbd a75e 50be
00000370: e987 61bc 9573 c73d 5a87 4c3d 327d 41bc
00000380: 609f bebd 16fa 0cbe 68e1 383d 2d96 cc3c
00000390: fbdd 26bd 74f9 96bd ad13 aa3d 1cdc 0bba
000003a0: c1ca 38bc 47bc 1e3e 9863 df3d a043 d1be
000003b0: 2c70 75be f736 a7bd c9fa d6bc e565 073e
000003c0: 5b14 e9bc ea9a 103d 9fac 68be 9524 c13d
000003d0: 4160 843d 693c febc a2a3 513d 63a8 6cbd
000003e0: 86cc 80be deaa 26be 070c 49be 4f36 d03c
000003f0: 06cd 2a3b 0649 88bd d408 7cbb 3be5 953d

mu.bias f4 [12]
-0.0043663243 -0.008042149 0.06894365 0.044828705 -0.0053525823 0.0040199715 -0.02186082 0.0033549208
0.019464402 -0.0009901349 -0.009218042 0.07267553
00000000: 6213 8fbb 38c3 03bc 5432 8d3d 4e9e 373d
00000010: b764 afbb f7b9 833b 7615 b3bc 3bde 5b3b
00000020: cf73 9f3c 6ac7 81ba 4507 17bc e9d6 943d

v.weight f4 [1, 128]
0.05716095 0.054364428 -0.033167206 0.14382793 -0.1833625 -0.010237044 -0.065179795 0.03914387
0.050977036 0.1036326 0.05877284 -0.00556588 0.054715402 -0.04635804 -0.12666789 -0.29870465
-0.07984096 0.042549793 0.05684339 0.055118226 0.058860056 0.055861626 0.04340649 -0.09859892
0.05255414 0.055823173 0.05169724 -0.041626107 0.057020284 0.056126833 0.05224432 0.045056343
-0.033356804 0.027020294 0.047998752 0.049483035 0.04878244 -0.14181525 -0.029794043 0.04948646
0.058431815 0.053869277 0.056313824 0.0012503114 -0.0016293972 0.05795353 -0.025930779 0.05033203
-0.036144927 0.05571023 0.048593722 -0.52808034 -0.033854853 0.054825038 -0.003175546 0.052501447
0.045201313 -0.05454317 -0.03839475 0.016867738 -0.033965614 0.052587748 0.045113124 -0.0013333966
0.057303853 0.049344767 -0.029381206 0.054227192 -0.0267921 0.045134038 0.5065577 0.48087502
-0.3091909 0.045202274 -0.0061850944 0.045408443 -0.2530801 0.050845083 -0.2050657 -0.018630855
-0.03103469 -0.034585264 -0.033293217 0.011749731 0.046377912 -1.0957236 0.053759735 -0.87418294
-0.048760034 0.048272032 0.013453534 0.05408358 -0.029071145 0.60253686 0.038242627 -0.03578934
0.047001712 -0.6963429 0.05407035 0.051280838 0.056008358 0.04807645 0.0583108 0.05704067
0.012059958 0.05654584 -1.2019366 0.6461203 0.05296904 0.04979569 0.054780062 0.056841426
0.057965845 0.053717066 -0.03633875 0.05377808 0.055358443 0.1399158 -0.02952343 0.036597405
0.056370653 0.05382757 -0.031927306 0.053789113 -0.00465506 -0.069602 0.096418165 0.05100357
00000000: 9a21 6a3d 3cad 5e3d 56da 07bd a147 133e
00000010: 61c3 3bbe 46b9 27bc fc7c 85bd 5355 203d
00000020: 4ccd 503d 543d d43d cabb 703d fc61 b6bb
00000030: 421d 603d eee1 3dbd 3ab5 01be d1ef 98be
00000040: a883 a3bd b148 2e3d 9dd4 683d a6c3 613d
00000050: 3e17 713d 29cf 643d 01cb 313d 3bee c9bd
00000060: 0343 573d d7a6 643d 7cc0 533d 2380 2abd
00000070: 1a8e 693d 40e5 653d 24fe 553d 008d 383d
00000080: 25a1 08bd aa59 dd3c 579a 443d b9ae 4a3d
00000090: 19d0 473d 0438 11be a312 f4bc 50b2 4a3d
000000a0: 3356 6f3d 08a6 5c3d 53a9 663d 7de1 a33a
000000b0: 7f91 d5ba ae60 6d3d c96c d4bc f528 4e3d
000000c0: b40c 14bd 6930 643d 360a 473d 4630 07bf
000000d0: 63ab 0abd 3890 603d d21c 50bb c20b 573d
000000e0: 0325 393d a968 5fbd d043 1dbd 362e 8a3c
000000f0: 871f 0bbd 4066 573d 8ac8 383d 5ec5 aeba
00000100: 72b7 6a3d bd1d 4a3d dbb0 f0bc 551d 5e3d
00000110: 1b7b dbbc 78de 383d c4ad 013f 4035 f63e
00000120: 454e 9ebe 0526 393d 55ac cabb 34fe 393d
00000130: b793 81be ef42 503d befc 51be bc9f 98bc
00000140: 763c febc 47a9 0dbd 785e 08bd f281 403c
00000150: c4f6 3d3d ac40 8cbf 2b33 5c3d 74ca 5fbf
00000160: 9ab8 47bd e5b8 453d 366c 5c3c be86 5d3d
00000170: 9c26 eebc db3f 1a3f 4da4 1c3d d897 12bd
00000180: de84 403d 8743 32bf df78 5d3d db0b 523d
00000190: 0569 653d d0eb 443d 4ed7 6e3d 7aa3 693d
000001a0: 2197 453c 9c9c 673d 0fd9 99bf 2468 253f
000001b0: 10f6 583d 91f6 4b3d 0f61 603d 8ed2 683d
000001c0: 986d 6d3d 6d06 5c3d f1d7 14bd 6746 5c3d
000001d0: 89bf 623d 1646 0f3e 1fdb f1bc 29e7 153d
000001e0: eae4 663d 4c7a 5c3d 35c6 02bd f951 5c3d
000001f0: 7989 98bb 7e8b 8ebd e376 c53d 1fe9 503d
